{"weightsManifest": [{"paths": ["group1-shard1of13", "group1-shard2of13", "group1-shard3of13", "group1-shard4of13", "group1-shard5of13", "group1-shard6of13", "group1-shard7of13", "group1-shard8of13", "group1-shard9of13", "group1-shard10of13", "group1-shard11of13", "group1-shard12of13", "group1-shard13of13"], "weights": [{"shape": [1], "name": "SecondStagePostprocessor/BatchMultiClassNonMaxSuppression/map/TensorArrayUnstack_1/strided_slice/stack_1", "dtype": "int32"}, {"shape": [1], "name": "SecondStagePostprocessor/BatchMultiClassNonMaxSuppression/map/TensorArrayUnstack_1/strided_slice/stack", "dtype": "int32"}, {"shape": [], "name": "FirstStageBoxPredictor/Reshape/shape/3", "dtype": "int32"}, {"shape": [], "name": "SecondStageFeatureExtractor/InceptionV2/Mixed_5a/concat/axis", "dtype": "int32"}, {"shape": [], "name": "mul/y", "dtype": "int32"}, {"shape": [4], "name": "SecondStagePostprocessor/Reshape/shape", "dtype": "int32"}, {"shape": [4], "name": "SecondStageBoxPredictor/Reshape/shape", "dtype": "int32"}, {"shape": [12], "name": "SecondStageBoxPredictor/BoxEncodingPredictor/biases", "dtype": "float32"}, {"shape": [1024, 12], "name": "SecondStageBoxPredictor/BoxEncodingPredictor/weights", "dtype": "float32"}, {"shape": [], "name": "SecondStageBoxPredictor/Flatten_1/flatten/Reshape/shape/1", "dtype": "int32"}, {"shape": [2], "name": "SecondStageBoxPredictor/AvgPool_1/reduction_indices", "dtype": "int32"}, {"shape": [128], "name": "SecondStageFeatureExtractor/InceptionV2/Mixed_5c/Branch_3/Conv2d_0b_1x1/BatchNorm/FusedBatchNorm/Offset", "dtype": "float32"}, {"shape": [1, 1, 1024, 128], "name": "SecondStageFeatureExtractor/InceptionV2/Mixed_5c/Branch_3/Conv2d_0b_1x1/Conv2D/merged_input", "dtype": "float32"}, {"shape": [128], "name": "SecondStageFeatureExtractor/InceptionV2/Mixed_5b/Branch_3/Conv2d_0b_1x1/BatchNorm/FusedBatchNorm/Offset", "dtype": "float32"}, {"shape": [1, 1, 1024, 128], "name": "SecondStageFeatureExtractor/InceptionV2/Mixed_5b/Branch_3/Conv2d_0b_1x1/Conv2D/merged_input", "dtype": "float32"}, {"shape": [2], "name": "CropAndResize/CropAndResize/crop_size", "dtype": "int32"}, {"shape": [1], "name": "GridAnchorGenerator/Meshgrid_3/ExpandedShape_1/Slice_1/size", "dtype": "int32"}, {"shape": [], "name": "SecondStagePostprocessor/BatchMultiClassNonMaxSuppression/map/TensorArrayStack/range/delta", "dtype": "int32"}, {"shape": [], "name": "SecondStagePostprocessor/ExpandDims/dim", "dtype": "int32"}, {"shape": [1], "name": "strided_slice_15/stack_1", "dtype": "int32"}, {"shape": [512], "name": "Conv/biases", "dtype": "float32"}, {"shape": [3, 3, 576, 512], "name": "Conv/weights", "dtype": "float32"}, {"shape": [], "name": "add_2/y", "dtype": "float32"}, {"shape": [], "name": "SecondStagePostprocessor/BatchMultiClassNonMaxSuppression/map/TensorArrayStack/range/start", "dtype": "int32"}, {"shape": [], "name": "Preprocessor/mul/x", "dtype": "float32"}, {"shape": [1], "name": "strided_slice_14/stack_1", "dtype": "int32"}, {"shape": [96], "name": "FirstStageFeatureExtractor/InceptionV2/InceptionV2/Mixed_4e/Branch_3/Conv2d_0b_1x1/BatchNorm/FusedBatchNorm/Offset", "dtype": "float32"}, {"shape": [1, 1, 576, 96], "name": "FirstStageFeatureExtractor/InceptionV2/InceptionV2/Mixed_4e/Branch_3/Conv2d_0b_1x1/Conv2D/merged_input", "dtype": "float32"}, {"shape": [96], "name": "FirstStageFeatureExtractor/InceptionV2/InceptionV2/Mixed_4d/Branch_3/Conv2d_0b_1x1/BatchNorm/FusedBatchNorm/Offset", "dtype": "float32"}, {"shape": [1, 1, 576, 96], "name": "FirstStageFeatureExtractor/InceptionV2/InceptionV2/Mixed_4d/Branch_3/Conv2d_0b_1x1/Conv2D/merged_input", "dtype": "float32"}, {"shape": [128], "name": "FirstStageFeatureExtractor/InceptionV2/InceptionV2/Mixed_4c/Branch_3/Conv2d_0b_1x1/BatchNorm/FusedBatchNorm/Offset", "dtype": "float32"}, {"shape": [1, 1, 576, 128], "name": "FirstStageFeatureExtractor/InceptionV2/InceptionV2/Mixed_4c/Branch_3/Conv2d_0b_1x1/Conv2D/merged_input", "dtype": "float32"}, {"shape": [128], "name": "FirstStageFeatureExtractor/InceptionV2/InceptionV2/Mixed_4b/Branch_3/Conv2d_0b_1x1/BatchNorm/FusedBatchNorm/Offset", "dtype": "float32"}, {"shape": [1, 1, 576, 128], "name": "FirstStageFeatureExtractor/InceptionV2/InceptionV2/Mixed_4b/Branch_3/Conv2d_0b_1x1/Conv2D/merged_input", "dtype": "float32"}, {"shape": [64], "name": "FirstStageFeatureExtractor/InceptionV2/InceptionV2/Mixed_3c/Branch_3/Conv2d_0b_1x1/BatchNorm/FusedBatchNorm/Offset", "dtype": "float32"}, {"shape": [1, 1, 256, 64], "name": "FirstStageFeatureExtractor/InceptionV2/InceptionV2/Mixed_3c/Branch_3/Conv2d_0b_1x1/Conv2D/merged_input", "dtype": "float32"}, {"shape": [32], "name": "FirstStageFeatureExtractor/InceptionV2/InceptionV2/Mixed_3b/Branch_3/Conv2d_0b_1x1/BatchNorm/FusedBatchNorm/Offset", "dtype": "float32"}, {"shape": [1, 1, 192, 32], "name": "FirstStageFeatureExtractor/InceptionV2/InceptionV2/Mixed_3b/Branch_3/Conv2d_0b_1x1/Conv2D/merged_input", "dtype": "float32"}, {"shape": [192], "name": "FirstStageFeatureExtractor/InceptionV2/InceptionV2/Conv2d_2c_3x3/BatchNorm/FusedBatchNorm/Offset", "dtype": "float32"}, {"shape": [3, 3, 64, 192], "name": "FirstStageFeatureExtractor/InceptionV2/InceptionV2/Conv2d_2c_3x3/Conv2D/merged_input", "dtype": "float32"}, {"shape": [64], "name": "FirstStageFeatureExtractor/InceptionV2/InceptionV2/Conv2d_2b_1x1/BatchNorm/FusedBatchNorm/Offset", "dtype": "float32"}, {"shape": [1, 1, 64, 64], "name": "FirstStageFeatureExtractor/InceptionV2/InceptionV2/Conv2d_2b_1x1/Conv2D/merged_input", "dtype": "float32"}, {"shape": [64], "name": "FirstStageFeatureExtractor/InceptionV2/InceptionV2/Conv2d_1a_7x7/BatchNorm/FusedBatchNorm/Offset", "dtype": "float32"}, {"shape": [1, 1, 24, 64], "name": "FirstStageFeatureExtractor/InceptionV2/InceptionV2/Conv2d_1a_7x7/separable_conv2d/merged_input", "dtype": "float32"}, {"shape": [7, 7, 3, 8], "name": "FirstStageFeatureExtractor/InceptionV2/Conv2d_1a_7x7/depthwise_weights", "dtype": "float32"}, {"shape": [96], "name": "FirstStageFeatureExtractor/InceptionV2/InceptionV2/Mixed_3b/Branch_2/Conv2d_0c_3x3/BatchNorm/FusedBatchNorm/Offset", "dtype": "float32"}, {"shape": [3, 3, 96, 96], "name": "FirstStageFeatureExtractor/InceptionV2/InceptionV2/Mixed_3b/Branch_2/Conv2d_0c_3x3/Conv2D/merged_input", "dtype": "float32"}, {"shape": [96], "name": "FirstStageFeatureExtractor/InceptionV2/InceptionV2/Mixed_3b/Branch_2/Conv2d_0b_3x3/BatchNorm/FusedBatchNorm/Offset", "dtype": "float32"}, {"shape": [3, 3, 64, 96], "name": "FirstStageFeatureExtractor/InceptionV2/InceptionV2/Mixed_3b/Branch_2/Conv2d_0b_3x3/Conv2D/merged_input", "dtype": "float32"}, {"shape": [64], "name": "FirstStageFeatureExtractor/InceptionV2/InceptionV2/Mixed_3b/Branch_2/Conv2d_0a_1x1/BatchNorm/FusedBatchNorm/Offset", "dtype": "float32"}, {"shape": [1, 1, 192, 64], "name": "FirstStageFeatureExtractor/InceptionV2/InceptionV2/Mixed_3b/Branch_2/Conv2d_0a_1x1/Conv2D/merged_input", "dtype": "float32"}, {"shape": [64], "name": "FirstStageFeatureExtractor/InceptionV2/InceptionV2/Mixed_3b/Branch_1/Conv2d_0b_3x3/BatchNorm/FusedBatchNorm/Offset", "dtype": "float32"}, {"shape": [3, 3, 64, 64], "name": "FirstStageFeatureExtractor/InceptionV2/InceptionV2/Mixed_3b/Branch_1/Conv2d_0b_3x3/Conv2D/merged_input", "dtype": "float32"}, {"shape": [64], "name": "FirstStageFeatureExtractor/InceptionV2/InceptionV2/Mixed_3b/Branch_1/Conv2d_0a_1x1/BatchNorm/FusedBatchNorm/Offset", "dtype": "float32"}, {"shape": [1, 1, 192, 64], "name": "FirstStageFeatureExtractor/InceptionV2/InceptionV2/Mixed_3b/Branch_1/Conv2d_0a_1x1/Conv2D/merged_input", "dtype": "float32"}, {"shape": [64], "name": "FirstStageFeatureExtractor/InceptionV2/InceptionV2/Mixed_3b/Branch_0/Conv2d_0a_1x1/BatchNorm/FusedBatchNorm/Offset", "dtype": "float32"}, {"shape": [1, 1, 192, 64], "name": "FirstStageFeatureExtractor/InceptionV2/InceptionV2/Mixed_3b/Branch_0/Conv2d_0a_1x1/Conv2D/merged_input", "dtype": "float32"}, {"shape": [96], "name": "FirstStageFeatureExtractor/InceptionV2/InceptionV2/Mixed_3c/Branch_2/Conv2d_0c_3x3/BatchNorm/FusedBatchNorm/Offset", "dtype": "float32"}, {"shape": [3, 3, 96, 96], "name": "FirstStageFeatureExtractor/InceptionV2/InceptionV2/Mixed_3c/Branch_2/Conv2d_0c_3x3/Conv2D/merged_input", "dtype": "float32"}, {"shape": [96], "name": "FirstStageFeatureExtractor/InceptionV2/InceptionV2/Mixed_3c/Branch_2/Conv2d_0b_3x3/BatchNorm/FusedBatchNorm/Offset", "dtype": "float32"}, {"shape": [3, 3, 64, 96], "name": "FirstStageFeatureExtractor/InceptionV2/InceptionV2/Mixed_3c/Branch_2/Conv2d_0b_3x3/Conv2D/merged_input", "dtype": "float32"}, {"shape": [64], "name": "FirstStageFeatureExtractor/InceptionV2/InceptionV2/Mixed_3c/Branch_2/Conv2d_0a_1x1/BatchNorm/FusedBatchNorm/Offset", "dtype": "float32"}, {"shape": [1, 1, 256, 64], "name": "FirstStageFeatureExtractor/InceptionV2/InceptionV2/Mixed_3c/Branch_2/Conv2d_0a_1x1/Conv2D/merged_input", "dtype": "float32"}, {"shape": [96], "name": "FirstStageFeatureExtractor/InceptionV2/InceptionV2/Mixed_3c/Branch_1/Conv2d_0b_3x3/BatchNorm/FusedBatchNorm/Offset", "dtype": "float32"}, {"shape": [3, 3, 64, 96], "name": "FirstStageFeatureExtractor/InceptionV2/InceptionV2/Mixed_3c/Branch_1/Conv2d_0b_3x3/Conv2D/merged_input", "dtype": "float32"}, {"shape": [64], "name": "FirstStageFeatureExtractor/InceptionV2/InceptionV2/Mixed_3c/Branch_1/Conv2d_0a_1x1/BatchNorm/FusedBatchNorm/Offset", "dtype": "float32"}, {"shape": [1, 1, 256, 64], "name": "FirstStageFeatureExtractor/InceptionV2/InceptionV2/Mixed_3c/Branch_1/Conv2d_0a_1x1/Conv2D/merged_input", "dtype": "float32"}, {"shape": [64], "name": "FirstStageFeatureExtractor/InceptionV2/InceptionV2/Mixed_3c/Branch_0/Conv2d_0a_1x1/BatchNorm/FusedBatchNorm/Offset", "dtype": "float32"}, {"shape": [1, 1, 256, 64], "name": "FirstStageFeatureExtractor/InceptionV2/InceptionV2/Mixed_3c/Branch_0/Conv2d_0a_1x1/Conv2D/merged_input", "dtype": "float32"}, {"shape": [96], "name": "FirstStageFeatureExtractor/InceptionV2/InceptionV2/Mixed_4a/Branch_1/Conv2d_1a_3x3/BatchNorm/FusedBatchNorm/Offset", "dtype": "float32"}, {"shape": [3, 3, 96, 96], "name": "FirstStageFeatureExtractor/InceptionV2/InceptionV2/Mixed_4a/Branch_1/Conv2d_1a_3x3/Conv2D/merged_input", "dtype": "float32"}, {"shape": [96], "name": "FirstStageFeatureExtractor/InceptionV2/InceptionV2/Mixed_4a/Branch_1/Conv2d_0b_3x3/BatchNorm/FusedBatchNorm/Offset", "dtype": "float32"}, {"shape": [3, 3, 64, 96], "name": "FirstStageFeatureExtractor/InceptionV2/InceptionV2/Mixed_4a/Branch_1/Conv2d_0b_3x3/Conv2D/merged_input", "dtype": "float32"}, {"shape": [64], "name": "FirstStageFeatureExtractor/InceptionV2/InceptionV2/Mixed_4a/Branch_1/Conv2d_0a_1x1/BatchNorm/FusedBatchNorm/Offset", "dtype": "float32"}, {"shape": [1, 1, 320, 64], "name": "FirstStageFeatureExtractor/InceptionV2/InceptionV2/Mixed_4a/Branch_1/Conv2d_0a_1x1/Conv2D/merged_input", "dtype": "float32"}, {"shape": [160], "name": "FirstStageFeatureExtractor/InceptionV2/InceptionV2/Mixed_4a/Branch_0/Conv2d_1a_3x3/BatchNorm/FusedBatchNorm/Offset", "dtype": "float32"}, {"shape": [3, 3, 128, 160], "name": "FirstStageFeatureExtractor/InceptionV2/InceptionV2/Mixed_4a/Branch_0/Conv2d_1a_3x3/Conv2D/merged_input", "dtype": "float32"}, {"shape": [128], "name": "FirstStageFeatureExtractor/InceptionV2/InceptionV2/Mixed_4a/Branch_0/Conv2d_0a_1x1/BatchNorm/FusedBatchNorm/Offset", "dtype": "float32"}, {"shape": [1, 1, 320, 128], "name": "FirstStageFeatureExtractor/InceptionV2/InceptionV2/Mixed_4a/Branch_0/Conv2d_0a_1x1/Conv2D/merged_input", "dtype": "float32"}, {"shape": [128], "name": "FirstStageFeatureExtractor/InceptionV2/InceptionV2/Mixed_4b/Branch_2/Conv2d_0c_3x3/BatchNorm/FusedBatchNorm/Offset", "dtype": "float32"}, {"shape": [3, 3, 128, 128], "name": "FirstStageFeatureExtractor/InceptionV2/InceptionV2/Mixed_4b/Branch_2/Conv2d_0c_3x3/Conv2D/merged_input", "dtype": "float32"}, {"shape": [128], "name": "FirstStageFeatureExtractor/InceptionV2/InceptionV2/Mixed_4b/Branch_2/Conv2d_0b_3x3/BatchNorm/FusedBatchNorm/Offset", "dtype": "float32"}, {"shape": [3, 3, 96, 128], "name": "FirstStageFeatureExtractor/InceptionV2/InceptionV2/Mixed_4b/Branch_2/Conv2d_0b_3x3/Conv2D/merged_input", "dtype": "float32"}, {"shape": [96], "name": "FirstStageFeatureExtractor/InceptionV2/InceptionV2/Mixed_4b/Branch_2/Conv2d_0a_1x1/BatchNorm/FusedBatchNorm/Offset", "dtype": "float32"}, {"shape": [1, 1, 576, 96], "name": "FirstStageFeatureExtractor/InceptionV2/InceptionV2/Mixed_4b/Branch_2/Conv2d_0a_1x1/Conv2D/merged_input", "dtype": "float32"}, {"shape": [96], "name": "FirstStageFeatureExtractor/InceptionV2/InceptionV2/Mixed_4b/Branch_1/Conv2d_0b_3x3/BatchNorm/FusedBatchNorm/Offset", "dtype": "float32"}, {"shape": [3, 3, 64, 96], "name": "FirstStageFeatureExtractor/InceptionV2/InceptionV2/Mixed_4b/Branch_1/Conv2d_0b_3x3/Conv2D/merged_input", "dtype": "float32"}, {"shape": [64], "name": "FirstStageFeatureExtractor/InceptionV2/InceptionV2/Mixed_4b/Branch_1/Conv2d_0a_1x1/BatchNorm/FusedBatchNorm/Offset", "dtype": "float32"}, {"shape": [1, 1, 576, 64], "name": "FirstStageFeatureExtractor/InceptionV2/InceptionV2/Mixed_4b/Branch_1/Conv2d_0a_1x1/Conv2D/merged_input", "dtype": "float32"}, {"shape": [224], "name": "FirstStageFeatureExtractor/InceptionV2/InceptionV2/Mixed_4b/Branch_0/Conv2d_0a_1x1/BatchNorm/FusedBatchNorm/Offset", "dtype": "float32"}, {"shape": [1, 1, 576, 224], "name": "FirstStageFeatureExtractor/InceptionV2/InceptionV2/Mixed_4b/Branch_0/Conv2d_0a_1x1/Conv2D/merged_input", "dtype": "float32"}, {"shape": [128], "name": "FirstStageFeatureExtractor/InceptionV2/InceptionV2/Mixed_4c/Branch_2/Conv2d_0c_3x3/BatchNorm/FusedBatchNorm/Offset", "dtype": "float32"}, {"shape": [3, 3, 128, 128], "name": "FirstStageFeatureExtractor/InceptionV2/InceptionV2/Mixed_4c/Branch_2/Conv2d_0c_3x3/Conv2D/merged_input", "dtype": "float32"}, {"shape": [128], "name": "FirstStageFeatureExtractor/InceptionV2/InceptionV2/Mixed_4c/Branch_2/Conv2d_0b_3x3/BatchNorm/FusedBatchNorm/Offset", "dtype": "float32"}, {"shape": [3, 3, 96, 128], "name": "FirstStageFeatureExtractor/InceptionV2/InceptionV2/Mixed_4c/Branch_2/Conv2d_0b_3x3/Conv2D/merged_input", "dtype": "float32"}, {"shape": [96], "name": "FirstStageFeatureExtractor/InceptionV2/InceptionV2/Mixed_4c/Branch_2/Conv2d_0a_1x1/BatchNorm/FusedBatchNorm/Offset", "dtype": "float32"}, {"shape": [1, 1, 576, 96], "name": "FirstStageFeatureExtractor/InceptionV2/InceptionV2/Mixed_4c/Branch_2/Conv2d_0a_1x1/Conv2D/merged_input", "dtype": "float32"}, {"shape": [128], "name": "FirstStageFeatureExtractor/InceptionV2/InceptionV2/Mixed_4c/Branch_1/Conv2d_0b_3x3/BatchNorm/FusedBatchNorm/Offset", "dtype": "float32"}, {"shape": [3, 3, 96, 128], "name": "FirstStageFeatureExtractor/InceptionV2/InceptionV2/Mixed_4c/Branch_1/Conv2d_0b_3x3/Conv2D/merged_input", "dtype": "float32"}, {"shape": [96], "name": "FirstStageFeatureExtractor/InceptionV2/InceptionV2/Mixed_4c/Branch_1/Conv2d_0a_1x1/BatchNorm/FusedBatchNorm/Offset", "dtype": "float32"}, {"shape": [1, 1, 576, 96], "name": "FirstStageFeatureExtractor/InceptionV2/InceptionV2/Mixed_4c/Branch_1/Conv2d_0a_1x1/Conv2D/merged_input", "dtype": "float32"}, {"shape": [192], "name": "FirstStageFeatureExtractor/InceptionV2/InceptionV2/Mixed_4c/Branch_0/Conv2d_0a_1x1/BatchNorm/FusedBatchNorm/Offset", "dtype": "float32"}, {"shape": [1, 1, 576, 192], "name": "FirstStageFeatureExtractor/InceptionV2/InceptionV2/Mixed_4c/Branch_0/Conv2d_0a_1x1/Conv2D/merged_input", "dtype": "float32"}, {"shape": [160], "name": "FirstStageFeatureExtractor/InceptionV2/InceptionV2/Mixed_4d/Branch_2/Conv2d_0c_3x3/BatchNorm/FusedBatchNorm/Offset", "dtype": "float32"}, {"shape": [3, 3, 160, 160], "name": "FirstStageFeatureExtractor/InceptionV2/InceptionV2/Mixed_4d/Branch_2/Conv2d_0c_3x3/Conv2D/merged_input", "dtype": "float32"}, {"shape": [160], "name": "FirstStageFeatureExtractor/InceptionV2/InceptionV2/Mixed_4d/Branch_2/Conv2d_0b_3x3/BatchNorm/FusedBatchNorm/Offset", "dtype": "float32"}, {"shape": [3, 3, 128, 160], "name": "FirstStageFeatureExtractor/InceptionV2/InceptionV2/Mixed_4d/Branch_2/Conv2d_0b_3x3/Conv2D/merged_input", "dtype": "float32"}, {"shape": [128], "name": "FirstStageFeatureExtractor/InceptionV2/InceptionV2/Mixed_4d/Branch_2/Conv2d_0a_1x1/BatchNorm/FusedBatchNorm/Offset", "dtype": "float32"}, {"shape": [1, 1, 576, 128], "name": "FirstStageFeatureExtractor/InceptionV2/InceptionV2/Mixed_4d/Branch_2/Conv2d_0a_1x1/Conv2D/merged_input", "dtype": "float32"}, {"shape": [160], "name": "FirstStageFeatureExtractor/InceptionV2/InceptionV2/Mixed_4d/Branch_1/Conv2d_0b_3x3/BatchNorm/FusedBatchNorm/Offset", "dtype": "float32"}, {"shape": [3, 3, 128, 160], "name": "FirstStageFeatureExtractor/InceptionV2/InceptionV2/Mixed_4d/Branch_1/Conv2d_0b_3x3/Conv2D/merged_input", "dtype": "float32"}, {"shape": [128], "name": "FirstStageFeatureExtractor/InceptionV2/InceptionV2/Mixed_4d/Branch_1/Conv2d_0a_1x1/BatchNorm/FusedBatchNorm/Offset", "dtype": "float32"}, {"shape": [1, 1, 576, 128], "name": "FirstStageFeatureExtractor/InceptionV2/InceptionV2/Mixed_4d/Branch_1/Conv2d_0a_1x1/Conv2D/merged_input", "dtype": "float32"}, {"shape": [160], "name": "FirstStageFeatureExtractor/InceptionV2/InceptionV2/Mixed_4d/Branch_0/Conv2d_0a_1x1/BatchNorm/FusedBatchNorm/Offset", "dtype": "float32"}, {"shape": [1, 1, 576, 160], "name": "FirstStageFeatureExtractor/InceptionV2/InceptionV2/Mixed_4d/Branch_0/Conv2d_0a_1x1/Conv2D/merged_input", "dtype": "float32"}, {"shape": [192], "name": "FirstStageFeatureExtractor/InceptionV2/InceptionV2/Mixed_4e/Branch_2/Conv2d_0c_3x3/BatchNorm/FusedBatchNorm/Offset", "dtype": "float32"}, {"shape": [3, 3, 192, 192], "name": "FirstStageFeatureExtractor/InceptionV2/InceptionV2/Mixed_4e/Branch_2/Conv2d_0c_3x3/Conv2D/merged_input", "dtype": "float32"}, {"shape": [192], "name": "FirstStageFeatureExtractor/InceptionV2/InceptionV2/Mixed_4e/Branch_2/Conv2d_0b_3x3/BatchNorm/FusedBatchNorm/Offset", "dtype": "float32"}, {"shape": [3, 3, 160, 192], "name": "FirstStageFeatureExtractor/InceptionV2/InceptionV2/Mixed_4e/Branch_2/Conv2d_0b_3x3/Conv2D/merged_input", "dtype": "float32"}, {"shape": [160], "name": "FirstStageFeatureExtractor/InceptionV2/InceptionV2/Mixed_4e/Branch_2/Conv2d_0a_1x1/BatchNorm/FusedBatchNorm/Offset", "dtype": "float32"}, {"shape": [1, 1, 576, 160], "name": "FirstStageFeatureExtractor/InceptionV2/InceptionV2/Mixed_4e/Branch_2/Conv2d_0a_1x1/Conv2D/merged_input", "dtype": "float32"}, {"shape": [192], "name": "FirstStageFeatureExtractor/InceptionV2/InceptionV2/Mixed_4e/Branch_1/Conv2d_0b_3x3/BatchNorm/FusedBatchNorm/Offset", "dtype": "float32"}, {"shape": [3, 3, 128, 192], "name": "FirstStageFeatureExtractor/InceptionV2/InceptionV2/Mixed_4e/Branch_1/Conv2d_0b_3x3/Conv2D/merged_input", "dtype": "float32"}, {"shape": [128], "name": "FirstStageFeatureExtractor/InceptionV2/InceptionV2/Mixed_4e/Branch_1/Conv2d_0a_1x1/BatchNorm/FusedBatchNorm/Offset", "dtype": "float32"}, {"shape": [1, 1, 576, 128], "name": "FirstStageFeatureExtractor/InceptionV2/InceptionV2/Mixed_4e/Branch_1/Conv2d_0a_1x1/Conv2D/merged_input", "dtype": "float32"}, {"shape": [96], "name": "FirstStageFeatureExtractor/InceptionV2/InceptionV2/Mixed_4e/Branch_0/Conv2d_0a_1x1/BatchNorm/FusedBatchNorm/Offset", "dtype": "float32"}, {"shape": [1, 1, 576, 96], "name": "FirstStageFeatureExtractor/InceptionV2/InceptionV2/Mixed_4e/Branch_0/Conv2d_0a_1x1/Conv2D/merged_input", "dtype": "float32"}, {"shape": [48], "name": "FirstStageBoxPredictor/BoxEncodingPredictor/biases", "dtype": "float32"}, {"shape": [1, 1, 512, 48], "name": "FirstStageBoxPredictor/BoxEncodingPredictor/weights", "dtype": "float32"}, {"shape": [2], "name": "SecondStagePostprocessor/Decode/transpose/perm", "dtype": "int32"}, {"shape": [], "name": "ConstantFolding/SecondStagePostprocessor/Decode/truediv_2_recip", "dtype": "float32"}, {"shape": [2], "name": "SecondStagePostprocessor/Reshape_3/shape", "dtype": "int32"}, {"shape": [], "name": "GridAnchorGenerator/strided_slice_5", "dtype": "float32"}, {"shape": [2], "name": "GridAnchorGenerator/Reshape_2/shape", "dtype": "int32"}, {"shape": [], "name": "GridAnchorGenerator/strided_slice_4", "dtype": "float32"}, {"shape": [1, 1, 12], "name": "GridAnchorGenerator/Meshgrid_2/Reshape", "dtype": "float32"}, {"shape": [1, 1, 12], "name": "GridAnchorGenerator/Meshgrid_3/Reshape", "dtype": "float32"}, {"shape": [], "name": "GridAnchorGenerator/mul_5/x", "dtype": "float32"}, {"shape": [3], "name": "GridAnchorGenerator/Meshgrid_3/ExpandedShape/concat", "dtype": "int32"}, {"shape": [], "name": "ConstantFolding/SecondStagePostprocessor/Decode/truediv_recip", "dtype": "float32"}, {"shape": [2], "name": "SecondStagePostprocessor/strided_slice_1/stack_2", "dtype": "int32"}, {"shape": [2], "name": "SecondStagePostprocessor/strided_slice_2/stack_1", "dtype": "int32"}, {"shape": [2], "name": "SecondStagePostprocessor/strided_slice_1/stack_1", "dtype": "int32"}, {"shape": [2], "name": "SecondStagePostprocessor/strided_slice_1/stack", "dtype": "int32"}, {"shape": [3], "name": "strided_slice_10/stack_2", "dtype": "int32"}, {"shape": [3], "name": "strided_slice_10/stack_1", "dtype": "int32"}, {"shape": [3], "name": "SecondStagePostprocessor/Slice/begin", "dtype": "int32"}, {"shape": [24], "name": "FirstStageBoxPredictor/ClassPredictor/biases", "dtype": "float32"}, {"shape": [1, 1, 512, 24], "name": "FirstStageBoxPredictor/ClassPredictor/weights", "dtype": "float32"}, {"shape": [256], "name": "SecondStageFeatureExtractor/InceptionV2/Mixed_5a/Branch_1/Conv2d_1a_3x3/BatchNorm/FusedBatchNorm/Offset", "dtype": "float32"}, {"shape": [3, 3, 256, 256], "name": "SecondStageFeatureExtractor/InceptionV2/Mixed_5a/Branch_1/Conv2d_1a_3x3/Conv2D/merged_input", "dtype": "float32"}, {"shape": [256], "name": "SecondStageFeatureExtractor/InceptionV2/Mixed_5a/Branch_1/Conv2d_0b_3x3/BatchNorm/FusedBatchNorm/Offset", "dtype": "float32"}, {"shape": [3, 3, 192, 256], "name": "SecondStageFeatureExtractor/InceptionV2/Mixed_5a/Branch_1/Conv2d_0b_3x3/Conv2D/merged_input", "dtype": "float32"}, {"shape": [192], "name": "SecondStageFeatureExtractor/InceptionV2/Mixed_5a/Branch_1/Conv2d_0a_1x1/BatchNorm/FusedBatchNorm/Offset", "dtype": "float32"}, {"shape": [1, 1, 576, 192], "name": "SecondStageFeatureExtractor/InceptionV2/Mixed_5a/Branch_1/Conv2d_0a_1x1/Conv2D/merged_input", "dtype": "float32"}, {"shape": [192], "name": "SecondStageFeatureExtractor/InceptionV2/Mixed_5a/Branch_0/Conv2d_1a_3x3/BatchNorm/FusedBatchNorm/Offset", "dtype": "float32"}, {"shape": [3, 3, 128, 192], "name": "SecondStageFeatureExtractor/InceptionV2/Mixed_5a/Branch_0/Conv2d_1a_3x3/Conv2D/merged_input", "dtype": "float32"}, {"shape": [128], "name": "SecondStageFeatureExtractor/InceptionV2/Mixed_5a/Branch_0/Conv2d_0a_1x1/BatchNorm/FusedBatchNorm/Offset", "dtype": "float32"}, {"shape": [1, 1, 576, 128], "name": "SecondStageFeatureExtractor/InceptionV2/Mixed_5a/Branch_0/Conv2d_0a_1x1/Conv2D/merged_input", "dtype": "float32"}, {"shape": [224], "name": "SecondStageFeatureExtractor/InceptionV2/Mixed_5b/Branch_2/Conv2d_0c_3x3/BatchNorm/FusedBatchNorm/Offset", "dtype": "float32"}, {"shape": [3, 3, 224, 224], "name": "SecondStageFeatureExtractor/InceptionV2/Mixed_5b/Branch_2/Conv2d_0c_3x3/Conv2D/merged_input", "dtype": "float32"}, {"shape": [224], "name": "SecondStageFeatureExtractor/InceptionV2/Mixed_5b/Branch_2/Conv2d_0b_3x3/BatchNorm/FusedBatchNorm/Offset", "dtype": "float32"}, {"shape": [3, 3, 160, 224], "name": "SecondStageFeatureExtractor/InceptionV2/Mixed_5b/Branch_2/Conv2d_0b_3x3/Conv2D/merged_input", "dtype": "float32"}, {"shape": [160], "name": "SecondStageFeatureExtractor/InceptionV2/Mixed_5b/Branch_2/Conv2d_0a_1x1/BatchNorm/FusedBatchNorm/Offset", "dtype": "float32"}, {"shape": [1, 1, 1024, 160], "name": "SecondStageFeatureExtractor/InceptionV2/Mixed_5b/Branch_2/Conv2d_0a_1x1/Conv2D/merged_input", "dtype": "float32"}, {"shape": [320], "name": "SecondStageFeatureExtractor/InceptionV2/Mixed_5b/Branch_1/Conv2d_0b_3x3/BatchNorm/FusedBatchNorm/Offset", "dtype": "float32"}, {"shape": [3, 3, 192, 320], "name": "SecondStageFeatureExtractor/InceptionV2/Mixed_5b/Branch_1/Conv2d_0b_3x3/Conv2D/merged_input", "dtype": "float32"}, {"shape": [192], "name": "SecondStageFeatureExtractor/InceptionV2/Mixed_5b/Branch_1/Conv2d_0a_1x1/BatchNorm/FusedBatchNorm/Offset", "dtype": "float32"}, {"shape": [1, 1, 1024, 192], "name": "SecondStageFeatureExtractor/InceptionV2/Mixed_5b/Branch_1/Conv2d_0a_1x1/Conv2D/merged_input", "dtype": "float32"}, {"shape": [352], "name": "SecondStageFeatureExtractor/InceptionV2/Mixed_5b/Branch_0/Conv2d_0a_1x1/BatchNorm/FusedBatchNorm/Offset", "dtype": "float32"}, {"shape": [1, 1, 1024, 352], "name": "SecondStageFeatureExtractor/InceptionV2/Mixed_5b/Branch_0/Conv2d_0a_1x1/Conv2D/merged_input", "dtype": "float32"}, {"shape": [224], "name": "SecondStageFeatureExtractor/InceptionV2/Mixed_5c/Branch_2/Conv2d_0c_3x3/BatchNorm/FusedBatchNorm/Offset", "dtype": "float32"}, {"shape": [3, 3, 224, 224], "name": "SecondStageFeatureExtractor/InceptionV2/Mixed_5c/Branch_2/Conv2d_0c_3x3/Conv2D/merged_input", "dtype": "float32"}, {"shape": [224], "name": "SecondStageFeatureExtractor/InceptionV2/Mixed_5c/Branch_2/Conv2d_0b_3x3/BatchNorm/FusedBatchNorm/Offset", "dtype": "float32"}, {"shape": [3, 3, 192, 224], "name": "SecondStageFeatureExtractor/InceptionV2/Mixed_5c/Branch_2/Conv2d_0b_3x3/Conv2D/merged_input", "dtype": "float32"}, {"shape": [192], "name": "SecondStageFeatureExtractor/InceptionV2/Mixed_5c/Branch_2/Conv2d_0a_1x1/BatchNorm/FusedBatchNorm/Offset", "dtype": "float32"}, {"shape": [1, 1, 1024, 192], "name": "SecondStageFeatureExtractor/InceptionV2/Mixed_5c/Branch_2/Conv2d_0a_1x1/Conv2D/merged_input", "dtype": "float32"}, {"shape": [320], "name": "SecondStageFeatureExtractor/InceptionV2/Mixed_5c/Branch_1/Conv2d_0b_3x3/BatchNorm/FusedBatchNorm/Offset", "dtype": "float32"}, {"shape": [3, 3, 192, 320], "name": "SecondStageFeatureExtractor/InceptionV2/Mixed_5c/Branch_1/Conv2d_0b_3x3/Conv2D/merged_input", "dtype": "float32"}, {"shape": [192], "name": "SecondStageFeatureExtractor/InceptionV2/Mixed_5c/Branch_1/Conv2d_0a_1x1/BatchNorm/FusedBatchNorm/Offset", "dtype": "float32"}, {"shape": [1, 1, 1024, 192], "name": "SecondStageFeatureExtractor/InceptionV2/Mixed_5c/Branch_1/Conv2d_0a_1x1/Conv2D/merged_input", "dtype": "float32"}, {"shape": [352], "name": "SecondStageFeatureExtractor/InceptionV2/Mixed_5c/Branch_0/Conv2d_0a_1x1/BatchNorm/FusedBatchNorm/Offset", "dtype": "float32"}, {"shape": [1, 1, 1024, 352], "name": "SecondStageFeatureExtractor/InceptionV2/Mixed_5c/Branch_0/Conv2d_0a_1x1/Conv2D/merged_input", "dtype": "float32"}, {"shape": [4], "name": "SecondStagePostprocessor/Tile/multiples", "dtype": "int32"}, {"shape": [3], "name": "SecondStagePostprocessor/Slice/size", "dtype": "int32"}, {"shape": [3], "name": "SecondStagePostprocessor/Reshape_1/shape", "dtype": "int32"}, {"shape": [3], "name": "SecondStageBoxPredictor/Reshape_1/shape", "dtype": "int32"}, {"shape": [4], "name": "SecondStageBoxPredictor/ClassPredictor/biases", "dtype": "float32"}, {"shape": [1024, 4], "name": "SecondStageBoxPredictor/ClassPredictor/weights", "dtype": "float32"}, {"shape": [], "name": "Preprocessor/map/while/add/y", "dtype": "int32"}, {"shape": [1], "name": "Preprocessor/map/while/ResizeToRange/strided_slice/stack_1", "dtype": "int32"}, {"shape": [1], "name": "Preprocessor/map/while/ResizeToRange/strided_slice_1/stack_1", "dtype": "int32"}, {"shape": [1], "name": "Preprocessor/map/while/ResizeToRange/strided_slice/stack", "dtype": "int32"}, {"shape": [], "name": "Preprocessor/map/while/ResizeToRange/cond/resize/ExpandDims/dim", "dtype": "int32"}, {"shape": [], "name": "Preprocessor/map/while/ResizeToRange/cond/resize/ToFloat_2", "dtype": "float32"}, {"shape": [], "name": "Preprocessor/map/while/ResizeToRange/cond/resize/ToFloat", "dtype": "float32"}, {"shape": [], "name": "Preprocessor/map/while/ResizeToRange/cond/resize_1/ExpandDims/dim", "dtype": "int32"}, {"shape": [], "name": "Preprocessor/map/while/ResizeToRange/cond/resize_1/ToFloat_2", "dtype": "float32"}, {"shape": [], "name": "Preprocessor/map/while/ResizeToRange/cond/resize_1/ToFloat", "dtype": "float32"}, {"shape": [], "name": "FirstStageFeatureExtractor/InceptionV2/InceptionV2/Mixed_3b/concat/axis", "dtype": "int32"}, {"shape": [], "name": "ConstantFolding/BatchMultiClassNonMaxSuppression/ones/packed_const_axis", "dtype": "int32"}, {"shape": [], "name": "BatchMultiClassNonMaxSuppression/map/while/MultiClassNonMaxSuppression/range_1/delta", "dtype": "int32"}, {"shape": [1], "name": "BatchMultiClassNonMaxSuppression/map/while/PadOrClipBoxList/strided_slice_2/stack_1", "dtype": "int32"}, {"shape": [1], "name": "BatchMultiClassNonMaxSuppression/map/while/PadOrClipBoxList/strided_slice_1/stack_1", "dtype": "int32"}, {"shape": [], "name": "BatchMultiClassNonMaxSuppression/map/while/PadOrClipBoxList/Select/e", "dtype": "int32"}, {"shape": [], "name": "BatchMultiClassNonMaxSuppression/map/while/PadOrClipBoxList/sub_3/x", "dtype": "int32"}, {"shape": [], "name": "BatchMultiClassNonMaxSuppression/map/while/PadOrClipBoxList/Greater/y", "dtype": "int32"}, {"shape": [1], "name": "BatchMultiClassNonMaxSuppression/map/while/PadOrClipBoxList/strided_slice_2/stack", "dtype": "int32"}, {"shape": [1], "name": "BatchMultiClassNonMaxSuppression/map/while/MultiClassNonMaxSuppression/ones_1/Reshape/shape", "dtype": "int32"}, {"shape": [], "name": "BatchMultiClassNonMaxSuppression/map/while/MultiClassNonMaxSuppression/GreaterEqual/y", "dtype": "float32"}, {"shape": [], "name": "BatchMultiClassNonMaxSuppression/map/while/MultiClassNonMaxSuppression/non_max_suppression/iou_threshold", "dtype": "float32"}, {"shape": [3], "name": "BatchMultiClassNonMaxSuppression/map/while/Reshape/shape", "dtype": "int32"}, {"shape": [3], "name": "BatchMultiClassNonMaxSuppression/map/while/Slice/begin", "dtype": "int32"}, {"shape": [], "name": "BatchMultiClassNonMaxSuppression/map/while/PadOrClipBoxList/sub_2/x", "dtype": "int32"}, {"shape": [2], "name": "BatchMultiClassNonMaxSuppression/map/while/Reshape_1/shape", "dtype": "int32"}, {"shape": [2], "name": "BatchMultiClassNonMaxSuppression/map/while/PadOrClipBoxList/zeros_1", "dtype": "int32"}, {"shape": [], "name": "BatchMultiClassNonMaxSuppression/map/while/MultiClassNonMaxSuppression/ones_1/Const", "dtype": "float32"}, {"shape": [], "name": "BatchMultiClassNonMaxSuppression/map/while/MultiClassNonMaxSuppression/mul_1/x", "dtype": "float32"}, {"shape": [], "name": "map/while/ToNormalizedCoordinates/Scale/split/split_dim", "dtype": "int32"}, {"shape": [1], "name": "map/while/strided_slice/stack_1", "dtype": "int32"}, {"shape": [1], "name": "map/while/strided_slice_1/stack_1", "dtype": "int32"}, {"shape": [], "name": "map/while/ToNormalizedCoordinates/truediv/x", "dtype": "float32"}, {"shape": [1], "name": "map/while/strided_slice/stack", "dtype": "int32"}, {"shape": [], "name": "map_2/while/split/split_dim", "dtype": "int32"}, {"shape": [], "name": "SecondStagePostprocessor/BatchMultiClassNonMaxSuppression/map/while/MultiClassNonMaxSuppression/range_3/delta", "dtype": "int32"}, {"shape": [1], "name": "SecondStagePostprocessor/BatchMultiClassNonMaxSuppression/map/while/PadOrClipBoxList/strided_slice_2/stack_1", "dtype": "int32"}, {"shape": [1], "name": "SecondStagePostprocessor/BatchMultiClassNonMaxSuppression/map/while/PadOrClipBoxList/strided_slice_2/stack", "dtype": "int32"}, {"shape": [1], "name": "SecondStagePostprocessor/BatchMultiClassNonMaxSuppression/map/while/PadOrClipBoxList/strided_slice_1/stack_1", "dtype": "int32"}, {"shape": [], "name": "SecondStagePostprocessor/BatchMultiClassNonMaxSuppression/map/while/PadOrClipBoxList/Greater/y", "dtype": "int32"}, {"shape": [1], "name": "SecondStagePostprocessor/BatchMultiClassNonMaxSuppression/map/while/MultiClassNonMaxSuppression/ones_3/Reshape/shape", "dtype": "int32"}, {"shape": [], "name": "SecondStagePostprocessor/BatchMultiClassNonMaxSuppression/map/while/MultiClassNonMaxSuppression/add_1/y", "dtype": "float32"}, {"shape": [], "name": "SecondStagePostprocessor/BatchMultiClassNonMaxSuppression/map/while/MultiClassNonMaxSuppression/non_max_suppression/iou_threshold", "dtype": "float32"}, {"shape": [3], "name": "SecondStagePostprocessor/BatchMultiClassNonMaxSuppression/map/while/Reshape/shape", "dtype": "int32"}, {"shape": [], "name": "SecondStagePostprocessor/BatchMultiClassNonMaxSuppression/map/while/PadOrClipBoxList/Select/e", "dtype": "int32"}, {"shape": [3], "name": "SecondStagePostprocessor/BatchMultiClassNonMaxSuppression/map/while/Slice/begin", "dtype": "int32"}, {"shape": [], "name": "SecondStagePostprocessor/BatchMultiClassNonMaxSuppression/map/while/MultiClassNonMaxSuppression/Minimum/x", "dtype": "int32"}, {"shape": [2], "name": "SecondStagePostprocessor/BatchMultiClassNonMaxSuppression/map/while/Reshape_1/shape", "dtype": "int32"}, {"shape": [2], "name": "SecondStagePostprocessor/BatchMultiClassNonMaxSuppression/map/while/PadOrClipBoxList/zeros_1", "dtype": "int32"}, {"shape": [2], "name": "SecondStagePostprocessor/BatchMultiClassNonMaxSuppression/map/while/MultiClassNonMaxSuppression/Slice_2/begin", "dtype": "int32"}, {"shape": [2], "name": "SecondStagePostprocessor/BatchMultiClassNonMaxSuppression/map/while/MultiClassNonMaxSuppression/Slice_1/begin", "dtype": "int32"}, {"shape": [], "name": "SecondStagePostprocessor/BatchMultiClassNonMaxSuppression/map/while/MultiClassNonMaxSuppression/add_3/y", "dtype": "float32"}, {"shape": [], "name": "SecondStagePostprocessor/BatchMultiClassNonMaxSuppression/map/while/MultiClassNonMaxSuppression/mul_3/x", "dtype": "float32"}, {"shape": [1], "name": "SecondStagePostprocessor/BatchMultiClassNonMaxSuppression/map/while/MultiClassNonMaxSuppression/ChangeCoordinateFrame/strided_slice_2/stack_1", "dtype": "int32"}, {"shape": [1], "name": "SecondStagePostprocessor/BatchMultiClassNonMaxSuppression/map/while/MultiClassNonMaxSuppression/ChangeCoordinateFrame/strided_slice/stack_1", "dtype": "int32"}, {"shape": [], "name": "SecondStagePostprocessor/BatchMultiClassNonMaxSuppression/map/while/PadOrClipBoxList/sub_2/x", "dtype": "int32"}, {"shape": [], "name": "SecondStagePostprocessor/BatchMultiClassNonMaxSuppression/map/while/MultiClassNonMaxSuppression/add_5/y", "dtype": "float32"}, {"shape": [], "name": "SecondStagePostprocessor/BatchMultiClassNonMaxSuppression/map/while/PadOrClipBoxList/sub_3/x", "dtype": "int32"}, {"shape": [], "name": "ConstantFolding/SecondStagePostprocessor/BatchMultiClassNonMaxSuppression/map/while/PadOrClipBoxList/Slice_2/size_const_axis", "dtype": "int32"}, {"shape": [], "name": "ConstantFolding/SecondStagePostprocessor/BatchMultiClassNonMaxSuppression/map/while/PadOrClipBoxList/Slice_3/size_const_axis", "dtype": "int32"}, {"shape": [], "name": "ConstantFolding/SecondStagePostprocessor/BatchMultiClassNonMaxSuppression/map/while/PadOrClipBoxList/stack_2/values_1_const_axis", "dtype": "int32"}, {"shape": [], "name": "ConstantFolding/SecondStagePostprocessor/BatchMultiClassNonMaxSuppression/map/while/PadOrClipBoxList/stack_3/values_1_const_axis", "dtype": "int32"}]}], "modelTopology": {"node": [{"op": "Const", "attr": {"value": {"tensor": {"tensorShape": {"dim": [{"size": "1"}]}, "dtype": "DT_INT32"}}, "dtype": {"type": "DT_INT32"}}, "name": "SecondStagePostprocessor/BatchMultiClassNonMaxSuppression/map/TensorArrayUnstack_1/strided_slice/stack_1"}, {"op": "Const", "attr": {"value": {"tensor": {"tensorShape": {"dim": [{"size": "1"}]}, "dtype": "DT_INT32"}}, "dtype": {"type": "DT_INT32"}}, "name": "SecondStagePostprocessor/BatchMultiClassNonMaxSuppression/map/TensorArrayUnstack_1/strided_slice/stack"}, {"op": "Const", "attr": {"value": {"tensor": {"tensorShape": {}, "dtype": "DT_INT32"}}, "dtype": {"type": "DT_INT32"}}, "name": "FirstStageBoxPredictor/Reshape/shape/3"}, {"op": "Const", "attr": {"value": {"tensor": {"tensorShape": {}, "dtype": "DT_INT32"}}, "dtype": {"type": "DT_INT32"}}, "name": "SecondStageFeatureExtractor/InceptionV2/Mixed_5a/concat/axis"}, {"op": "Const", "attr": {"value": {"tensor": {"tensorShape": {}, "dtype": "DT_INT32"}}, "dtype": {"type": "DT_INT32"}}, "name": "mul/y"}, {"op": "Const", "attr": {"value": {"tensor": {"tensorShape": {"dim": [{"size": "4"}]}, "dtype": "DT_INT32"}}, "dtype": {"type": "DT_INT32"}}, "name": "SecondStagePostprocessor/Reshape/shape"}, {"op": "Const", "attr": {"value": {"tensor": {"tensorShape": {"dim": [{"size": "4"}]}, "dtype": "DT_INT32"}}, "dtype": {"type": "DT_INT32"}}, "name": "SecondStageBoxPredictor/Reshape/shape"}, {"op": "Const", "attr": {"value": {"tensor": {"tensorShape": {"dim": [{"size": "12"}]}, "dtype": "DT_FLOAT"}}, "dtype": {"type": "DT_FLOAT"}}, "name": "SecondStageBoxPredictor/BoxEncodingPredictor/biases"}, {"op": "Const", "attr": {"value": {"tensor": {"tensorShape": {"dim": [{"size": "1024"}, {"size": "12"}]}, "dtype": "DT_FLOAT"}}, "dtype": {"type": "DT_FLOAT"}}, "name": "SecondStageBoxPredictor/BoxEncodingPredictor/weights"}, {"op": "Const", "attr": {"value": {"tensor": {"tensorShape": {}, "dtype": "DT_INT32"}}, "dtype": {"type": "DT_INT32"}}, "name": "SecondStageBoxPredictor/Flatten_1/flatten/Reshape/shape/1"}, {"op": "Const", "attr": {"value": {"tensor": {"tensorShape": {"dim": [{"size": "2"}]}, "dtype": "DT_INT32"}}, "dtype": {"type": "DT_INT32"}}, "name": "SecondStageBoxPredictor/AvgPool_1/reduction_indices"}, {"op": "Const", "attr": {"value": {"tensor": {"tensorShape": {"dim": [{"size": "128"}]}, "dtype": "DT_FLOAT"}}, "dtype": {"type": "DT_FLOAT"}}, "name": "SecondStageFeatureExtractor/InceptionV2/Mixed_5c/Branch_3/Conv2d_0b_1x1/BatchNorm/FusedBatchNorm/Offset"}, {"op": "Const", "attr": {"value": {"tensor": {"tensorShape": {"dim": [{"size": "1"}, {"size": "1"}, {"size": "1024"}, {"size": "128"}]}, "dtype": "DT_FLOAT"}}, "dtype": {"type": "DT_FLOAT"}}, "name": "SecondStageFeatureExtractor/InceptionV2/Mixed_5c/Branch_3/Conv2d_0b_1x1/Conv2D/merged_input"}, {"op": "Const", "attr": {"value": {"tensor": {"tensorShape": {"dim": [{"size": "128"}]}, "dtype": "DT_FLOAT"}}, "dtype": {"type": "DT_FLOAT"}}, "name": "SecondStageFeatureExtractor/InceptionV2/Mixed_5b/Branch_3/Conv2d_0b_1x1/BatchNorm/FusedBatchNorm/Offset"}, {"op": "Const", "attr": {"value": {"tensor": {"tensorShape": {"dim": [{"size": "1"}, {"size": "1"}, {"size": "1024"}, {"size": "128"}]}, "dtype": "DT_FLOAT"}}, "dtype": {"type": "DT_FLOAT"}}, "name": "SecondStageFeatureExtractor/InceptionV2/Mixed_5b/Branch_3/Conv2d_0b_1x1/Conv2D/merged_input"}, {"op": "Const", "attr": {"value": {"tensor": {"tensorShape": {"dim": [{"size": "2"}]}, "dtype": "DT_INT32"}}, "dtype": {"type": "DT_INT32"}}, "name": "CropAndResize/CropAndResize/crop_size"}, {"op": "Const", "attr": {"value": {"tensor": {"tensorShape": {"dim": [{"size": "1"}]}, "dtype": "DT_INT32"}}, "dtype": {"type": "DT_INT32"}}, "name": "GridAnchorGenerator/Meshgrid_3/ExpandedShape_1/Slice_1/size"}, {"op": "Const", "attr": {"value": {"tensor": {"tensorShape": {}, "dtype": "DT_INT32"}}, "dtype": {"type": "DT_INT32"}}, "name": "SecondStagePostprocessor/BatchMultiClassNonMaxSuppression/map/TensorArrayStack/range/delta"}, {"op": "Const", "attr": {"value": {"tensor": {"tensorShape": {}, "dtype": "DT_INT32"}}, "dtype": {"type": "DT_INT32"}}, "name": "SecondStagePostprocessor/ExpandDims/dim"}, {"op": "Const", "attr": {"value": {"tensor": {"tensorShape": {"dim": [{"size": "1"}]}, "dtype": "DT_INT32"}}, "dtype": {"type": "DT_INT32"}}, "name": "strided_slice_15/stack_1"}, {"op": "Const", "attr": {"value": {"tensor": {"tensorShape": {"dim": [{"size": "512"}]}, "dtype": "DT_FLOAT"}}, "dtype": {"type": "DT_FLOAT"}}, "name": "Conv/biases"}, {"op": "Const", "attr": {"value": {"tensor": {"tensorShape": {"dim": [{"size": "3"}, {"size": "3"}, {"size": "576"}, {"size": "512"}]}, "dtype": "DT_FLOAT"}}, "dtype": {"type": "DT_FLOAT"}}, "name": "Conv/weights"}, {"op": "Const", "attr": {"value": {"tensor": {"tensorShape": {}, "dtype": "DT_FLOAT"}}, "dtype": {"type": "DT_FLOAT"}}, "name": "add_2/y"}, {"op": "Placeholder", "attr": {"shape": {"shape": {"dim": [{"size": "-1"}, {"size": "-1"}, {"size": "-1"}, {"size": "3"}]}}, "dtype": {"type": "DT_UINT8"}}, "name": "image_tensor"}, {"op": "Const", "attr": {"value": {"tensor": {"tensorShape": {}, "dtype": "DT_INT32"}}, "dtype": {"type": "DT_INT32"}}, "name": "SecondStagePostprocessor/BatchMultiClassNonMaxSuppression/map/TensorArrayStack/range/start"}, {"op": "Const", "attr": {"value": {"tensor": {"tensorShape": {}, "dtype": "DT_FLOAT"}}, "dtype": {"type": "DT_FLOAT"}}, "name": "Preprocessor/mul/x"}, {"op": "Const", "attr": {"value": {"tensor": {"tensorShape": {"dim": [{"size": "1"}]}, "dtype": "DT_INT32"}}, "dtype": {"type": "DT_INT32"}}, "name": "strided_slice_14/stack_1"}, {"op": "Const", "attr": {"value": {"tensor": {"tensorShape": {"dim": [{"size": "96"}]}, "dtype": "DT_FLOAT"}}, "dtype": {"type": "DT_FLOAT"}}, "name": "FirstStageFeatureExtractor/InceptionV2/InceptionV2/Mixed_4e/Branch_3/Conv2d_0b_1x1/BatchNorm/FusedBatchNorm/Offset"}, {"op": "Const", "attr": {"value": {"tensor": {"tensorShape": {"dim": [{"size": "1"}, {"size": "1"}, {"size": "576"}, {"size": "96"}]}, "dtype": "DT_FLOAT"}}, "dtype": {"type": "DT_FLOAT"}}, "name": "FirstStageFeatureExtractor/InceptionV2/InceptionV2/Mixed_4e/Branch_3/Conv2d_0b_1x1/Conv2D/merged_input"}, {"op": "Const", "attr": {"value": {"tensor": {"tensorShape": {"dim": [{"size": "96"}]}, "dtype": "DT_FLOAT"}}, "dtype": {"type": "DT_FLOAT"}}, "name": "FirstStageFeatureExtractor/InceptionV2/InceptionV2/Mixed_4d/Branch_3/Conv2d_0b_1x1/BatchNorm/FusedBatchNorm/Offset"}, {"op": "Const", "attr": {"value": {"tensor": {"tensorShape": {"dim": [{"size": "1"}, {"size": "1"}, {"size": "576"}, {"size": "96"}]}, "dtype": "DT_FLOAT"}}, "dtype": {"type": "DT_FLOAT"}}, "name": "FirstStageFeatureExtractor/InceptionV2/InceptionV2/Mixed_4d/Branch_3/Conv2d_0b_1x1/Conv2D/merged_input"}, {"op": "Const", "attr": {"value": {"tensor": {"tensorShape": {"dim": [{"size": "128"}]}, "dtype": "DT_FLOAT"}}, "dtype": {"type": "DT_FLOAT"}}, "name": "FirstStageFeatureExtractor/InceptionV2/InceptionV2/Mixed_4c/Branch_3/Conv2d_0b_1x1/BatchNorm/FusedBatchNorm/Offset"}, {"op": "Const", "attr": {"value": {"tensor": {"tensorShape": {"dim": [{"size": "1"}, {"size": "1"}, {"size": "576"}, {"size": "128"}]}, "dtype": "DT_FLOAT"}}, "dtype": {"type": "DT_FLOAT"}}, "name": "FirstStageFeatureExtractor/InceptionV2/InceptionV2/Mixed_4c/Branch_3/Conv2d_0b_1x1/Conv2D/merged_input"}, {"op": "Const", "attr": {"value": {"tensor": {"tensorShape": {"dim": [{"size": "128"}]}, "dtype": "DT_FLOAT"}}, "dtype": {"type": "DT_FLOAT"}}, "name": "FirstStageFeatureExtractor/InceptionV2/InceptionV2/Mixed_4b/Branch_3/Conv2d_0b_1x1/BatchNorm/FusedBatchNorm/Offset"}, {"op": "Const", "attr": {"value": {"tensor": {"tensorShape": {"dim": [{"size": "1"}, {"size": "1"}, {"size": "576"}, {"size": "128"}]}, "dtype": "DT_FLOAT"}}, "dtype": {"type": "DT_FLOAT"}}, "name": "FirstStageFeatureExtractor/InceptionV2/InceptionV2/Mixed_4b/Branch_3/Conv2d_0b_1x1/Conv2D/merged_input"}, {"op": "Const", "attr": {"value": {"tensor": {"tensorShape": {"dim": [{"size": "64"}]}, "dtype": "DT_FLOAT"}}, "dtype": {"type": "DT_FLOAT"}}, "name": "FirstStageFeatureExtractor/InceptionV2/InceptionV2/Mixed_3c/Branch_3/Conv2d_0b_1x1/BatchNorm/FusedBatchNorm/Offset"}, {"op": "Const", "attr": {"value": {"tensor": {"tensorShape": {"dim": [{"size": "1"}, {"size": "1"}, {"size": "256"}, {"size": "64"}]}, "dtype": "DT_FLOAT"}}, "dtype": {"type": "DT_FLOAT"}}, "name": "FirstStageFeatureExtractor/InceptionV2/InceptionV2/Mixed_3c/Branch_3/Conv2d_0b_1x1/Conv2D/merged_input"}, {"op": "Const", "attr": {"value": {"tensor": {"tensorShape": {"dim": [{"size": "32"}]}, "dtype": "DT_FLOAT"}}, "dtype": {"type": "DT_FLOAT"}}, "name": "FirstStageFeatureExtractor/InceptionV2/InceptionV2/Mixed_3b/Branch_3/Conv2d_0b_1x1/BatchNorm/FusedBatchNorm/Offset"}, {"op": "Const", "attr": {"value": {"tensor": {"tensorShape": {"dim": [{"size": "1"}, {"size": "1"}, {"size": "192"}, {"size": "32"}]}, "dtype": "DT_FLOAT"}}, "dtype": {"type": "DT_FLOAT"}}, "name": "FirstStageFeatureExtractor/InceptionV2/InceptionV2/Mixed_3b/Branch_3/Conv2d_0b_1x1/Conv2D/merged_input"}, {"op": "Const", "attr": {"value": {"tensor": {"tensorShape": {"dim": [{"size": "192"}]}, "dtype": "DT_FLOAT"}}, "dtype": {"type": "DT_FLOAT"}}, "name": "FirstStageFeatureExtractor/InceptionV2/InceptionV2/Conv2d_2c_3x3/BatchNorm/FusedBatchNorm/Offset"}, {"op": "Const", "attr": {"value": {"tensor": {"tensorShape": {"dim": [{"size": "3"}, {"size": "3"}, {"size": "64"}, {"size": "192"}]}, "dtype": "DT_FLOAT"}}, "dtype": {"type": "DT_FLOAT"}}, "name": "FirstStageFeatureExtractor/InceptionV2/InceptionV2/Conv2d_2c_3x3/Conv2D/merged_input"}, {"op": "Const", "attr": {"value": {"tensor": {"tensorShape": {"dim": [{"size": "64"}]}, "dtype": "DT_FLOAT"}}, "dtype": {"type": "DT_FLOAT"}}, "name": "FirstStageFeatureExtractor/InceptionV2/InceptionV2/Conv2d_2b_1x1/BatchNorm/FusedBatchNorm/Offset"}, {"op": "Const", "attr": {"value": {"tensor": {"tensorShape": {"dim": [{"size": "1"}, {"size": "1"}, {"size": "64"}, {"size": "64"}]}, "dtype": "DT_FLOAT"}}, "dtype": {"type": "DT_FLOAT"}}, "name": "FirstStageFeatureExtractor/InceptionV2/InceptionV2/Conv2d_2b_1x1/Conv2D/merged_input"}, {"op": "Const", "attr": {"value": {"tensor": {"tensorShape": {"dim": [{"size": "64"}]}, "dtype": "DT_FLOAT"}}, "dtype": {"type": "DT_FLOAT"}}, "name": "FirstStageFeatureExtractor/InceptionV2/InceptionV2/Conv2d_1a_7x7/BatchNorm/FusedBatchNorm/Offset"}, {"op": "Const", "attr": {"value": {"tensor": {"tensorShape": {"dim": [{"size": "1"}, {"size": "1"}, {"size": "24"}, {"size": "64"}]}, "dtype": "DT_FLOAT"}}, "dtype": {"type": "DT_FLOAT"}}, "name": "FirstStageFeatureExtractor/InceptionV2/InceptionV2/Conv2d_1a_7x7/separable_conv2d/merged_input"}, {"op": "Const", "attr": {"value": {"tensor": {"tensorShape": {"dim": [{"size": "7"}, {"size": "7"}, {"size": "3"}, {"size": "8"}]}, "dtype": "DT_FLOAT"}}, "dtype": {"type": "DT_FLOAT"}}, "name": "FirstStageFeatureExtractor/InceptionV2/Conv2d_1a_7x7/depthwise_weights"}, {"op": "Const", "attr": {"value": {"tensor": {"tensorShape": {"dim": [{"size": "96"}]}, "dtype": "DT_FLOAT"}}, "dtype": {"type": "DT_FLOAT"}}, "name": "FirstStageFeatureExtractor/InceptionV2/InceptionV2/Mixed_3b/Branch_2/Conv2d_0c_3x3/BatchNorm/FusedBatchNorm/Offset"}, {"op": "Const", "attr": {"value": {"tensor": {"tensorShape": {"dim": [{"size": "3"}, {"size": "3"}, {"size": "96"}, {"size": "96"}]}, "dtype": "DT_FLOAT"}}, "dtype": {"type": "DT_FLOAT"}}, "name": "FirstStageFeatureExtractor/InceptionV2/InceptionV2/Mixed_3b/Branch_2/Conv2d_0c_3x3/Conv2D/merged_input"}, {"op": "Const", "attr": {"value": {"tensor": {"tensorShape": {"dim": [{"size": "96"}]}, "dtype": "DT_FLOAT"}}, "dtype": {"type": "DT_FLOAT"}}, "name": "FirstStageFeatureExtractor/InceptionV2/InceptionV2/Mixed_3b/Branch_2/Conv2d_0b_3x3/BatchNorm/FusedBatchNorm/Offset"}, {"op": "Const", "attr": {"value": {"tensor": {"tensorShape": {"dim": [{"size": "3"}, {"size": "3"}, {"size": "64"}, {"size": "96"}]}, "dtype": "DT_FLOAT"}}, "dtype": {"type": "DT_FLOAT"}}, "name": "FirstStageFeatureExtractor/InceptionV2/InceptionV2/Mixed_3b/Branch_2/Conv2d_0b_3x3/Conv2D/merged_input"}, {"op": "Const", "attr": {"value": {"tensor": {"tensorShape": {"dim": [{"size": "64"}]}, "dtype": "DT_FLOAT"}}, "dtype": {"type": "DT_FLOAT"}}, "name": "FirstStageFeatureExtractor/InceptionV2/InceptionV2/Mixed_3b/Branch_2/Conv2d_0a_1x1/BatchNorm/FusedBatchNorm/Offset"}, {"op": "Const", "attr": {"value": {"tensor": {"tensorShape": {"dim": [{"size": "1"}, {"size": "1"}, {"size": "192"}, {"size": "64"}]}, "dtype": "DT_FLOAT"}}, "dtype": {"type": "DT_FLOAT"}}, "name": "FirstStageFeatureExtractor/InceptionV2/InceptionV2/Mixed_3b/Branch_2/Conv2d_0a_1x1/Conv2D/merged_input"}, {"op": "Const", "attr": {"value": {"tensor": {"tensorShape": {"dim": [{"size": "64"}]}, "dtype": "DT_FLOAT"}}, "dtype": {"type": "DT_FLOAT"}}, "name": "FirstStageFeatureExtractor/InceptionV2/InceptionV2/Mixed_3b/Branch_1/Conv2d_0b_3x3/BatchNorm/FusedBatchNorm/Offset"}, {"op": "Const", "attr": {"value": {"tensor": {"tensorShape": {"dim": [{"size": "3"}, {"size": "3"}, {"size": "64"}, {"size": "64"}]}, "dtype": "DT_FLOAT"}}, "dtype": {"type": "DT_FLOAT"}}, "name": "FirstStageFeatureExtractor/InceptionV2/InceptionV2/Mixed_3b/Branch_1/Conv2d_0b_3x3/Conv2D/merged_input"}, {"op": "Const", "attr": {"value": {"tensor": {"tensorShape": {"dim": [{"size": "64"}]}, "dtype": "DT_FLOAT"}}, "dtype": {"type": "DT_FLOAT"}}, "name": "FirstStageFeatureExtractor/InceptionV2/InceptionV2/Mixed_3b/Branch_1/Conv2d_0a_1x1/BatchNorm/FusedBatchNorm/Offset"}, {"op": "Const", "attr": {"value": {"tensor": {"tensorShape": {"dim": [{"size": "1"}, {"size": "1"}, {"size": "192"}, {"size": "64"}]}, "dtype": "DT_FLOAT"}}, "dtype": {"type": "DT_FLOAT"}}, "name": "FirstStageFeatureExtractor/InceptionV2/InceptionV2/Mixed_3b/Branch_1/Conv2d_0a_1x1/Conv2D/merged_input"}, {"op": "Const", "attr": {"value": {"tensor": {"tensorShape": {"dim": [{"size": "64"}]}, "dtype": "DT_FLOAT"}}, "dtype": {"type": "DT_FLOAT"}}, "name": "FirstStageFeatureExtractor/InceptionV2/InceptionV2/Mixed_3b/Branch_0/Conv2d_0a_1x1/BatchNorm/FusedBatchNorm/Offset"}, {"op": "Const", "attr": {"value": {"tensor": {"tensorShape": {"dim": [{"size": "1"}, {"size": "1"}, {"size": "192"}, {"size": "64"}]}, "dtype": "DT_FLOAT"}}, "dtype": {"type": "DT_FLOAT"}}, "name": "FirstStageFeatureExtractor/InceptionV2/InceptionV2/Mixed_3b/Branch_0/Conv2d_0a_1x1/Conv2D/merged_input"}, {"op": "Const", "attr": {"value": {"tensor": {"tensorShape": {"dim": [{"size": "96"}]}, "dtype": "DT_FLOAT"}}, "dtype": {"type": "DT_FLOAT"}}, "name": "FirstStageFeatureExtractor/InceptionV2/InceptionV2/Mixed_3c/Branch_2/Conv2d_0c_3x3/BatchNorm/FusedBatchNorm/Offset"}, {"op": "Const", "attr": {"value": {"tensor": {"tensorShape": {"dim": [{"size": "3"}, {"size": "3"}, {"size": "96"}, {"size": "96"}]}, "dtype": "DT_FLOAT"}}, "dtype": {"type": "DT_FLOAT"}}, "name": "FirstStageFeatureExtractor/InceptionV2/InceptionV2/Mixed_3c/Branch_2/Conv2d_0c_3x3/Conv2D/merged_input"}, {"op": "Const", "attr": {"value": {"tensor": {"tensorShape": {"dim": [{"size": "96"}]}, "dtype": "DT_FLOAT"}}, "dtype": {"type": "DT_FLOAT"}}, "name": "FirstStageFeatureExtractor/InceptionV2/InceptionV2/Mixed_3c/Branch_2/Conv2d_0b_3x3/BatchNorm/FusedBatchNorm/Offset"}, {"op": "Const", "attr": {"value": {"tensor": {"tensorShape": {"dim": [{"size": "3"}, {"size": "3"}, {"size": "64"}, {"size": "96"}]}, "dtype": "DT_FLOAT"}}, "dtype": {"type": "DT_FLOAT"}}, "name": "FirstStageFeatureExtractor/InceptionV2/InceptionV2/Mixed_3c/Branch_2/Conv2d_0b_3x3/Conv2D/merged_input"}, {"op": "Const", "attr": {"value": {"tensor": {"tensorShape": {"dim": [{"size": "64"}]}, "dtype": "DT_FLOAT"}}, "dtype": {"type": "DT_FLOAT"}}, "name": "FirstStageFeatureExtractor/InceptionV2/InceptionV2/Mixed_3c/Branch_2/Conv2d_0a_1x1/BatchNorm/FusedBatchNorm/Offset"}, {"op": "Const", "attr": {"value": {"tensor": {"tensorShape": {"dim": [{"size": "1"}, {"size": "1"}, {"size": "256"}, {"size": "64"}]}, "dtype": "DT_FLOAT"}}, "dtype": {"type": "DT_FLOAT"}}, "name": "FirstStageFeatureExtractor/InceptionV2/InceptionV2/Mixed_3c/Branch_2/Conv2d_0a_1x1/Conv2D/merged_input"}, {"op": "Const", "attr": {"value": {"tensor": {"tensorShape": {"dim": [{"size": "96"}]}, "dtype": "DT_FLOAT"}}, "dtype": {"type": "DT_FLOAT"}}, "name": "FirstStageFeatureExtractor/InceptionV2/InceptionV2/Mixed_3c/Branch_1/Conv2d_0b_3x3/BatchNorm/FusedBatchNorm/Offset"}, {"op": "Const", "attr": {"value": {"tensor": {"tensorShape": {"dim": [{"size": "3"}, {"size": "3"}, {"size": "64"}, {"size": "96"}]}, "dtype": "DT_FLOAT"}}, "dtype": {"type": "DT_FLOAT"}}, "name": "FirstStageFeatureExtractor/InceptionV2/InceptionV2/Mixed_3c/Branch_1/Conv2d_0b_3x3/Conv2D/merged_input"}, {"op": "Const", "attr": {"value": {"tensor": {"tensorShape": {"dim": [{"size": "64"}]}, "dtype": "DT_FLOAT"}}, "dtype": {"type": "DT_FLOAT"}}, "name": "FirstStageFeatureExtractor/InceptionV2/InceptionV2/Mixed_3c/Branch_1/Conv2d_0a_1x1/BatchNorm/FusedBatchNorm/Offset"}, {"op": "Const", "attr": {"value": {"tensor": {"tensorShape": {"dim": [{"size": "1"}, {"size": "1"}, {"size": "256"}, {"size": "64"}]}, "dtype": "DT_FLOAT"}}, "dtype": {"type": "DT_FLOAT"}}, "name": "FirstStageFeatureExtractor/InceptionV2/InceptionV2/Mixed_3c/Branch_1/Conv2d_0a_1x1/Conv2D/merged_input"}, {"op": "Const", "attr": {"value": {"tensor": {"tensorShape": {"dim": [{"size": "64"}]}, "dtype": "DT_FLOAT"}}, "dtype": {"type": "DT_FLOAT"}}, "name": "FirstStageFeatureExtractor/InceptionV2/InceptionV2/Mixed_3c/Branch_0/Conv2d_0a_1x1/BatchNorm/FusedBatchNorm/Offset"}, {"op": "Const", "attr": {"value": {"tensor": {"tensorShape": {"dim": [{"size": "1"}, {"size": "1"}, {"size": "256"}, {"size": "64"}]}, "dtype": "DT_FLOAT"}}, "dtype": {"type": "DT_FLOAT"}}, "name": "FirstStageFeatureExtractor/InceptionV2/InceptionV2/Mixed_3c/Branch_0/Conv2d_0a_1x1/Conv2D/merged_input"}, {"op": "Const", "attr": {"value": {"tensor": {"tensorShape": {"dim": [{"size": "96"}]}, "dtype": "DT_FLOAT"}}, "dtype": {"type": "DT_FLOAT"}}, "name": "FirstStageFeatureExtractor/InceptionV2/InceptionV2/Mixed_4a/Branch_1/Conv2d_1a_3x3/BatchNorm/FusedBatchNorm/Offset"}, {"op": "Const", "attr": {"value": {"tensor": {"tensorShape": {"dim": [{"size": "3"}, {"size": "3"}, {"size": "96"}, {"size": "96"}]}, "dtype": "DT_FLOAT"}}, "dtype": {"type": "DT_FLOAT"}}, "name": "FirstStageFeatureExtractor/InceptionV2/InceptionV2/Mixed_4a/Branch_1/Conv2d_1a_3x3/Conv2D/merged_input"}, {"op": "Const", "attr": {"value": {"tensor": {"tensorShape": {"dim": [{"size": "96"}]}, "dtype": "DT_FLOAT"}}, "dtype": {"type": "DT_FLOAT"}}, "name": "FirstStageFeatureExtractor/InceptionV2/InceptionV2/Mixed_4a/Branch_1/Conv2d_0b_3x3/BatchNorm/FusedBatchNorm/Offset"}, {"op": "Const", "attr": {"value": {"tensor": {"tensorShape": {"dim": [{"size": "3"}, {"size": "3"}, {"size": "64"}, {"size": "96"}]}, "dtype": "DT_FLOAT"}}, "dtype": {"type": "DT_FLOAT"}}, "name": "FirstStageFeatureExtractor/InceptionV2/InceptionV2/Mixed_4a/Branch_1/Conv2d_0b_3x3/Conv2D/merged_input"}, {"op": "Const", "attr": {"value": {"tensor": {"tensorShape": {"dim": [{"size": "64"}]}, "dtype": "DT_FLOAT"}}, "dtype": {"type": "DT_FLOAT"}}, "name": "FirstStageFeatureExtractor/InceptionV2/InceptionV2/Mixed_4a/Branch_1/Conv2d_0a_1x1/BatchNorm/FusedBatchNorm/Offset"}, {"op": "Const", "attr": {"value": {"tensor": {"tensorShape": {"dim": [{"size": "1"}, {"size": "1"}, {"size": "320"}, {"size": "64"}]}, "dtype": "DT_FLOAT"}}, "dtype": {"type": "DT_FLOAT"}}, "name": "FirstStageFeatureExtractor/InceptionV2/InceptionV2/Mixed_4a/Branch_1/Conv2d_0a_1x1/Conv2D/merged_input"}, {"op": "Const", "attr": {"value": {"tensor": {"tensorShape": {"dim": [{"size": "160"}]}, "dtype": "DT_FLOAT"}}, "dtype": {"type": "DT_FLOAT"}}, "name": "FirstStageFeatureExtractor/InceptionV2/InceptionV2/Mixed_4a/Branch_0/Conv2d_1a_3x3/BatchNorm/FusedBatchNorm/Offset"}, {"op": "Const", "attr": {"value": {"tensor": {"tensorShape": {"dim": [{"size": "3"}, {"size": "3"}, {"size": "128"}, {"size": "160"}]}, "dtype": "DT_FLOAT"}}, "dtype": {"type": "DT_FLOAT"}}, "name": "FirstStageFeatureExtractor/InceptionV2/InceptionV2/Mixed_4a/Branch_0/Conv2d_1a_3x3/Conv2D/merged_input"}, {"op": "Const", "attr": {"value": {"tensor": {"tensorShape": {"dim": [{"size": "128"}]}, "dtype": "DT_FLOAT"}}, "dtype": {"type": "DT_FLOAT"}}, "name": "FirstStageFeatureExtractor/InceptionV2/InceptionV2/Mixed_4a/Branch_0/Conv2d_0a_1x1/BatchNorm/FusedBatchNorm/Offset"}, {"op": "Const", "attr": {"value": {"tensor": {"tensorShape": {"dim": [{"size": "1"}, {"size": "1"}, {"size": "320"}, {"size": "128"}]}, "dtype": "DT_FLOAT"}}, "dtype": {"type": "DT_FLOAT"}}, "name": "FirstStageFeatureExtractor/InceptionV2/InceptionV2/Mixed_4a/Branch_0/Conv2d_0a_1x1/Conv2D/merged_input"}, {"op": "Const", "attr": {"value": {"tensor": {"tensorShape": {"dim": [{"size": "128"}]}, "dtype": "DT_FLOAT"}}, "dtype": {"type": "DT_FLOAT"}}, "name": "FirstStageFeatureExtractor/InceptionV2/InceptionV2/Mixed_4b/Branch_2/Conv2d_0c_3x3/BatchNorm/FusedBatchNorm/Offset"}, {"op": "Const", "attr": {"value": {"tensor": {"tensorShape": {"dim": [{"size": "3"}, {"size": "3"}, {"size": "128"}, {"size": "128"}]}, "dtype": "DT_FLOAT"}}, "dtype": {"type": "DT_FLOAT"}}, "name": "FirstStageFeatureExtractor/InceptionV2/InceptionV2/Mixed_4b/Branch_2/Conv2d_0c_3x3/Conv2D/merged_input"}, {"op": "Const", "attr": {"value": {"tensor": {"tensorShape": {"dim": [{"size": "128"}]}, "dtype": "DT_FLOAT"}}, "dtype": {"type": "DT_FLOAT"}}, "name": "FirstStageFeatureExtractor/InceptionV2/InceptionV2/Mixed_4b/Branch_2/Conv2d_0b_3x3/BatchNorm/FusedBatchNorm/Offset"}, {"op": "Const", "attr": {"value": {"tensor": {"tensorShape": {"dim": [{"size": "3"}, {"size": "3"}, {"size": "96"}, {"size": "128"}]}, "dtype": "DT_FLOAT"}}, "dtype": {"type": "DT_FLOAT"}}, "name": "FirstStageFeatureExtractor/InceptionV2/InceptionV2/Mixed_4b/Branch_2/Conv2d_0b_3x3/Conv2D/merged_input"}, {"op": "Const", "attr": {"value": {"tensor": {"tensorShape": {"dim": [{"size": "96"}]}, "dtype": "DT_FLOAT"}}, "dtype": {"type": "DT_FLOAT"}}, "name": "FirstStageFeatureExtractor/InceptionV2/InceptionV2/Mixed_4b/Branch_2/Conv2d_0a_1x1/BatchNorm/FusedBatchNorm/Offset"}, {"op": "Const", "attr": {"value": {"tensor": {"tensorShape": {"dim": [{"size": "1"}, {"size": "1"}, {"size": "576"}, {"size": "96"}]}, "dtype": "DT_FLOAT"}}, "dtype": {"type": "DT_FLOAT"}}, "name": "FirstStageFeatureExtractor/InceptionV2/InceptionV2/Mixed_4b/Branch_2/Conv2d_0a_1x1/Conv2D/merged_input"}, {"op": "Const", "attr": {"value": {"tensor": {"tensorShape": {"dim": [{"size": "96"}]}, "dtype": "DT_FLOAT"}}, "dtype": {"type": "DT_FLOAT"}}, "name": "FirstStageFeatureExtractor/InceptionV2/InceptionV2/Mixed_4b/Branch_1/Conv2d_0b_3x3/BatchNorm/FusedBatchNorm/Offset"}, {"op": "Const", "attr": {"value": {"tensor": {"tensorShape": {"dim": [{"size": "3"}, {"size": "3"}, {"size": "64"}, {"size": "96"}]}, "dtype": "DT_FLOAT"}}, "dtype": {"type": "DT_FLOAT"}}, "name": "FirstStageFeatureExtractor/InceptionV2/InceptionV2/Mixed_4b/Branch_1/Conv2d_0b_3x3/Conv2D/merged_input"}, {"op": "Const", "attr": {"value": {"tensor": {"tensorShape": {"dim": [{"size": "64"}]}, "dtype": "DT_FLOAT"}}, "dtype": {"type": "DT_FLOAT"}}, "name": "FirstStageFeatureExtractor/InceptionV2/InceptionV2/Mixed_4b/Branch_1/Conv2d_0a_1x1/BatchNorm/FusedBatchNorm/Offset"}, {"op": "Const", "attr": {"value": {"tensor": {"tensorShape": {"dim": [{"size": "1"}, {"size": "1"}, {"size": "576"}, {"size": "64"}]}, "dtype": "DT_FLOAT"}}, "dtype": {"type": "DT_FLOAT"}}, "name": "FirstStageFeatureExtractor/InceptionV2/InceptionV2/Mixed_4b/Branch_1/Conv2d_0a_1x1/Conv2D/merged_input"}, {"op": "Const", "attr": {"value": {"tensor": {"tensorShape": {"dim": [{"size": "224"}]}, "dtype": "DT_FLOAT"}}, "dtype": {"type": "DT_FLOAT"}}, "name": "FirstStageFeatureExtractor/InceptionV2/InceptionV2/Mixed_4b/Branch_0/Conv2d_0a_1x1/BatchNorm/FusedBatchNorm/Offset"}, {"op": "Const", "attr": {"value": {"tensor": {"tensorShape": {"dim": [{"size": "1"}, {"size": "1"}, {"size": "576"}, {"size": "224"}]}, "dtype": "DT_FLOAT"}}, "dtype": {"type": "DT_FLOAT"}}, "name": "FirstStageFeatureExtractor/InceptionV2/InceptionV2/Mixed_4b/Branch_0/Conv2d_0a_1x1/Conv2D/merged_input"}, {"op": "Const", "attr": {"value": {"tensor": {"tensorShape": {"dim": [{"size": "128"}]}, "dtype": "DT_FLOAT"}}, "dtype": {"type": "DT_FLOAT"}}, "name": "FirstStageFeatureExtractor/InceptionV2/InceptionV2/Mixed_4c/Branch_2/Conv2d_0c_3x3/BatchNorm/FusedBatchNorm/Offset"}, {"op": "Const", "attr": {"value": {"tensor": {"tensorShape": {"dim": [{"size": "3"}, {"size": "3"}, {"size": "128"}, {"size": "128"}]}, "dtype": "DT_FLOAT"}}, "dtype": {"type": "DT_FLOAT"}}, "name": "FirstStageFeatureExtractor/InceptionV2/InceptionV2/Mixed_4c/Branch_2/Conv2d_0c_3x3/Conv2D/merged_input"}, {"op": "Const", "attr": {"value": {"tensor": {"tensorShape": {"dim": [{"size": "128"}]}, "dtype": "DT_FLOAT"}}, "dtype": {"type": "DT_FLOAT"}}, "name": "FirstStageFeatureExtractor/InceptionV2/InceptionV2/Mixed_4c/Branch_2/Conv2d_0b_3x3/BatchNorm/FusedBatchNorm/Offset"}, {"op": "Const", "attr": {"value": {"tensor": {"tensorShape": {"dim": [{"size": "3"}, {"size": "3"}, {"size": "96"}, {"size": "128"}]}, "dtype": "DT_FLOAT"}}, "dtype": {"type": "DT_FLOAT"}}, "name": "FirstStageFeatureExtractor/InceptionV2/InceptionV2/Mixed_4c/Branch_2/Conv2d_0b_3x3/Conv2D/merged_input"}, {"op": "Const", "attr": {"value": {"tensor": {"tensorShape": {"dim": [{"size": "96"}]}, "dtype": "DT_FLOAT"}}, "dtype": {"type": "DT_FLOAT"}}, "name": "FirstStageFeatureExtractor/InceptionV2/InceptionV2/Mixed_4c/Branch_2/Conv2d_0a_1x1/BatchNorm/FusedBatchNorm/Offset"}, {"op": "Const", "attr": {"value": {"tensor": {"tensorShape": {"dim": [{"size": "1"}, {"size": "1"}, {"size": "576"}, {"size": "96"}]}, "dtype": "DT_FLOAT"}}, "dtype": {"type": "DT_FLOAT"}}, "name": "FirstStageFeatureExtractor/InceptionV2/InceptionV2/Mixed_4c/Branch_2/Conv2d_0a_1x1/Conv2D/merged_input"}, {"op": "Const", "attr": {"value": {"tensor": {"tensorShape": {"dim": [{"size": "128"}]}, "dtype": "DT_FLOAT"}}, "dtype": {"type": "DT_FLOAT"}}, "name": "FirstStageFeatureExtractor/InceptionV2/InceptionV2/Mixed_4c/Branch_1/Conv2d_0b_3x3/BatchNorm/FusedBatchNorm/Offset"}, {"op": "Const", "attr": {"value": {"tensor": {"tensorShape": {"dim": [{"size": "3"}, {"size": "3"}, {"size": "96"}, {"size": "128"}]}, "dtype": "DT_FLOAT"}}, "dtype": {"type": "DT_FLOAT"}}, "name": "FirstStageFeatureExtractor/InceptionV2/InceptionV2/Mixed_4c/Branch_1/Conv2d_0b_3x3/Conv2D/merged_input"}, {"op": "Const", "attr": {"value": {"tensor": {"tensorShape": {"dim": [{"size": "96"}]}, "dtype": "DT_FLOAT"}}, "dtype": {"type": "DT_FLOAT"}}, "name": "FirstStageFeatureExtractor/InceptionV2/InceptionV2/Mixed_4c/Branch_1/Conv2d_0a_1x1/BatchNorm/FusedBatchNorm/Offset"}, {"op": "Const", "attr": {"value": {"tensor": {"tensorShape": {"dim": [{"size": "1"}, {"size": "1"}, {"size": "576"}, {"size": "96"}]}, "dtype": "DT_FLOAT"}}, "dtype": {"type": "DT_FLOAT"}}, "name": "FirstStageFeatureExtractor/InceptionV2/InceptionV2/Mixed_4c/Branch_1/Conv2d_0a_1x1/Conv2D/merged_input"}, {"op": "Const", "attr": {"value": {"tensor": {"tensorShape": {"dim": [{"size": "192"}]}, "dtype": "DT_FLOAT"}}, "dtype": {"type": "DT_FLOAT"}}, "name": "FirstStageFeatureExtractor/InceptionV2/InceptionV2/Mixed_4c/Branch_0/Conv2d_0a_1x1/BatchNorm/FusedBatchNorm/Offset"}, {"op": "Const", "attr": {"value": {"tensor": {"tensorShape": {"dim": [{"size": "1"}, {"size": "1"}, {"size": "576"}, {"size": "192"}]}, "dtype": "DT_FLOAT"}}, "dtype": {"type": "DT_FLOAT"}}, "name": "FirstStageFeatureExtractor/InceptionV2/InceptionV2/Mixed_4c/Branch_0/Conv2d_0a_1x1/Conv2D/merged_input"}, {"op": "Const", "attr": {"value": {"tensor": {"tensorShape": {"dim": [{"size": "160"}]}, "dtype": "DT_FLOAT"}}, "dtype": {"type": "DT_FLOAT"}}, "name": "FirstStageFeatureExtractor/InceptionV2/InceptionV2/Mixed_4d/Branch_2/Conv2d_0c_3x3/BatchNorm/FusedBatchNorm/Offset"}, {"op": "Const", "attr": {"value": {"tensor": {"tensorShape": {"dim": [{"size": "3"}, {"size": "3"}, {"size": "160"}, {"size": "160"}]}, "dtype": "DT_FLOAT"}}, "dtype": {"type": "DT_FLOAT"}}, "name": "FirstStageFeatureExtractor/InceptionV2/InceptionV2/Mixed_4d/Branch_2/Conv2d_0c_3x3/Conv2D/merged_input"}, {"op": "Const", "attr": {"value": {"tensor": {"tensorShape": {"dim": [{"size": "160"}]}, "dtype": "DT_FLOAT"}}, "dtype": {"type": "DT_FLOAT"}}, "name": "FirstStageFeatureExtractor/InceptionV2/InceptionV2/Mixed_4d/Branch_2/Conv2d_0b_3x3/BatchNorm/FusedBatchNorm/Offset"}, {"op": "Const", "attr": {"value": {"tensor": {"tensorShape": {"dim": [{"size": "3"}, {"size": "3"}, {"size": "128"}, {"size": "160"}]}, "dtype": "DT_FLOAT"}}, "dtype": {"type": "DT_FLOAT"}}, "name": "FirstStageFeatureExtractor/InceptionV2/InceptionV2/Mixed_4d/Branch_2/Conv2d_0b_3x3/Conv2D/merged_input"}, {"op": "Const", "attr": {"value": {"tensor": {"tensorShape": {"dim": [{"size": "128"}]}, "dtype": "DT_FLOAT"}}, "dtype": {"type": "DT_FLOAT"}}, "name": "FirstStageFeatureExtractor/InceptionV2/InceptionV2/Mixed_4d/Branch_2/Conv2d_0a_1x1/BatchNorm/FusedBatchNorm/Offset"}, {"op": "Const", "attr": {"value": {"tensor": {"tensorShape": {"dim": [{"size": "1"}, {"size": "1"}, {"size": "576"}, {"size": "128"}]}, "dtype": "DT_FLOAT"}}, "dtype": {"type": "DT_FLOAT"}}, "name": "FirstStageFeatureExtractor/InceptionV2/InceptionV2/Mixed_4d/Branch_2/Conv2d_0a_1x1/Conv2D/merged_input"}, {"op": "Const", "attr": {"value": {"tensor": {"tensorShape": {"dim": [{"size": "160"}]}, "dtype": "DT_FLOAT"}}, "dtype": {"type": "DT_FLOAT"}}, "name": "FirstStageFeatureExtractor/InceptionV2/InceptionV2/Mixed_4d/Branch_1/Conv2d_0b_3x3/BatchNorm/FusedBatchNorm/Offset"}, {"op": "Const", "attr": {"value": {"tensor": {"tensorShape": {"dim": [{"size": "3"}, {"size": "3"}, {"size": "128"}, {"size": "160"}]}, "dtype": "DT_FLOAT"}}, "dtype": {"type": "DT_FLOAT"}}, "name": "FirstStageFeatureExtractor/InceptionV2/InceptionV2/Mixed_4d/Branch_1/Conv2d_0b_3x3/Conv2D/merged_input"}, {"op": "Const", "attr": {"value": {"tensor": {"tensorShape": {"dim": [{"size": "128"}]}, "dtype": "DT_FLOAT"}}, "dtype": {"type": "DT_FLOAT"}}, "name": "FirstStageFeatureExtractor/InceptionV2/InceptionV2/Mixed_4d/Branch_1/Conv2d_0a_1x1/BatchNorm/FusedBatchNorm/Offset"}, {"op": "Const", "attr": {"value": {"tensor": {"tensorShape": {"dim": [{"size": "1"}, {"size": "1"}, {"size": "576"}, {"size": "128"}]}, "dtype": "DT_FLOAT"}}, "dtype": {"type": "DT_FLOAT"}}, "name": "FirstStageFeatureExtractor/InceptionV2/InceptionV2/Mixed_4d/Branch_1/Conv2d_0a_1x1/Conv2D/merged_input"}, {"op": "Const", "attr": {"value": {"tensor": {"tensorShape": {"dim": [{"size": "160"}]}, "dtype": "DT_FLOAT"}}, "dtype": {"type": "DT_FLOAT"}}, "name": "FirstStageFeatureExtractor/InceptionV2/InceptionV2/Mixed_4d/Branch_0/Conv2d_0a_1x1/BatchNorm/FusedBatchNorm/Offset"}, {"op": "Const", "attr": {"value": {"tensor": {"tensorShape": {"dim": [{"size": "1"}, {"size": "1"}, {"size": "576"}, {"size": "160"}]}, "dtype": "DT_FLOAT"}}, "dtype": {"type": "DT_FLOAT"}}, "name": "FirstStageFeatureExtractor/InceptionV2/InceptionV2/Mixed_4d/Branch_0/Conv2d_0a_1x1/Conv2D/merged_input"}, {"op": "Const", "attr": {"value": {"tensor": {"tensorShape": {"dim": [{"size": "192"}]}, "dtype": "DT_FLOAT"}}, "dtype": {"type": "DT_FLOAT"}}, "name": "FirstStageFeatureExtractor/InceptionV2/InceptionV2/Mixed_4e/Branch_2/Conv2d_0c_3x3/BatchNorm/FusedBatchNorm/Offset"}, {"op": "Const", "attr": {"value": {"tensor": {"tensorShape": {"dim": [{"size": "3"}, {"size": "3"}, {"size": "192"}, {"size": "192"}]}, "dtype": "DT_FLOAT"}}, "dtype": {"type": "DT_FLOAT"}}, "name": "FirstStageFeatureExtractor/InceptionV2/InceptionV2/Mixed_4e/Branch_2/Conv2d_0c_3x3/Conv2D/merged_input"}, {"op": "Const", "attr": {"value": {"tensor": {"tensorShape": {"dim": [{"size": "192"}]}, "dtype": "DT_FLOAT"}}, "dtype": {"type": "DT_FLOAT"}}, "name": "FirstStageFeatureExtractor/InceptionV2/InceptionV2/Mixed_4e/Branch_2/Conv2d_0b_3x3/BatchNorm/FusedBatchNorm/Offset"}, {"op": "Const", "attr": {"value": {"tensor": {"tensorShape": {"dim": [{"size": "3"}, {"size": "3"}, {"size": "160"}, {"size": "192"}]}, "dtype": "DT_FLOAT"}}, "dtype": {"type": "DT_FLOAT"}}, "name": "FirstStageFeatureExtractor/InceptionV2/InceptionV2/Mixed_4e/Branch_2/Conv2d_0b_3x3/Conv2D/merged_input"}, {"op": "Const", "attr": {"value": {"tensor": {"tensorShape": {"dim": [{"size": "160"}]}, "dtype": "DT_FLOAT"}}, "dtype": {"type": "DT_FLOAT"}}, "name": "FirstStageFeatureExtractor/InceptionV2/InceptionV2/Mixed_4e/Branch_2/Conv2d_0a_1x1/BatchNorm/FusedBatchNorm/Offset"}, {"op": "Const", "attr": {"value": {"tensor": {"tensorShape": {"dim": [{"size": "1"}, {"size": "1"}, {"size": "576"}, {"size": "160"}]}, "dtype": "DT_FLOAT"}}, "dtype": {"type": "DT_FLOAT"}}, "name": "FirstStageFeatureExtractor/InceptionV2/InceptionV2/Mixed_4e/Branch_2/Conv2d_0a_1x1/Conv2D/merged_input"}, {"op": "Const", "attr": {"value": {"tensor": {"tensorShape": {"dim": [{"size": "192"}]}, "dtype": "DT_FLOAT"}}, "dtype": {"type": "DT_FLOAT"}}, "name": "FirstStageFeatureExtractor/InceptionV2/InceptionV2/Mixed_4e/Branch_1/Conv2d_0b_3x3/BatchNorm/FusedBatchNorm/Offset"}, {"op": "Const", "attr": {"value": {"tensor": {"tensorShape": {"dim": [{"size": "3"}, {"size": "3"}, {"size": "128"}, {"size": "192"}]}, "dtype": "DT_FLOAT"}}, "dtype": {"type": "DT_FLOAT"}}, "name": "FirstStageFeatureExtractor/InceptionV2/InceptionV2/Mixed_4e/Branch_1/Conv2d_0b_3x3/Conv2D/merged_input"}, {"op": "Const", "attr": {"value": {"tensor": {"tensorShape": {"dim": [{"size": "128"}]}, "dtype": "DT_FLOAT"}}, "dtype": {"type": "DT_FLOAT"}}, "name": "FirstStageFeatureExtractor/InceptionV2/InceptionV2/Mixed_4e/Branch_1/Conv2d_0a_1x1/BatchNorm/FusedBatchNorm/Offset"}, {"op": "Const", "attr": {"value": {"tensor": {"tensorShape": {"dim": [{"size": "1"}, {"size": "1"}, {"size": "576"}, {"size": "128"}]}, "dtype": "DT_FLOAT"}}, "dtype": {"type": "DT_FLOAT"}}, "name": "FirstStageFeatureExtractor/InceptionV2/InceptionV2/Mixed_4e/Branch_1/Conv2d_0a_1x1/Conv2D/merged_input"}, {"op": "Const", "attr": {"value": {"tensor": {"tensorShape": {"dim": [{"size": "96"}]}, "dtype": "DT_FLOAT"}}, "dtype": {"type": "DT_FLOAT"}}, "name": "FirstStageFeatureExtractor/InceptionV2/InceptionV2/Mixed_4e/Branch_0/Conv2d_0a_1x1/BatchNorm/FusedBatchNorm/Offset"}, {"op": "Const", "attr": {"value": {"tensor": {"tensorShape": {"dim": [{"size": "1"}, {"size": "1"}, {"size": "576"}, {"size": "96"}]}, "dtype": "DT_FLOAT"}}, "dtype": {"type": "DT_FLOAT"}}, "name": "FirstStageFeatureExtractor/InceptionV2/InceptionV2/Mixed_4e/Branch_0/Conv2d_0a_1x1/Conv2D/merged_input"}, {"op": "Const", "attr": {"value": {"tensor": {"tensorShape": {"dim": [{"size": "48"}]}, "dtype": "DT_FLOAT"}}, "dtype": {"type": "DT_FLOAT"}}, "name": "FirstStageBoxPredictor/BoxEncodingPredictor/biases"}, {"op": "Const", "attr": {"value": {"tensor": {"tensorShape": {"dim": [{"size": "1"}, {"size": "1"}, {"size": "512"}, {"size": "48"}]}, "dtype": "DT_FLOAT"}}, "dtype": {"type": "DT_FLOAT"}}, "name": "FirstStageBoxPredictor/BoxEncodingPredictor/weights"}, {"op": "Const", "attr": {"value": {"tensor": {"tensorShape": {"dim": [{"size": "2"}]}, "dtype": "DT_INT32"}}, "dtype": {"type": "DT_INT32"}}, "name": "SecondStagePostprocessor/Decode/transpose/perm"}, {"op": "Const", "attr": {"value": {"tensor": {"tensorShape": {}, "dtype": "DT_FLOAT"}}, "dtype": {"type": "DT_FLOAT"}}, "name": "ConstantFolding/SecondStagePostprocessor/Decode/truediv_2_recip"}, {"op": "Const", "attr": {"value": {"tensor": {"tensorShape": {"dim": [{"size": "2"}]}, "dtype": "DT_INT32"}}, "dtype": {"type": "DT_INT32"}}, "name": "SecondStagePostprocessor/Reshape_3/shape"}, {"op": "Const", "attr": {"value": {"tensor": {"tensorShape": {}, "dtype": "DT_FLOAT"}}, "dtype": {"type": "DT_FLOAT"}}, "name": "GridAnchorGenerator/strided_slice_5"}, {"op": "Const", "attr": {"value": {"tensor": {"tensorShape": {"dim": [{"size": "2"}]}, "dtype": "DT_INT32"}}, "dtype": {"type": "DT_INT32"}}, "name": "GridAnchorGenerator/Reshape_2/shape"}, {"op": "Const", "attr": {"value": {"tensor": {"tensorShape": {}, "dtype": "DT_FLOAT"}}, "dtype": {"type": "DT_FLOAT"}}, "name": "GridAnchorGenerator/strided_slice_4"}, {"op": "Const", "attr": {"value": {"tensor": {"tensorShape": {"dim": [{"size": "1"}, {"size": "1"}, {"size": "12"}]}, "dtype": "DT_FLOAT"}}, "dtype": {"type": "DT_FLOAT"}}, "name": "GridAnchorGenerator/Meshgrid_2/Reshape"}, {"op": "Const", "attr": {"value": {"tensor": {"tensorShape": {"dim": [{"size": "1"}, {"size": "1"}, {"size": "12"}]}, "dtype": "DT_FLOAT"}}, "dtype": {"type": "DT_FLOAT"}}, "name": "GridAnchorGenerator/Meshgrid_3/Reshape"}, {"op": "Const", "attr": {"value": {"tensor": {"tensorShape": {}, "dtype": "DT_FLOAT"}}, "dtype": {"type": "DT_FLOAT"}}, "name": "GridAnchorGenerator/mul_5/x"}, {"op": "Const", "attr": {"value": {"tensor": {"tensorShape": {"dim": [{"size": "3"}]}, "dtype": "DT_INT32"}}, "dtype": {"type": "DT_INT32"}}, "name": "GridAnchorGenerator/Meshgrid_3/ExpandedShape/concat"}, {"op": "Const", "attr": {"value": {"tensor": {"tensorShape": {}, "dtype": "DT_FLOAT"}}, "dtype": {"type": "DT_FLOAT"}}, "name": "ConstantFolding/SecondStagePostprocessor/Decode/truediv_recip"}, {"op": "Const", "attr": {"value": {"tensor": {"tensorShape": {"dim": [{"size": "2"}]}, "dtype": "DT_INT32"}}, "dtype": {"type": "DT_INT32"}}, "name": "SecondStagePostprocessor/strided_slice_1/stack_2"}, {"op": "Const", "attr": {"value": {"tensor": {"tensorShape": {"dim": [{"size": "2"}]}, "dtype": "DT_INT32"}}, "dtype": {"type": "DT_INT32"}}, "name": "SecondStagePostprocessor/strided_slice_2/stack_1"}, {"op": "Const", "attr": {"value": {"tensor": {"tensorShape": {"dim": [{"size": "2"}]}, "dtype": "DT_INT32"}}, "dtype": {"type": "DT_INT32"}}, "name": "SecondStagePostprocessor/strided_slice_1/stack_1"}, {"op": "Const", "attr": {"value": {"tensor": {"tensorShape": {"dim": [{"size": "2"}]}, "dtype": "DT_INT32"}}, "dtype": {"type": "DT_INT32"}}, "name": "SecondStagePostprocessor/strided_slice_1/stack"}, {"op": "Const", "attr": {"value": {"tensor": {"tensorShape": {"dim": [{"size": "3"}]}, "dtype": "DT_INT32"}}, "dtype": {"type": "DT_INT32"}}, "name": "strided_slice_10/stack_2"}, {"op": "Const", "attr": {"value": {"tensor": {"tensorShape": {"dim": [{"size": "3"}]}, "dtype": "DT_INT32"}}, "dtype": {"type": "DT_INT32"}}, "name": "strided_slice_10/stack_1"}, {"op": "Const", "attr": {"value": {"tensor": {"tensorShape": {"dim": [{"size": "3"}]}, "dtype": "DT_INT32"}}, "dtype": {"type": "DT_INT32"}}, "name": "SecondStagePostprocessor/Slice/begin"}, {"op": "Const", "attr": {"value": {"tensor": {"tensorShape": {"dim": [{"size": "24"}]}, "dtype": "DT_FLOAT"}}, "dtype": {"type": "DT_FLOAT"}}, "name": "FirstStageBoxPredictor/ClassPredictor/biases"}, {"op": "Const", "attr": {"value": {"tensor": {"tensorShape": {"dim": [{"size": "1"}, {"size": "1"}, {"size": "512"}, {"size": "24"}]}, "dtype": "DT_FLOAT"}}, "dtype": {"type": "DT_FLOAT"}}, "name": "FirstStageBoxPredictor/ClassPredictor/weights"}, {"op": "Const", "attr": {"value": {"tensor": {"tensorShape": {"dim": [{"size": "256"}]}, "dtype": "DT_FLOAT"}}, "dtype": {"type": "DT_FLOAT"}}, "name": "SecondStageFeatureExtractor/InceptionV2/Mixed_5a/Branch_1/Conv2d_1a_3x3/BatchNorm/FusedBatchNorm/Offset"}, {"op": "Const", "attr": {"value": {"tensor": {"tensorShape": {"dim": [{"size": "3"}, {"size": "3"}, {"size": "256"}, {"size": "256"}]}, "dtype": "DT_FLOAT"}}, "dtype": {"type": "DT_FLOAT"}}, "name": "SecondStageFeatureExtractor/InceptionV2/Mixed_5a/Branch_1/Conv2d_1a_3x3/Conv2D/merged_input"}, {"op": "Const", "attr": {"value": {"tensor": {"tensorShape": {"dim": [{"size": "256"}]}, "dtype": "DT_FLOAT"}}, "dtype": {"type": "DT_FLOAT"}}, "name": "SecondStageFeatureExtractor/InceptionV2/Mixed_5a/Branch_1/Conv2d_0b_3x3/BatchNorm/FusedBatchNorm/Offset"}, {"op": "Const", "attr": {"value": {"tensor": {"tensorShape": {"dim": [{"size": "3"}, {"size": "3"}, {"size": "192"}, {"size": "256"}]}, "dtype": "DT_FLOAT"}}, "dtype": {"type": "DT_FLOAT"}}, "name": "SecondStageFeatureExtractor/InceptionV2/Mixed_5a/Branch_1/Conv2d_0b_3x3/Conv2D/merged_input"}, {"op": "Const", "attr": {"value": {"tensor": {"tensorShape": {"dim": [{"size": "192"}]}, "dtype": "DT_FLOAT"}}, "dtype": {"type": "DT_FLOAT"}}, "name": "SecondStageFeatureExtractor/InceptionV2/Mixed_5a/Branch_1/Conv2d_0a_1x1/BatchNorm/FusedBatchNorm/Offset"}, {"op": "Const", "attr": {"value": {"tensor": {"tensorShape": {"dim": [{"size": "1"}, {"size": "1"}, {"size": "576"}, {"size": "192"}]}, "dtype": "DT_FLOAT"}}, "dtype": {"type": "DT_FLOAT"}}, "name": "SecondStageFeatureExtractor/InceptionV2/Mixed_5a/Branch_1/Conv2d_0a_1x1/Conv2D/merged_input"}, {"op": "Const", "attr": {"value": {"tensor": {"tensorShape": {"dim": [{"size": "192"}]}, "dtype": "DT_FLOAT"}}, "dtype": {"type": "DT_FLOAT"}}, "name": "SecondStageFeatureExtractor/InceptionV2/Mixed_5a/Branch_0/Conv2d_1a_3x3/BatchNorm/FusedBatchNorm/Offset"}, {"op": "Const", "attr": {"value": {"tensor": {"tensorShape": {"dim": [{"size": "3"}, {"size": "3"}, {"size": "128"}, {"size": "192"}]}, "dtype": "DT_FLOAT"}}, "dtype": {"type": "DT_FLOAT"}}, "name": "SecondStageFeatureExtractor/InceptionV2/Mixed_5a/Branch_0/Conv2d_1a_3x3/Conv2D/merged_input"}, {"op": "Const", "attr": {"value": {"tensor": {"tensorShape": {"dim": [{"size": "128"}]}, "dtype": "DT_FLOAT"}}, "dtype": {"type": "DT_FLOAT"}}, "name": "SecondStageFeatureExtractor/InceptionV2/Mixed_5a/Branch_0/Conv2d_0a_1x1/BatchNorm/FusedBatchNorm/Offset"}, {"op": "Const", "attr": {"value": {"tensor": {"tensorShape": {"dim": [{"size": "1"}, {"size": "1"}, {"size": "576"}, {"size": "128"}]}, "dtype": "DT_FLOAT"}}, "dtype": {"type": "DT_FLOAT"}}, "name": "SecondStageFeatureExtractor/InceptionV2/Mixed_5a/Branch_0/Conv2d_0a_1x1/Conv2D/merged_input"}, {"op": "Const", "attr": {"value": {"tensor": {"tensorShape": {"dim": [{"size": "224"}]}, "dtype": "DT_FLOAT"}}, "dtype": {"type": "DT_FLOAT"}}, "name": "SecondStageFeatureExtractor/InceptionV2/Mixed_5b/Branch_2/Conv2d_0c_3x3/BatchNorm/FusedBatchNorm/Offset"}, {"op": "Const", "attr": {"value": {"tensor": {"tensorShape": {"dim": [{"size": "3"}, {"size": "3"}, {"size": "224"}, {"size": "224"}]}, "dtype": "DT_FLOAT"}}, "dtype": {"type": "DT_FLOAT"}}, "name": "SecondStageFeatureExtractor/InceptionV2/Mixed_5b/Branch_2/Conv2d_0c_3x3/Conv2D/merged_input"}, {"op": "Const", "attr": {"value": {"tensor": {"tensorShape": {"dim": [{"size": "224"}]}, "dtype": "DT_FLOAT"}}, "dtype": {"type": "DT_FLOAT"}}, "name": "SecondStageFeatureExtractor/InceptionV2/Mixed_5b/Branch_2/Conv2d_0b_3x3/BatchNorm/FusedBatchNorm/Offset"}, {"op": "Const", "attr": {"value": {"tensor": {"tensorShape": {"dim": [{"size": "3"}, {"size": "3"}, {"size": "160"}, {"size": "224"}]}, "dtype": "DT_FLOAT"}}, "dtype": {"type": "DT_FLOAT"}}, "name": "SecondStageFeatureExtractor/InceptionV2/Mixed_5b/Branch_2/Conv2d_0b_3x3/Conv2D/merged_input"}, {"op": "Const", "attr": {"value": {"tensor": {"tensorShape": {"dim": [{"size": "160"}]}, "dtype": "DT_FLOAT"}}, "dtype": {"type": "DT_FLOAT"}}, "name": "SecondStageFeatureExtractor/InceptionV2/Mixed_5b/Branch_2/Conv2d_0a_1x1/BatchNorm/FusedBatchNorm/Offset"}, {"op": "Const", "attr": {"value": {"tensor": {"tensorShape": {"dim": [{"size": "1"}, {"size": "1"}, {"size": "1024"}, {"size": "160"}]}, "dtype": "DT_FLOAT"}}, "dtype": {"type": "DT_FLOAT"}}, "name": "SecondStageFeatureExtractor/InceptionV2/Mixed_5b/Branch_2/Conv2d_0a_1x1/Conv2D/merged_input"}, {"op": "Const", "attr": {"value": {"tensor": {"tensorShape": {"dim": [{"size": "320"}]}, "dtype": "DT_FLOAT"}}, "dtype": {"type": "DT_FLOAT"}}, "name": "SecondStageFeatureExtractor/InceptionV2/Mixed_5b/Branch_1/Conv2d_0b_3x3/BatchNorm/FusedBatchNorm/Offset"}, {"op": "Const", "attr": {"value": {"tensor": {"tensorShape": {"dim": [{"size": "3"}, {"size": "3"}, {"size": "192"}, {"size": "320"}]}, "dtype": "DT_FLOAT"}}, "dtype": {"type": "DT_FLOAT"}}, "name": "SecondStageFeatureExtractor/InceptionV2/Mixed_5b/Branch_1/Conv2d_0b_3x3/Conv2D/merged_input"}, {"op": "Const", "attr": {"value": {"tensor": {"tensorShape": {"dim": [{"size": "192"}]}, "dtype": "DT_FLOAT"}}, "dtype": {"type": "DT_FLOAT"}}, "name": "SecondStageFeatureExtractor/InceptionV2/Mixed_5b/Branch_1/Conv2d_0a_1x1/BatchNorm/FusedBatchNorm/Offset"}, {"op": "Const", "attr": {"value": {"tensor": {"tensorShape": {"dim": [{"size": "1"}, {"size": "1"}, {"size": "1024"}, {"size": "192"}]}, "dtype": "DT_FLOAT"}}, "dtype": {"type": "DT_FLOAT"}}, "name": "SecondStageFeatureExtractor/InceptionV2/Mixed_5b/Branch_1/Conv2d_0a_1x1/Conv2D/merged_input"}, {"op": "Const", "attr": {"value": {"tensor": {"tensorShape": {"dim": [{"size": "352"}]}, "dtype": "DT_FLOAT"}}, "dtype": {"type": "DT_FLOAT"}}, "name": "SecondStageFeatureExtractor/InceptionV2/Mixed_5b/Branch_0/Conv2d_0a_1x1/BatchNorm/FusedBatchNorm/Offset"}, {"op": "Const", "attr": {"value": {"tensor": {"tensorShape": {"dim": [{"size": "1"}, {"size": "1"}, {"size": "1024"}, {"size": "352"}]}, "dtype": "DT_FLOAT"}}, "dtype": {"type": "DT_FLOAT"}}, "name": "SecondStageFeatureExtractor/InceptionV2/Mixed_5b/Branch_0/Conv2d_0a_1x1/Conv2D/merged_input"}, {"op": "Const", "attr": {"value": {"tensor": {"tensorShape": {"dim": [{"size": "224"}]}, "dtype": "DT_FLOAT"}}, "dtype": {"type": "DT_FLOAT"}}, "name": "SecondStageFeatureExtractor/InceptionV2/Mixed_5c/Branch_2/Conv2d_0c_3x3/BatchNorm/FusedBatchNorm/Offset"}, {"op": "Const", "attr": {"value": {"tensor": {"tensorShape": {"dim": [{"size": "3"}, {"size": "3"}, {"size": "224"}, {"size": "224"}]}, "dtype": "DT_FLOAT"}}, "dtype": {"type": "DT_FLOAT"}}, "name": "SecondStageFeatureExtractor/InceptionV2/Mixed_5c/Branch_2/Conv2d_0c_3x3/Conv2D/merged_input"}, {"op": "Const", "attr": {"value": {"tensor": {"tensorShape": {"dim": [{"size": "224"}]}, "dtype": "DT_FLOAT"}}, "dtype": {"type": "DT_FLOAT"}}, "name": "SecondStageFeatureExtractor/InceptionV2/Mixed_5c/Branch_2/Conv2d_0b_3x3/BatchNorm/FusedBatchNorm/Offset"}, {"op": "Const", "attr": {"value": {"tensor": {"tensorShape": {"dim": [{"size": "3"}, {"size": "3"}, {"size": "192"}, {"size": "224"}]}, "dtype": "DT_FLOAT"}}, "dtype": {"type": "DT_FLOAT"}}, "name": "SecondStageFeatureExtractor/InceptionV2/Mixed_5c/Branch_2/Conv2d_0b_3x3/Conv2D/merged_input"}, {"op": "Const", "attr": {"value": {"tensor": {"tensorShape": {"dim": [{"size": "192"}]}, "dtype": "DT_FLOAT"}}, "dtype": {"type": "DT_FLOAT"}}, "name": "SecondStageFeatureExtractor/InceptionV2/Mixed_5c/Branch_2/Conv2d_0a_1x1/BatchNorm/FusedBatchNorm/Offset"}, {"op": "Const", "attr": {"value": {"tensor": {"tensorShape": {"dim": [{"size": "1"}, {"size": "1"}, {"size": "1024"}, {"size": "192"}]}, "dtype": "DT_FLOAT"}}, "dtype": {"type": "DT_FLOAT"}}, "name": "SecondStageFeatureExtractor/InceptionV2/Mixed_5c/Branch_2/Conv2d_0a_1x1/Conv2D/merged_input"}, {"op": "Const", "attr": {"value": {"tensor": {"tensorShape": {"dim": [{"size": "320"}]}, "dtype": "DT_FLOAT"}}, "dtype": {"type": "DT_FLOAT"}}, "name": "SecondStageFeatureExtractor/InceptionV2/Mixed_5c/Branch_1/Conv2d_0b_3x3/BatchNorm/FusedBatchNorm/Offset"}, {"op": "Const", "attr": {"value": {"tensor": {"tensorShape": {"dim": [{"size": "3"}, {"size": "3"}, {"size": "192"}, {"size": "320"}]}, "dtype": "DT_FLOAT"}}, "dtype": {"type": "DT_FLOAT"}}, "name": "SecondStageFeatureExtractor/InceptionV2/Mixed_5c/Branch_1/Conv2d_0b_3x3/Conv2D/merged_input"}, {"op": "Const", "attr": {"value": {"tensor": {"tensorShape": {"dim": [{"size": "192"}]}, "dtype": "DT_FLOAT"}}, "dtype": {"type": "DT_FLOAT"}}, "name": "SecondStageFeatureExtractor/InceptionV2/Mixed_5c/Branch_1/Conv2d_0a_1x1/BatchNorm/FusedBatchNorm/Offset"}, {"op": "Const", "attr": {"value": {"tensor": {"tensorShape": {"dim": [{"size": "1"}, {"size": "1"}, {"size": "1024"}, {"size": "192"}]}, "dtype": "DT_FLOAT"}}, "dtype": {"type": "DT_FLOAT"}}, "name": "SecondStageFeatureExtractor/InceptionV2/Mixed_5c/Branch_1/Conv2d_0a_1x1/Conv2D/merged_input"}, {"op": "Const", "attr": {"value": {"tensor": {"tensorShape": {"dim": [{"size": "352"}]}, "dtype": "DT_FLOAT"}}, "dtype": {"type": "DT_FLOAT"}}, "name": "SecondStageFeatureExtractor/InceptionV2/Mixed_5c/Branch_0/Conv2d_0a_1x1/BatchNorm/FusedBatchNorm/Offset"}, {"op": "Const", "attr": {"value": {"tensor": {"tensorShape": {"dim": [{"size": "1"}, {"size": "1"}, {"size": "1024"}, {"size": "352"}]}, "dtype": "DT_FLOAT"}}, "dtype": {"type": "DT_FLOAT"}}, "name": "SecondStageFeatureExtractor/InceptionV2/Mixed_5c/Branch_0/Conv2d_0a_1x1/Conv2D/merged_input"}, {"op": "Const", "attr": {"value": {"tensor": {"tensorShape": {"dim": [{"size": "4"}]}, "dtype": "DT_INT32"}}, "dtype": {"type": "DT_INT32"}}, "name": "SecondStagePostprocessor/Tile/multiples"}, {"op": "Const", "attr": {"value": {"tensor": {"tensorShape": {"dim": [{"size": "3"}]}, "dtype": "DT_INT32"}}, "dtype": {"type": "DT_INT32"}}, "name": "SecondStagePostprocessor/Slice/size"}, {"op": "Const", "attr": {"value": {"tensor": {"tensorShape": {"dim": [{"size": "3"}]}, "dtype": "DT_INT32"}}, "dtype": {"type": "DT_INT32"}}, "name": "SecondStagePostprocessor/Reshape_1/shape"}, {"op": "Const", "attr": {"value": {"tensor": {"tensorShape": {"dim": [{"size": "3"}]}, "dtype": "DT_INT32"}}, "dtype": {"type": "DT_INT32"}}, "name": "SecondStageBoxPredictor/Reshape_1/shape"}, {"op": "Const", "attr": {"value": {"tensor": {"tensorShape": {"dim": [{"size": "4"}]}, "dtype": "DT_FLOAT"}}, "dtype": {"type": "DT_FLOAT"}}, "name": "SecondStageBoxPredictor/ClassPredictor/biases"}, {"op": "Const", "attr": {"value": {"tensor": {"tensorShape": {"dim": [{"size": "1024"}, {"size": "4"}]}, "dtype": "DT_FLOAT"}}, "dtype": {"type": "DT_FLOAT"}}, "name": "SecondStageBoxPredictor/ClassPredictor/weights"}, {"input": ["image_tensor"], "op": "Cast", "attr": {"Truncate": {"b": false}, "SrcT": {"type": "DT_UINT8"}, "DstT": {"type": "DT_FLOAT"}}, "name": "Cast"}, {"input": ["SecondStagePostprocessor/BatchMultiClassNonMaxSuppression/map/TensorArrayStack/range/start"], "op": "Enter", "attr": {"parallel_iterations": {"i": "16"}, "T": {"type": "DT_INT32"}, "is_constant": {"b": false}, "frame_name": {"s": "UHJlcHJvY2Vzc29yL21hcC93aGlsZS93aGlsZV9jb250ZXh0"}}, "name": "Preprocessor/map/while/Enter"}, {"input": ["SecondStagePostprocessor/BatchMultiClassNonMaxSuppression/map/TensorArrayStack/range/start"], "op": "Enter", "attr": {"parallel_iterations": {"i": "16"}, "T": {"type": "DT_INT32"}, "is_constant": {"b": false}, "frame_name": {"s": "UHJlcHJvY2Vzc29yL21hcC93aGlsZS93aGlsZV9jb250ZXh0"}}, "name": "Preprocessor/map/while/Enter_1"}, {"input": ["SecondStagePostprocessor/BatchMultiClassNonMaxSuppression/map/TensorArrayStack/range/start"], "op": "Enter", "attr": {"parallel_iterations": {"i": "32"}, "T": {"type": "DT_INT32"}, "is_constant": {"b": false}, "frame_name": {"s": "QmF0Y2hNdWx0aUNsYXNzTm9uTWF4U3VwcHJlc3Npb24vbWFwL3doaWxlL3doaWxlX2NvbnRleHQ="}}, "name": "BatchMultiClassNonMaxSuppression/map/while/Enter"}, {"input": ["SecondStagePostprocessor/BatchMultiClassNonMaxSuppression/map/TensorArrayStack/range/start"], "op": "Enter", "attr": {"parallel_iterations": {"i": "32"}, "T": {"type": "DT_INT32"}, "is_constant": {"b": false}, "frame_name": {"s": "QmF0Y2hNdWx0aUNsYXNzTm9uTWF4U3VwcHJlc3Npb24vbWFwL3doaWxlL3doaWxlX2NvbnRleHQ="}}, "name": "BatchMultiClassNonMaxSuppression/map/while/Enter_1"}, {"input": ["SecondStagePostprocessor/BatchMultiClassNonMaxSuppression/map/TensorArrayStack/range/start"], "op": "Enter", "attr": {"is_constant": {"b": false}, "T": {"type": "DT_INT32"}, "frame_name": {"s": "bWFwL3doaWxlL3doaWxlX2NvbnRleHQ="}, "parallel_iterations": {"i": "32"}}, "name": "map/while/Enter"}, {"input": ["SecondStagePostprocessor/BatchMultiClassNonMaxSuppression/map/TensorArrayStack/range/start"], "op": "Enter", "attr": {"is_constant": {"b": false}, "T": {"type": "DT_INT32"}, "frame_name": {"s": "bWFwL3doaWxlL3doaWxlX2NvbnRleHQ="}, "parallel_iterations": {"i": "32"}}, "name": "map/while/Enter_1"}, {"input": ["SecondStagePostprocessor/BatchMultiClassNonMaxSuppression/map/TensorArrayStack/range/start"], "op": "Enter", "attr": {"is_constant": {"b": false}, "T": {"type": "DT_INT32"}, "frame_name": {"s": "bWFwXzIvd2hpbGUvd2hpbGVfY29udGV4dA=="}, "parallel_iterations": {"i": "16"}}, "name": "map_2/while/Enter"}, {"input": ["SecondStagePostprocessor/BatchMultiClassNonMaxSuppression/map/TensorArrayStack/range/start"], "op": "Enter", "attr": {"parallel_iterations": {"i": "16"}, "T": {"type": "DT_INT32"}, "is_constant": {"b": false}, "frame_name": {"s": "bWFwXzIvd2hpbGUvd2hpbGVfY29udGV4dA=="}}, "name": "map_2/while/Enter_1"}, {"input": ["SecondStagePostprocessor/BatchMultiClassNonMaxSuppression/map/TensorArrayStack/range/start"], "op": "Enter", "attr": {"parallel_iterations": {"i": "32"}, "T": {"type": "DT_INT32"}, "is_constant": {"b": false}, "frame_name": {"s": "U2Vjb25kU3RhZ2VQb3N0cHJvY2Vzc29yL0JhdGNoTXVsdGlDbGFzc05vbk1heFN1cHByZXNzaW9uL21hcC93aGlsZS93aGlsZV9jb250ZXh0"}}, "name": "SecondStagePostprocessor/BatchMultiClassNonMaxSuppression/map/while/Enter"}, {"input": ["SecondStagePostprocessor/BatchMultiClassNonMaxSuppression/map/TensorArrayStack/range/start"], "op": "Enter", "attr": {"is_constant": {"b": false}, "T": {"type": "DT_INT32"}, "frame_name": {"s": "U2Vjb25kU3RhZ2VQb3N0cHJvY2Vzc29yL0JhdGNoTXVsdGlDbGFzc05vbk1heFN1cHByZXNzaW9uL21hcC93aGlsZS93aGlsZV9jb250ZXh0"}, "parallel_iterations": {"i": "32"}}, "name": "SecondStagePostprocessor/BatchMultiClassNonMaxSuppression/map/while/Enter_1"}, {"input": ["Cast"], "op": "Shape", "attr": {"out_type": {"type": "DT_INT32"}, "T": {"type": "DT_FLOAT"}}, "name": "Preprocessor/map/TensorArrayUnstack/Shape"}, {"input": ["Preprocessor/map/while/Enter", "Preprocessor/map/while/NextIteration"], "op": "Merge", "attr": {"T": {"type": "DT_INT32"}, "N": {"i": "2"}}, "name": "Preprocessor/map/while/Merge"}, {"input": ["Preprocessor/map/while/Enter_1", "Preprocessor/map/while/NextIteration_1"], "op": "Merge", "attr": {"T": {"type": "DT_INT32"}, "N": {"i": "2"}}, "name": "Preprocessor/map/while/Merge_1"}, {"input": ["BatchMultiClassNonMaxSuppression/map/while/Enter", "BatchMultiClassNonMaxSuppression/map/while/NextIteration"], "op": "Merge", "attr": {"T": {"type": "DT_INT32"}, "N": {"i": "2"}}, "name": "BatchMultiClassNonMaxSuppression/map/while/Merge"}, {"input": ["BatchMultiClassNonMaxSuppression/map/while/Enter_1", "BatchMultiClassNonMaxSuppression/map/while/NextIteration_1"], "op": "Merge", "attr": {"T": {"type": "DT_INT32"}, "N": {"i": "2"}}, "name": "BatchMultiClassNonMaxSuppression/map/while/Merge_1"}, {"input": ["map/while/Enter", "map/while/NextIteration"], "op": "Merge", "attr": {"T": {"type": "DT_INT32"}, "N": {"i": "2"}}, "name": "map/while/Merge"}, {"input": ["map/while/Enter_1", "map/while/NextIteration_1"], "op": "Merge", "attr": {"T": {"type": "DT_INT32"}, "N": {"i": "2"}}, "name": "map/while/Merge_1"}, {"input": ["map_2/while/Enter", "map_2/while/NextIteration"], "op": "Merge", "attr": {"T": {"type": "DT_INT32"}, "N": {"i": "2"}}, "name": "map_2/while/Merge"}, {"input": ["map_2/while/Enter_1", "map_2/while/NextIteration_1"], "op": "Merge", "attr": {"T": {"type": "DT_INT32"}, "N": {"i": "2"}}, "name": "map_2/while/Merge_1"}, {"input": ["SecondStagePostprocessor/BatchMultiClassNonMaxSuppression/map/while/Enter", "SecondStagePostprocessor/BatchMultiClassNonMaxSuppression/map/while/NextIteration"], "op": "Merge", "attr": {"T": {"type": "DT_INT32"}, "N": {"i": "2"}}, "name": "SecondStagePostprocessor/BatchMultiClassNonMaxSuppression/map/while/Merge"}, {"input": ["SecondStagePostprocessor/BatchMultiClassNonMaxSuppression/map/while/Enter_1", "SecondStagePostprocessor/BatchMultiClassNonMaxSuppression/map/while/NextIteration_1"], "op": "Merge", "attr": {"T": {"type": "DT_INT32"}, "N": {"i": "2"}}, "name": "SecondStagePostprocessor/BatchMultiClassNonMaxSuppression/map/while/Merge_1"}, {"input": ["Preprocessor/map/TensorArrayUnstack/Shape", "SecondStagePostprocessor/BatchMultiClassNonMaxSuppression/map/TensorArrayUnstack_1/strided_slice/stack", "SecondStagePostprocessor/BatchMultiClassNonMaxSuppression/map/TensorArrayUnstack_1/strided_slice/stack_1", "SecondStagePostprocessor/BatchMultiClassNonMaxSuppression/map/TensorArrayUnstack_1/strided_slice/stack_1"], "op": "StridedSlice", "attr": {"ellipsis_mask": {"i": "0"}, "end_mask": {"i": "0"}, "new_axis_mask": {"i": "0"}, "Index": {"type": "DT_INT32"}, "shrink_axis_mask": {"i": "1"}, "T": {"type": "DT_INT32"}, "begin_mask": {"i": "0"}}, "name": "Preprocessor/map/TensorArrayUnstack/strided_slice"}, {"input": ["Preprocessor/map/TensorArrayUnstack/strided_slice"], "op": "Enter", "attr": {"is_constant": {"b": true}, "T": {"type": "DT_INT32"}, "frame_name": {"s": "UHJlcHJvY2Vzc29yL21hcC93aGlsZS93aGlsZV9jb250ZXh0"}, "parallel_iterations": {"i": "16"}}, "name": "Preprocessor/map/while/Less/Enter"}, {"input": ["Preprocessor/map/TensorArrayUnstack/strided_slice"], "op": "TensorArrayV3", "attr": {"element_shape": {"shape": {"unknownRank": true}}, "dtype": {"type": "DT_FLOAT"}, "clear_after_read": {"b": true}, "dynamic_size": {"b": false}, "tensor_array_name": {"s": ""}, "identical_element_shapes": {"b": true}}, "name": "Preprocessor/map/TensorArray"}, {"input": ["SecondStagePostprocessor/BatchMultiClassNonMaxSuppression/map/TensorArrayStack/range/start", "Preprocessor/map/TensorArrayUnstack/strided_slice", "SecondStagePostprocessor/BatchMultiClassNonMaxSuppression/map/TensorArrayStack/range/delta"], "op": "Range", "attr": {"Tidx": {"type": "DT_INT32"}}, "name": "Preprocessor/map/TensorArrayUnstack/range"}, {"input": ["Preprocessor/map/TensorArrayUnstack/strided_slice"], "op": "TensorArrayV3", "attr": {"element_shape": {"shape": {"unknownRank": true}}, "clear_after_read": {"b": true}, "dynamic_size": {"b": false}, "identical_element_shapes": {"b": true}, "tensor_array_name": {"s": ""}, "dtype": {"type": "DT_FLOAT"}}, "name": "Preprocessor/map/TensorArray_1"}, {"input": ["Preprocessor/map/TensorArrayUnstack/strided_slice"], "op": "TensorArrayV3", "attr": {"element_shape": {"shape": {"unknownRank": true}}, "dtype": {"type": "DT_INT32"}, "clear_after_read": {"b": true}, "dynamic_size": {"b": false}, "tensor_array_name": {"s": ""}, "identical_element_shapes": {"b": true}}, "name": "Preprocessor/map/TensorArray_2"}, {"input": ["Preprocessor/map/while/Merge_1", "Preprocessor/map/while/Less/Enter"], "op": "Less", "attr": {"T": {"type": "DT_INT32"}}, "name": "Preprocessor/map/while/Less_1"}, {"input": ["Preprocessor/map/while/Merge", "Preprocessor/map/while/Less/Enter"], "op": "Less", "attr": {"T": {"type": "DT_INT32"}}, "name": "Preprocessor/map/while/Less"}, {"input": ["Preprocessor/map/TensorArray"], "op": "Enter", "attr": {"is_constant": {"b": true}, "T": {"type": "DT_RESOURCE"}, "frame_name": {"s": "UHJlcHJvY2Vzc29yL21hcC93aGlsZS93aGlsZV9jb250ZXh0"}, "parallel_iterations": {"i": "16"}}, "name": "Preprocessor/map/while/TensorArrayReadV3/Enter"}, {"input": ["Preprocessor/map/TensorArray", "Preprocessor/map/TensorArrayUnstack/range", "Cast", "Preprocessor/map/TensorArray:1"], "op": "TensorArrayScatterV3", "attr": {"T": {"type": "DT_FLOAT"}}, "name": "Preprocessor/map/TensorArrayUnstack/TensorArrayScatter/TensorArrayScatterV3"}, {"input": ["Preprocessor/map/TensorArray_1"], "op": "Enter", "attr": {"is_constant": {"b": true}, "T": {"type": "DT_RESOURCE"}, "frame_name": {"s": "UHJlcHJvY2Vzc29yL21hcC93aGlsZS93aGlsZV9jb250ZXh0"}, "parallel_iterations": {"i": "16"}}, "name": "Preprocessor/map/while/TensorArrayWrite/TensorArrayWriteV3/Enter"}, {"input": ["Preprocessor/map/TensorArray_1:1"], "op": "Enter", "attr": {"is_constant": {"b": false}, "T": {"type": "DT_FLOAT"}, "frame_name": {"s": "UHJlcHJvY2Vzc29yL21hcC93aGlsZS93aGlsZV9jb250ZXh0"}, "parallel_iterations": {"i": "16"}}, "name": "Preprocessor/map/while/Enter_2"}, {"input": ["Preprocessor/map/TensorArray_2"], "op": "Enter", "attr": {"is_constant": {"b": true}, "T": {"type": "DT_RESOURCE"}, "frame_name": {"s": "UHJlcHJvY2Vzc29yL21hcC93aGlsZS93aGlsZV9jb250ZXh0"}, "parallel_iterations": {"i": "16"}}, "name": "Preprocessor/map/while/TensorArrayWrite_1/TensorArrayWriteV3/Enter"}, {"input": ["Preprocessor/map/TensorArray_2:1"], "op": "Enter", "attr": {"is_constant": {"b": false}, "T": {"type": "DT_FLOAT"}, "frame_name": {"s": "UHJlcHJvY2Vzc29yL21hcC93aGlsZS93aGlsZV9jb250ZXh0"}, "parallel_iterations": {"i": "16"}}, "name": "Preprocessor/map/while/Enter_3"}, {"input": ["Preprocessor/map/while/Less", "Preprocessor/map/while/Less_1"], "op": "LogicalAnd", "name": "Preprocessor/map/while/LogicalAnd"}, {"input": ["Preprocessor/map/TensorArrayUnstack/TensorArrayScatter/TensorArrayScatterV3"], "op": "Enter", "attr": {"is_constant": {"b": true}, "T": {"type": "DT_FLOAT"}, "frame_name": {"s": "UHJlcHJvY2Vzc29yL21hcC93aGlsZS93aGlsZV9jb250ZXh0"}, "parallel_iterations": {"i": "16"}}, "name": "Preprocessor/map/while/TensorArrayReadV3/Enter_1"}, {"input": ["Preprocessor/map/while/Enter_2", "Preprocessor/map/while/NextIteration_2"], "op": "Merge", "attr": {"T": {"type": "DT_FLOAT"}, "N": {"i": "2"}}, "name": "Preprocessor/map/while/Merge_2"}, {"input": ["Preprocessor/map/while/Enter_3", "Preprocessor/map/while/NextIteration_3"], "op": "Merge", "attr": {"T": {"type": "DT_FLOAT"}, "N": {"i": "2"}}, "name": "Preprocessor/map/while/Merge_3"}, {"input": ["Preprocessor/map/while/LogicalAnd"], "op": "LoopCond", "name": "Preprocessor/map/while/LoopCond"}, {"input": ["Preprocessor/map/while/Merge_2", "Preprocessor/map/while/LoopCond"], "op": "Switch", "attr": {"T": {"type": "DT_FLOAT"}}, "name": "Preprocessor/map/while/Switch_2"}, {"input": ["Preprocessor/map/while/Merge", "Preprocessor/map/while/LoopCond"], "op": "Switch", "attr": {"T": {"type": "DT_INT32"}}, "name": "Preprocessor/map/while/Switch"}, {"input": ["Preprocessor/map/while/Merge_1", "Preprocessor/map/while/LoopCond"], "op": "Switch", "attr": {"T": {"type": "DT_INT32"}}, "name": "Preprocessor/map/while/Switch_1"}, {"input": ["Preprocessor/map/while/Merge_3", "Preprocessor/map/while/LoopCond"], "op": "Switch", "attr": {"T": {"type": "DT_FLOAT"}}, "name": "Preprocessor/map/while/Switch_3"}, {"input": ["Preprocessor/map/while/Switch_2"], "op": "Exit", "attr": {"T": {"type": "DT_FLOAT"}}, "name": "Preprocessor/map/while/Exit_2"}, {"input": ["Preprocessor/map/while/Switch:1"], "op": "Identity", "attr": {"T": {"type": "DT_INT32"}}, "name": "Preprocessor/map/while/Identity"}, {"input": ["Preprocessor/map/while/TensorArrayReadV3/Enter", "Preprocessor/map/while/Switch_1:1", "Preprocessor/map/while/TensorArrayReadV3/Enter_1"], "op": "TensorArrayReadV3", "attr": {"dtype": {"type": "DT_FLOAT"}}, "name": "Preprocessor/map/while/TensorArrayReadV3"}, {"input": ["Preprocessor/map/while/Switch_3"], "op": "Exit", "attr": {"T": {"type": "DT_FLOAT"}}, "name": "Preprocessor/map/while/Exit_3"}, {"input": ["Preprocessor/map/TensorArray_1", "Preprocessor/map/while/Exit_2"], "op": "TensorArraySizeV3", "name": "Preprocessor/map/TensorArrayStack/TensorArraySizeV3"}, {"input": ["^Preprocessor/map/while/Identity"], "op": "Const", "attr": {"value": {"tensor": {"tensorShape": {}, "dtype": "DT_INT32"}}, "dtype": {"type": "DT_INT32"}}, "name": "Preprocessor/map/while/add/y"}, {"input": ["^Preprocessor/map/while/Identity"], "op": "Const", "attr": {"value": {"tensor": {"tensorShape": {"dim": [{"size": "1"}]}, "dtype": "DT_INT32"}}, "dtype": {"type": "DT_INT32"}}, "name": "Preprocessor/map/while/ResizeToRange/strided_slice/stack_1"}, {"input": ["^Preprocessor/map/while/Identity"], "op": "Const", "attr": {"value": {"tensor": {"tensorShape": {"dim": [{"size": "1"}]}, "dtype": "DT_INT32"}}, "dtype": {"type": "DT_INT32"}}, "name": "Preprocessor/map/while/ResizeToRange/strided_slice_1/stack_1"}, {"input": ["^Preprocessor/map/while/Identity"], "op": "Const", "attr": {"value": {"tensor": {"tensorShape": {"dim": [{"size": "1"}]}, "dtype": "DT_INT32"}}, "dtype": {"type": "DT_INT32"}}, "name": "Preprocessor/map/while/ResizeToRange/strided_slice/stack"}, {"input": ["Preprocessor/map/while/TensorArrayReadV3"], "op": "Shape", "attr": {"out_type": {"type": "DT_INT32"}, "T": {"type": "DT_FLOAT"}}, "name": "Preprocessor/map/while/ResizeToRange/Shape"}, {"input": ["Preprocessor/map/TensorArray_2", "Preprocessor/map/while/Exit_3"], "op": "TensorArraySizeV3", "name": "Preprocessor/map/TensorArrayStack_1/TensorArraySizeV3"}, {"input": ["SecondStagePostprocessor/BatchMultiClassNonMaxSuppression/map/TensorArrayStack/range/start", "Preprocessor/map/TensorArrayStack/TensorArraySizeV3", "SecondStagePostprocessor/BatchMultiClassNonMaxSuppression/map/TensorArrayStack/range/delta"], "op": "Range", "attr": {"Tidx": {"type": "DT_INT32"}}, "name": "Preprocessor/map/TensorArrayStack/range"}, {"input": ["Preprocessor/map/while/Switch_1:1", "Preprocessor/map/while/add/y"], "op": "Add", "attr": {"T": {"type": "DT_INT32"}}, "name": "Preprocessor/map/while/add_1"}, {"input": ["Preprocessor/map/while/Identity", "Preprocessor/map/while/add/y"], "op": "Add", "attr": {"T": {"type": "DT_INT32"}}, "name": "Preprocessor/map/while/add"}, {"input": ["Preprocessor/map/while/ResizeToRange/Shape", "Preprocessor/map/while/ResizeToRange/strided_slice/stack_1", "Preprocessor/map/while/ResizeToRange/strided_slice_1/stack_1", "Preprocessor/map/while/ResizeToRange/strided_slice/stack_1"], "op": "StridedSlice", "attr": {"ellipsis_mask": {"i": "0"}, "end_mask": {"i": "0"}, "new_axis_mask": {"i": "0"}, "Index": {"type": "DT_INT32"}, "shrink_axis_mask": {"i": "1"}, "T": {"type": "DT_INT32"}, "begin_mask": {"i": "0"}}, "name": "Preprocessor/map/while/ResizeToRange/strided_slice_1"}, {"input": ["Preprocessor/map/while/ResizeToRange/Shape", "Preprocessor/map/while/ResizeToRange/strided_slice/stack", "Preprocessor/map/while/ResizeToRange/strided_slice/stack_1", "Preprocessor/map/while/ResizeToRange/strided_slice/stack_1"], "op": "StridedSlice", "attr": {"ellipsis_mask": {"i": "0"}, "end_mask": {"i": "0"}, "new_axis_mask": {"i": "0"}, "Index": {"type": "DT_INT32"}, "shrink_axis_mask": {"i": "1"}, "T": {"type": "DT_INT32"}, "begin_mask": {"i": "0"}}, "name": "Preprocessor/map/while/ResizeToRange/strided_slice"}, {"input": ["SecondStagePostprocessor/BatchMultiClassNonMaxSuppression/map/TensorArrayStack/range/start", "Preprocessor/map/TensorArrayStack_1/TensorArraySizeV3", "SecondStagePostprocessor/BatchMultiClassNonMaxSuppression/map/TensorArrayStack/range/delta"], "op": "Range", "attr": {"Tidx": {"type": "DT_INT32"}}, "name": "Preprocessor/map/TensorArrayStack_1/range"}, {"input": ["Preprocessor/map/TensorArray_1", "Preprocessor/map/TensorArrayStack/range", "Preprocessor/map/while/Exit_2"], "op": "TensorArrayGatherV3", "attr": {"element_shape": {"shape": {"dim": [{"size": "-1"}, {"size": "-1"}, {"size": "3"}]}}, "dtype": {"type": "DT_FLOAT"}}, "name": "Preprocessor/map/TensorArrayStack/TensorArrayGatherV3"}, {"input": ["Preprocessor/map/while/add_1"], "op": "NextIteration", "attr": {"T": {"type": "DT_INT32"}}, "name": "Preprocessor/map/while/NextIteration_1"}, {"input": ["Preprocessor/map/while/add"], "op": "NextIteration", "attr": {"T": {"type": "DT_INT32"}}, "name": "Preprocessor/map/while/NextIteration"}, {"input": ["Preprocessor/map/while/ResizeToRange/strided_slice", "Preprocessor/map/while/ResizeToRange/strided_slice_1"], "op": "Less", "attr": {"T": {"type": "DT_INT32"}}, "name": "Preprocessor/map/while/ResizeToRange/Less"}, {"input": ["Preprocessor/map/TensorArray_2", "Preprocessor/map/TensorArrayStack_1/range", "Preprocessor/map/while/Exit_3"], "op": "TensorArrayGatherV3", "attr": {"element_shape": {"shape": {"dim": [{"size": "3"}]}}, "dtype": {"type": "DT_INT32"}}, "name": "Preprocessor/map/TensorArrayStack_1/TensorArrayGatherV3"}, {"input": ["Preprocessor/mul/x", "Preprocessor/map/TensorArrayStack/TensorArrayGatherV3"], "op": "Mul", "attr": {"T": {"type": "DT_FLOAT"}}, "name": "Preprocessor/mul"}, {"input": ["Preprocessor/map/while/ResizeToRange/Less", "Preprocessor/map/while/ResizeToRange/Less"], "op": "Switch", "attr": {"T": {"type": "DT_BOOL"}}, "name": "Preprocessor/map/while/ResizeToRange/cond/Switch"}, {"input": ["Preprocessor/map/while/TensorArrayReadV3", "Preprocessor/map/while/ResizeToRange/Less"], "op": "Switch", "attr": {"T": {"type": "DT_FLOAT"}}, "name": "Preprocessor/map/while/ResizeToRange/cond/resize_1/ExpandDims/Switch"}, {"input": ["Preprocessor/map/TensorArrayStack_1/TensorArrayGatherV3", "SecondStagePostprocessor/strided_slice_1/stack_1", "SecondStagePostprocessor/strided_slice_2/stack_1", "SecondStagePostprocessor/strided_slice_1/stack_2"], "op": "StridedSlice", "attr": {"ellipsis_mask": {"i": "0"}, "end_mask": {"i": "1"}, "new_axis_mask": {"i": "0"}, "Index": {"type": "DT_INT32"}, "shrink_axis_mask": {"i": "2"}, "T": {"type": "DT_INT32"}, "begin_mask": {"i": "1"}}, "name": "SecondStagePostprocessor/strided_slice_2"}, {"input": ["Preprocessor/map/TensorArrayStack_1/TensorArrayGatherV3", "SecondStagePostprocessor/strided_slice_1/stack", "SecondStagePostprocessor/strided_slice_1/stack_1", "SecondStagePostprocessor/strided_slice_1/stack_2"], "op": "StridedSlice", "attr": {"ellipsis_mask": {"i": "0"}, "end_mask": {"i": "1"}, "new_axis_mask": {"i": "0"}, "Index": {"type": "DT_INT32"}, "shrink_axis_mask": {"i": "2"}, "T": {"type": "DT_INT32"}, "begin_mask": {"i": "1"}}, "name": "SecondStagePostprocessor/strided_slice_1"}, {"input": ["Preprocessor/mul", "add_2/y"], "op": "Sub", "attr": {"T": {"type": "DT_FLOAT"}}, "name": "Preprocessor/sub"}, {"input": ["Preprocessor/map/while/ResizeToRange/cond/Switch:1"], "op": "Identity", "attr": {"T": {"type": "DT_BOOL"}}, "name": "Preprocessor/map/while/ResizeToRange/cond/switch_t"}, {"input": ["Preprocessor/map/while/ResizeToRange/cond/Switch"], "op": "Identity", "attr": {"T": {"type": "DT_BOOL"}}, "name": "Preprocessor/map/while/ResizeToRange/cond/switch_f"}, {"input": ["SecondStagePostprocessor/strided_slice_1"], "op": "ZerosLike", "attr": {"T": {"type": "DT_INT32"}}, "name": "SecondStagePostprocessor/zeros_like"}, {"input": ["Preprocessor/sub"], "op": "Shape", "attr": {"out_type": {"type": "DT_INT32"}, "T": {"type": "DT_FLOAT"}}, "name": "Shape"}, {"input": ["^Preprocessor/map/while/ResizeToRange/cond/switch_t"], "op": "Const", "attr": {"value": {"tensor": {"tensorShape": {}, "dtype": "DT_INT32"}}, "dtype": {"type": "DT_INT32"}}, "name": "Preprocessor/map/while/ResizeToRange/cond/resize/ExpandDims/dim"}, {"input": ["^Preprocessor/map/while/ResizeToRange/cond/switch_t"], "op": "Const", "attr": {"value": {"tensor": {"tensorShape": {}, "dtype": "DT_FLOAT"}}, "dtype": {"type": "DT_FLOAT"}}, "name": "Preprocessor/map/while/ResizeToRange/cond/resize/ToFloat_2"}, {"input": ["^Preprocessor/map/while/ResizeToRange/cond/switch_t"], "op": "Const", "attr": {"value": {"tensor": {"tensorShape": {}, "dtype": "DT_FLOAT"}}, "dtype": {"type": "DT_FLOAT"}}, "name": "Preprocessor/map/while/ResizeToRange/cond/resize/ToFloat"}, {"input": ["^Preprocessor/map/while/ResizeToRange/cond/switch_f"], "op": "Const", "attr": {"value": {"tensor": {"tensorShape": {}, "dtype": "DT_INT32"}}, "dtype": {"type": "DT_INT32"}}, "name": "Preprocessor/map/while/ResizeToRange/cond/resize_1/ExpandDims/dim"}, {"input": ["^Preprocessor/map/while/ResizeToRange/cond/switch_f"], "op": "Const", "attr": {"value": {"tensor": {"tensorShape": {}, "dtype": "DT_FLOAT"}}, "dtype": {"type": "DT_FLOAT"}}, "name": "Preprocessor/map/while/ResizeToRange/cond/resize_1/ToFloat_2"}, {"input": ["^Preprocessor/map/while/ResizeToRange/cond/switch_f"], "op": "Const", "attr": {"value": {"tensor": {"tensorShape": {}, "dtype": "DT_FLOAT"}}, "dtype": {"type": "DT_FLOAT"}}, "name": "Preprocessor/map/while/ResizeToRange/cond/resize_1/ToFloat"}, {"input": ["SecondStagePostprocessor/zeros_like", "SecondStagePostprocessor/zeros_like", "SecondStagePostprocessor/strided_slice_1", "SecondStagePostprocessor/strided_slice_2"], "op": "Pack", "attr": {"T": {"type": "DT_INT32"}, "N": {"i": "4"}, "axis": {"i": "1"}}, "name": "SecondStagePostprocessor/stack_1"}, {"input": ["Shape", "SecondStagePostprocessor/BatchMultiClassNonMaxSuppression/map/TensorArrayUnstack_1/strided_slice/stack_1", "strided_slice_15/stack_1", "SecondStagePostprocessor/BatchMultiClassNonMaxSuppression/map/TensorArrayUnstack_1/strided_slice/stack_1"], "op": "StridedSlice", "attr": {"ellipsis_mask": {"i": "0"}, "end_mask": {"i": "0"}, "new_axis_mask": {"i": "0"}, "Index": {"type": "DT_INT32"}, "shrink_axis_mask": {"i": "1"}, "T": {"type": "DT_INT32"}, "begin_mask": {"i": "0"}}, "name": "strided_slice_15"}, {"input": ["Shape", "strided_slice_15/stack_1", "strided_slice_14/stack_1", "SecondStagePostprocessor/BatchMultiClassNonMaxSuppression/map/TensorArrayUnstack_1/strided_slice/stack_1"], "op": "StridedSlice", "attr": {"ellipsis_mask": {"i": "0"}, "end_mask": {"i": "0"}, "new_axis_mask": {"i": "0"}, "Index": {"type": "DT_INT32"}, "shrink_axis_mask": {"i": "1"}, "T": {"type": "DT_INT32"}, "begin_mask": {"i": "0"}}, "name": "strided_slice_14"}, {"input": ["Shape", "SecondStagePostprocessor/BatchMultiClassNonMaxSuppression/map/TensorArrayUnstack_1/strided_slice/stack", "SecondStagePostprocessor/BatchMultiClassNonMaxSuppression/map/TensorArrayUnstack_1/strided_slice/stack_1", "SecondStagePostprocessor/BatchMultiClassNonMaxSuppression/map/TensorArrayUnstack_1/strided_slice/stack_1"], "op": "StridedSlice", "attr": {"ellipsis_mask": {"i": "0"}, "end_mask": {"i": "0"}, "new_axis_mask": {"i": "0"}, "Index": {"type": "DT_INT32"}, "shrink_axis_mask": {"i": "1"}, "T": {"type": "DT_INT32"}, "begin_mask": {"i": "0"}}, "name": "strided_slice_5"}, {"input": ["Shape", "SecondStagePostprocessor/BatchMultiClassNonMaxSuppression/map/TensorArrayUnstack_1/strided_slice/stack_1", "SecondStagePostprocessor/BatchMultiClassNonMaxSuppression/map/TensorArrayUnstack_1/strided_slice/stack", "SecondStagePostprocessor/BatchMultiClassNonMaxSuppression/map/TensorArrayUnstack_1/strided_slice/stack_1"], "op": "StridedSlice", "attr": {"ellipsis_mask": {"i": "0"}, "end_mask": {"i": "1"}, "new_axis_mask": {"i": "0"}, "Index": {"type": "DT_INT32"}, "shrink_axis_mask": {"i": "0"}, "T": {"type": "DT_INT32"}, "begin_mask": {"i": "0"}}, "name": "strided_slice_4"}, {"input": ["Preprocessor/map/while/ResizeToRange/cond/resize_1/ExpandDims/Switch:1", "Preprocessor/map/while/ResizeToRange/cond/resize/ExpandDims/dim"], "op": "ExpandDims", "attr": {"T": {"type": "DT_FLOAT"}, "Tdim": {"type": "DT_INT32"}}, "name": "Preprocessor/map/while/ResizeToRange/cond/resize/ExpandDims"}, {"input": ["Preprocessor/map/while/ResizeToRange/cond/resize_1/ExpandDims/Switch", "Preprocessor/map/while/ResizeToRange/cond/resize_1/ExpandDims/dim"], "op": "ExpandDims", "attr": {"T": {"type": "DT_FLOAT"}, "Tdim": {"type": "DT_INT32"}}, "name": "Preprocessor/map/while/ResizeToRange/cond/resize_1/ExpandDims"}, {"input": ["SecondStagePostprocessor/stack_1"], "op": "Cast", "attr": {"Truncate": {"b": false}, "SrcT": {"type": "DT_INT32"}, "DstT": {"type": "DT_FLOAT"}}, "name": "SecondStagePostprocessor/Cast"}, {"input": ["strided_slice_15"], "op": "Cast", "attr": {"Truncate": {"b": false}, "SrcT": {"type": "DT_INT32"}, "DstT": {"type": "DT_FLOAT"}}, "name": "Cast_4"}, {"input": ["^strided_slice_14", "^strided_slice_15"], "op": "Const", "attr": {"value": {"tensor": {"tensorShape": {}, "dtype": "DT_INT32"}}, "dtype": {"type": "DT_INT32"}}, "name": "FirstStageFeatureExtractor/InceptionV2/InceptionV2/Mixed_3b/concat/axis"}, {"input": ["Preprocessor/sub", "FirstStageFeatureExtractor/InceptionV2/Conv2d_1a_7x7/depthwise_weights", "^strided_slice_14", "^strided_slice_15"], "op": "DepthwiseConv2dNative", "attr": {"T": {"type": "DT_FLOAT"}, "padding": {"s": "U0FNRQ=="}, "data_format": {"s": "TkhXQw=="}, "dilations": {"list": {"i": ["1", "1", "1", "1"]}}, "strides": {"list": {"i": ["1", "2", "2", "1"]}}}, "name": "FirstStageFeatureExtractor/InceptionV2/InceptionV2/Conv2d_1a_7x7/separable_conv2d/depthwise"}, {"input": ["SecondStagePostprocessor/BatchMultiClassNonMaxSuppression/map/TensorArrayStack/range/start", "SecondStagePostprocessor/BatchMultiClassNonMaxSuppression/map/TensorArrayStack/range/start", "strided_slice_15", "strided_slice_14"], "op": "Pack", "attr": {"T": {"type": "DT_INT32"}, "N": {"i": "4"}, "axis": {"i": "0"}}, "name": "stack"}, {"input": ["strided_slice_14"], "op": "Cast", "attr": {"Truncate": {"b": false}, "SrcT": {"type": "DT_INT32"}, "DstT": {"type": "DT_FLOAT"}}, "name": "Cast_3"}, {"input": ["strided_slice_5", "SecondStagePostprocessor/BatchMultiClassNonMaxSuppression/map/TensorArrayStack/range/delta"], "op": "Pack", "attr": {"T": {"type": "DT_INT32"}, "N": {"i": "2"}, "axis": {"i": "0"}}, "name": "Tile/multiples"}, {"input": ["strided_slice_4", "SecondStagePostprocessor/BatchMultiClassNonMaxSuppression/map/TensorArrayStack/range/start"], "op": "ExpandDims", "attr": {"T": {"type": "DT_INT32"}, "Tdim": {"type": "DT_INT32"}}, "name": "ExpandDims"}, {"input": ["Preprocessor/map/while/ResizeToRange/cond/resize/ExpandDims"], "op": "Shape", "attr": {"out_type": {"type": "DT_INT32"}, "T": {"type": "DT_FLOAT"}}, "name": "Preprocessor/map/while/ResizeToRange/cond/resize/Shape"}, {"input": ["Preprocessor/map/while/ResizeToRange/cond/resize_1/ExpandDims"], "op": "Shape", "attr": {"out_type": {"type": "DT_INT32"}, "T": {"type": "DT_FLOAT"}}, "name": "Preprocessor/map/while/ResizeToRange/cond/resize_1/Shape"}, {"input": ["SecondStagePostprocessor/Cast"], "op": "Shape", "attr": {"out_type": {"type": "DT_INT32"}, "T": {"type": "DT_FLOAT"}}, "name": "SecondStagePostprocessor/BatchMultiClassNonMaxSuppression/map/TensorArrayUnstack_3/Shape"}, {"input": ["Cast_4"], "op": "Enter", "attr": {"is_constant": {"b": true}, "T": {"type": "DT_FLOAT"}, "frame_name": {"s": "bWFwXzIvd2hpbGUvd2hpbGVfY29udGV4dA=="}, "parallel_iterations": {"i": "16"}}, "name": "map_2/while/mul/Enter"}, {"input": ["FirstStageFeatureExtractor/InceptionV2/InceptionV2/Conv2d_1a_7x7/separable_conv2d/depthwise", "FirstStageFeatureExtractor/InceptionV2/InceptionV2/Conv2d_1a_7x7/separable_conv2d/merged_input"], "op": "Conv2D", "attr": {"padding": {"s": "VkFMSUQ="}, "strides": {"list": {"i": ["1", "1", "1", "1"]}}, "T": {"type": "DT_FLOAT"}, "use_cudnn_on_gpu": {"b": true}, "data_format": {"s": "TkhXQw=="}, "dilations": {"list": {"i": ["1", "1", "1", "1"]}}}, "name": "FirstStageFeatureExtractor/InceptionV2/InceptionV2/Conv2d_1a_7x7/BatchNorm/FusedBatchNorm/Mul"}, {"input": ["stack"], "op": "Cast", "attr": {"Truncate": {"b": false}, "SrcT": {"type": "DT_INT32"}, "DstT": {"type": "DT_FLOAT"}}, "name": "Cast_1"}, {"input": ["Cast_3"], "op": "Enter", "attr": {"parallel_iterations": {"i": "16"}, "T": {"type": "DT_FLOAT"}, "is_constant": {"b": true}, "frame_name": {"s": "bWFwXzIvd2hpbGUvd2hpbGVfY29udGV4dA=="}}, "name": "map_2/while/mul_2/Enter"}, {"input": ["ExpandDims", "Tile/multiples"], "op": "Tile", "attr": {"T": {"type": "DT_INT32"}, "Tmultiples": {"type": "DT_INT32"}}, "name": "Tile"}, {"input": ["Preprocessor/map/while/ResizeToRange/cond/resize/Shape"], "op": "Unpack", "attr": {"T": {"type": "DT_INT32"}, "num": {"i": "4"}, "axis": {"i": "0"}}, "name": "Preprocessor/map/while/ResizeToRange/cond/resize/unstack"}, {"input": ["Preprocessor/map/while/ResizeToRange/cond/resize_1/Shape"], "op": "Unpack", "attr": {"T": {"type": "DT_INT32"}, "num": {"i": "4"}, "axis": {"i": "0"}}, "name": "Preprocessor/map/while/ResizeToRange/cond/resize_1/unstack"}, {"input": ["SecondStagePostprocessor/BatchMultiClassNonMaxSuppression/map/TensorArrayUnstack_3/Shape", "SecondStagePostprocessor/BatchMultiClassNonMaxSuppression/map/TensorArrayUnstack_1/strided_slice/stack", "SecondStagePostprocessor/BatchMultiClassNonMaxSuppression/map/TensorArrayUnstack_1/strided_slice/stack_1", "SecondStagePostprocessor/BatchMultiClassNonMaxSuppression/map/TensorArrayUnstack_1/strided_slice/stack_1"], "op": "StridedSlice", "attr": {"ellipsis_mask": {"i": "0"}, "end_mask": {"i": "0"}, "new_axis_mask": {"i": "0"}, "Index": {"type": "DT_INT32"}, "shrink_axis_mask": {"i": "1"}, "T": {"type": "DT_INT32"}, "begin_mask": {"i": "0"}}, "name": "SecondStagePostprocessor/BatchMultiClassNonMaxSuppression/map/TensorArrayUnstack_3/strided_slice"}, {"input": ["FirstStageFeatureExtractor/InceptionV2/InceptionV2/Conv2d_1a_7x7/BatchNorm/FusedBatchNorm/Mul", "FirstStageFeatureExtractor/InceptionV2/InceptionV2/Conv2d_1a_7x7/BatchNorm/FusedBatchNorm/Offset"], "op": "Add", "attr": {"T": {"type": "DT_FLOAT"}}, "name": "FirstStageFeatureExtractor/InceptionV2/InceptionV2/Conv2d_1a_7x7/BatchNorm/FusedBatchNorm"}, {"input": ["Cast_1"], "op": "Unpack", "attr": {"T": {"type": "DT_FLOAT"}, "num": {"i": "4"}, "axis": {"i": "0"}}, "name": "ClipToWindow/unstack"}, {"input": ["Tile", "SecondStagePostprocessor/strided_slice_1/stack_1", "SecondStagePostprocessor/strided_slice_2/stack_1", "SecondStagePostprocessor/strided_slice_1/stack_2"], "op": "StridedSlice", "attr": {"ellipsis_mask": {"i": "0"}, "end_mask": {"i": "1"}, "new_axis_mask": {"i": "0"}, "Index": {"type": "DT_INT32"}, "shrink_axis_mask": {"i": "2"}, "T": {"type": "DT_INT32"}, "begin_mask": {"i": "1"}}, "name": "strided_slice_12"}, {"input": ["Tile", "SecondStagePostprocessor/strided_slice_1/stack", "SecondStagePostprocessor/strided_slice_1/stack_1", "SecondStagePostprocessor/strided_slice_1/stack_2"], "op": "StridedSlice", "attr": {"ellipsis_mask": {"i": "0"}, "end_mask": {"i": "1"}, "new_axis_mask": {"i": "0"}, "Index": {"type": "DT_INT32"}, "shrink_axis_mask": {"i": "2"}, "T": {"type": "DT_INT32"}, "begin_mask": {"i": "1"}}, "name": "strided_slice_11"}, {"input": ["Tile"], "op": "Shape", "attr": {"out_type": {"type": "DT_INT32"}, "T": {"type": "DT_INT32"}}, "name": "map/TensorArrayUnstack_1/Shape"}, {"input": ["Preprocessor/map/while/ResizeToRange/cond/resize/unstack:2"], "op": "Cast", "attr": {"Truncate": {"b": false}, "SrcT": {"type": "DT_INT32"}, "DstT": {"type": "DT_FLOAT"}}, "name": "Preprocessor/map/while/ResizeToRange/cond/resize/ToFloat_3"}, {"input": ["Preprocessor/map/while/ResizeToRange/cond/resize/unstack:1"], "op": "Cast", "attr": {"Truncate": {"b": false}, "SrcT": {"type": "DT_INT32"}, "DstT": {"type": "DT_FLOAT"}}, "name": "Preprocessor/map/while/ResizeToRange/cond/resize/ToFloat_4"}, {"input": ["Preprocessor/map/while/ResizeToRange/cond/resize_1/unstack:2"], "op": "Cast", "attr": {"Truncate": {"b": false}, "SrcT": {"type": "DT_INT32"}, "DstT": {"type": "DT_FLOAT"}}, "name": "Preprocessor/map/while/ResizeToRange/cond/resize_1/ToFloat_3"}, {"input": ["Preprocessor/map/while/ResizeToRange/cond/resize_1/unstack:1"], "op": "Cast", "attr": {"Truncate": {"b": false}, "SrcT": {"type": "DT_INT32"}, "DstT": {"type": "DT_FLOAT"}}, "name": "Preprocessor/map/while/ResizeToRange/cond/resize_1/ToFloat_4"}, {"input": ["SecondStagePostprocessor/BatchMultiClassNonMaxSuppression/map/TensorArrayStack/range/start", "SecondStagePostprocessor/BatchMultiClassNonMaxSuppression/map/TensorArrayUnstack_3/strided_slice", "SecondStagePostprocessor/BatchMultiClassNonMaxSuppression/map/TensorArrayStack/range/delta"], "op": "Range", "attr": {"Tidx": {"type": "DT_INT32"}}, "name": "SecondStagePostprocessor/BatchMultiClassNonMaxSuppression/map/TensorArrayUnstack_3/range"}, {"input": ["FirstStageFeatureExtractor/InceptionV2/InceptionV2/Conv2d_1a_7x7/BatchNorm/FusedBatchNorm"], "op": "Relu", "attr": {"T": {"type": "DT_FLOAT"}}, "name": "FirstStageFeatureExtractor/InceptionV2/InceptionV2/Conv2d_1a_7x7/Relu"}, {"input": ["strided_slice_11"], "op": "ZerosLike", "attr": {"T": {"type": "DT_INT32"}}, "name": "zeros_like"}, {"input": ["map/TensorArrayUnstack_1/Shape", "SecondStagePostprocessor/BatchMultiClassNonMaxSuppression/map/TensorArrayUnstack_1/strided_slice/stack", "SecondStagePostprocessor/BatchMultiClassNonMaxSuppression/map/TensorArrayUnstack_1/strided_slice/stack_1", "SecondStagePostprocessor/BatchMultiClassNonMaxSuppression/map/TensorArrayUnstack_1/strided_slice/stack_1"], "op": "StridedSlice", "attr": {"ellipsis_mask": {"i": "0"}, "end_mask": {"i": "0"}, "new_axis_mask": {"i": "0"}, "Index": {"type": "DT_INT32"}, "shrink_axis_mask": {"i": "1"}, "T": {"type": "DT_INT32"}, "begin_mask": {"i": "0"}}, "name": "map/TensorArrayUnstack_1/strided_slice"}, {"input": ["Preprocessor/map/while/ResizeToRange/cond/resize/ToFloat_2", "Preprocessor/map/while/ResizeToRange/cond/resize/ToFloat_3"], "op": "RealDiv", "attr": {"T": {"type": "DT_FLOAT"}}, "name": "Preprocessor/map/while/ResizeToRange/cond/resize/truediv_1"}, {"input": ["Preprocessor/map/while/ResizeToRange/cond/resize/ToFloat", "Preprocessor/map/while/ResizeToRange/cond/resize/ToFloat_4"], "op": "RealDiv", "attr": {"T": {"type": "DT_FLOAT"}}, "name": "Preprocessor/map/while/ResizeToRange/cond/resize/truediv"}, {"input": ["Preprocessor/map/while/ResizeToRange/cond/resize_1/ToFloat_2", "Preprocessor/map/while/ResizeToRange/cond/resize_1/ToFloat_3"], "op": "RealDiv", "attr": {"T": {"type": "DT_FLOAT"}}, "name": "Preprocessor/map/while/ResizeToRange/cond/resize_1/truediv_1"}, {"input": ["Preprocessor/map/while/ResizeToRange/cond/resize_1/ToFloat", "Preprocessor/map/while/ResizeToRange/cond/resize_1/ToFloat_4"], "op": "RealDiv", "attr": {"T": {"type": "DT_FLOAT"}}, "name": "Preprocessor/map/while/ResizeToRange/cond/resize_1/truediv"}, {"input": ["FirstStageFeatureExtractor/InceptionV2/InceptionV2/Conv2d_1a_7x7/Relu"], "op": "MaxPool", "attr": {"T": {"type": "DT_FLOAT"}, "padding": {"s": "U0FNRQ=="}, "data_format": {"s": "TkhXQw=="}, "ksize": {"list": {"i": ["1", "3", "3", "1"]}}, "strides": {"list": {"i": ["1", "2", "2", "1"]}}}, "name": "FirstStageFeatureExtractor/InceptionV2/InceptionV2/MaxPool_2a_3x3/MaxPool"}, {"input": ["zeros_like", "zeros_like", "strided_slice_11", "strided_slice_12"], "op": "Pack", "attr": {"T": {"type": "DT_INT32"}, "N": {"i": "4"}, "axis": {"i": "1"}}, "name": "stack_2"}, {"input": ["SecondStagePostprocessor/BatchMultiClassNonMaxSuppression/map/TensorArrayStack/range/start", "map/TensorArrayUnstack_1/strided_slice", "SecondStagePostprocessor/BatchMultiClassNonMaxSuppression/map/TensorArrayStack/range/delta"], "op": "Range", "attr": {"Tidx": {"type": "DT_INT32"}}, "name": "map/TensorArrayUnstack_1/range"}, {"input": ["Preprocessor/map/while/ResizeToRange/cond/resize/truediv", "Preprocessor/map/while/ResizeToRange/cond/resize/truediv_1"], "op": "Minimum", "attr": {"T": {"type": "DT_FLOAT"}}, "name": "Preprocessor/map/while/ResizeToRange/cond/resize/Minimum"}, {"input": ["Preprocessor/map/while/ResizeToRange/cond/resize_1/truediv", "Preprocessor/map/while/ResizeToRange/cond/resize_1/truediv_1"], "op": "Minimum", "attr": {"T": {"type": "DT_FLOAT"}}, "name": "Preprocessor/map/while/ResizeToRange/cond/resize_1/Minimum"}, {"input": ["FirstStageFeatureExtractor/InceptionV2/InceptionV2/MaxPool_2a_3x3/MaxPool", "FirstStageFeatureExtractor/InceptionV2/InceptionV2/Conv2d_2b_1x1/Conv2D/merged_input"], "op": "Conv2D", "attr": {"padding": {"s": "U0FNRQ=="}, "strides": {"list": {"i": ["1", "1", "1", "1"]}}, "T": {"type": "DT_FLOAT"}, "use_cudnn_on_gpu": {"b": true}, "data_format": {"s": "TkhXQw=="}, "dilations": {"list": {"i": ["1", "1", "1", "1"]}}}, "name": "FirstStageFeatureExtractor/InceptionV2/InceptionV2/Conv2d_2b_1x1/BatchNorm/FusedBatchNorm/Mul"}, {"input": ["stack_2"], "op": "Cast", "attr": {"Truncate": {"b": false}, "SrcT": {"type": "DT_INT32"}, "DstT": {"type": "DT_FLOAT"}}, "name": "Cast_2"}, {"input": ["Preprocessor/map/while/ResizeToRange/cond/resize/Minimum", "Preprocessor/map/while/ResizeToRange/cond/resize/ToFloat_3"], "op": "Mul", "attr": {"T": {"type": "DT_FLOAT"}}, "name": "Preprocessor/map/while/ResizeToRange/cond/resize/mul_1"}, {"input": ["Preprocessor/map/while/ResizeToRange/cond/resize/Minimum", "Preprocessor/map/while/ResizeToRange/cond/resize/ToFloat_4"], "op": "Mul", "attr": {"T": {"type": "DT_FLOAT"}}, "name": "Preprocessor/map/while/ResizeToRange/cond/resize/mul"}, {"input": ["Preprocessor/map/while/ResizeToRange/cond/resize_1/Minimum", "Preprocessor/map/while/ResizeToRange/cond/resize_1/ToFloat_3"], "op": "Mul", "attr": {"T": {"type": "DT_FLOAT"}}, "name": "Preprocessor/map/while/ResizeToRange/cond/resize_1/mul_1"}, {"input": ["Preprocessor/map/while/ResizeToRange/cond/resize_1/Minimum", "Preprocessor/map/while/ResizeToRange/cond/resize_1/ToFloat_4"], "op": "Mul", "attr": {"T": {"type": "DT_FLOAT"}}, "name": "Preprocessor/map/while/ResizeToRange/cond/resize_1/mul"}, {"input": ["FirstStageFeatureExtractor/InceptionV2/InceptionV2/Conv2d_2b_1x1/BatchNorm/FusedBatchNorm/Mul", "FirstStageFeatureExtractor/InceptionV2/InceptionV2/Conv2d_2b_1x1/BatchNorm/FusedBatchNorm/Offset"], "op": "Add", "attr": {"T": {"type": "DT_FLOAT"}}, "name": "FirstStageFeatureExtractor/InceptionV2/InceptionV2/Conv2d_2b_1x1/BatchNorm/FusedBatchNorm"}, {"input": ["Cast_2"], "op": "Shape", "attr": {"out_type": {"type": "DT_INT32"}, "T": {"type": "DT_FLOAT"}}, "name": "BatchMultiClassNonMaxSuppression/map/TensorArrayUnstack_3/Shape"}, {"input": ["Preprocessor/map/while/ResizeToRange/cond/resize/mul_1"], "op": "Round", "attr": {"T": {"type": "DT_FLOAT"}}, "name": "Preprocessor/map/while/ResizeToRange/cond/resize/Round_1"}, {"input": ["Preprocessor/map/while/ResizeToRange/cond/resize/mul"], "op": "Round", "attr": {"T": {"type": "DT_FLOAT"}}, "name": "Preprocessor/map/while/ResizeToRange/cond/resize/Round"}, {"input": ["Preprocessor/map/while/ResizeToRange/cond/resize_1/mul_1"], "op": "Round", "attr": {"T": {"type": "DT_FLOAT"}}, "name": "Preprocessor/map/while/ResizeToRange/cond/resize_1/Round_1"}, {"input": ["Preprocessor/map/while/ResizeToRange/cond/resize_1/mul"], "op": "Round", "attr": {"T": {"type": "DT_FLOAT"}}, "name": "Preprocessor/map/while/ResizeToRange/cond/resize_1/Round"}, {"input": ["FirstStageFeatureExtractor/InceptionV2/InceptionV2/Conv2d_2b_1x1/BatchNorm/FusedBatchNorm"], "op": "Relu", "attr": {"T": {"type": "DT_FLOAT"}}, "name": "FirstStageFeatureExtractor/InceptionV2/InceptionV2/Conv2d_2b_1x1/Relu"}, {"input": ["BatchMultiClassNonMaxSuppression/map/TensorArrayUnstack_3/Shape", "SecondStagePostprocessor/BatchMultiClassNonMaxSuppression/map/TensorArrayUnstack_1/strided_slice/stack", "SecondStagePostprocessor/BatchMultiClassNonMaxSuppression/map/TensorArrayUnstack_1/strided_slice/stack_1", "SecondStagePostprocessor/BatchMultiClassNonMaxSuppression/map/TensorArrayUnstack_1/strided_slice/stack_1"], "op": "StridedSlice", "attr": {"ellipsis_mask": {"i": "0"}, "end_mask": {"i": "0"}, "new_axis_mask": {"i": "0"}, "Index": {"type": "DT_INT32"}, "shrink_axis_mask": {"i": "1"}, "T": {"type": "DT_INT32"}, "begin_mask": {"i": "0"}}, "name": "BatchMultiClassNonMaxSuppression/map/TensorArrayUnstack_3/strided_slice"}, {"input": ["Preprocessor/map/while/ResizeToRange/cond/resize/Round_1"], "op": "Cast", "attr": {"Truncate": {"b": false}, "SrcT": {"type": "DT_FLOAT"}, "DstT": {"type": "DT_INT32"}}, "name": "Preprocessor/map/while/ResizeToRange/cond/resize/ToInt32_1"}, {"input": ["Preprocessor/map/while/ResizeToRange/cond/resize/Round"], "op": "Cast", "attr": {"Truncate": {"b": false}, "SrcT": {"type": "DT_FLOAT"}, "DstT": {"type": "DT_INT32"}}, "name": "Preprocessor/map/while/ResizeToRange/cond/resize/ToInt32"}, {"input": ["Preprocessor/map/while/ResizeToRange/cond/resize_1/Round_1"], "op": "Cast", "attr": {"Truncate": {"b": false}, "SrcT": {"type": "DT_FLOAT"}, "DstT": {"type": "DT_INT32"}}, "name": "Preprocessor/map/while/ResizeToRange/cond/resize_1/ToInt32_1"}, {"input": ["Preprocessor/map/while/ResizeToRange/cond/resize_1/Round"], "op": "Cast", "attr": {"Truncate": {"b": false}, "SrcT": {"type": "DT_FLOAT"}, "DstT": {"type": "DT_INT32"}}, "name": "Preprocessor/map/while/ResizeToRange/cond/resize_1/ToInt32"}, {"input": ["FirstStageFeatureExtractor/InceptionV2/InceptionV2/Conv2d_2b_1x1/Relu", "FirstStageFeatureExtractor/InceptionV2/InceptionV2/Conv2d_2c_3x3/Conv2D/merged_input"], "op": "Conv2D", "attr": {"padding": {"s": "U0FNRQ=="}, "strides": {"list": {"i": ["1", "1", "1", "1"]}}, "T": {"type": "DT_FLOAT"}, "use_cudnn_on_gpu": {"b": true}, "data_format": {"s": "TkhXQw=="}, "dilations": {"list": {"i": ["1", "1", "1", "1"]}}}, "name": "FirstStageFeatureExtractor/InceptionV2/InceptionV2/Conv2d_2c_3x3/BatchNorm/FusedBatchNorm/Mul"}, {"input": ["SecondStagePostprocessor/BatchMultiClassNonMaxSuppression/map/TensorArrayStack/range/start", "BatchMultiClassNonMaxSuppression/map/TensorArrayUnstack_3/strided_slice", "SecondStagePostprocessor/BatchMultiClassNonMaxSuppression/map/TensorArrayStack/range/delta"], "op": "Range", "attr": {"Tidx": {"type": "DT_INT32"}}, "name": "BatchMultiClassNonMaxSuppression/map/TensorArrayUnstack_3/range"}, {"input": ["Preprocessor/map/while/ResizeToRange/cond/resize/ToInt32", "Preprocessor/map/while/ResizeToRange/cond/resize/ToInt32_1"], "op": "Pack", "attr": {"T": {"type": "DT_INT32"}, "N": {"i": "2"}, "axis": {"i": "0"}}, "name": "Preprocessor/map/while/ResizeToRange/cond/resize/size"}, {"input": ["Preprocessor/map/while/ResizeToRange/cond/resize_1/ToInt32", "Preprocessor/map/while/ResizeToRange/cond/resize_1/ToInt32_1"], "op": "Pack", "attr": {"T": {"type": "DT_INT32"}, "N": {"i": "2"}, "axis": {"i": "0"}}, "name": "Preprocessor/map/while/ResizeToRange/cond/resize_1/size"}, {"input": ["FirstStageFeatureExtractor/InceptionV2/InceptionV2/Conv2d_2c_3x3/BatchNorm/FusedBatchNorm/Mul", "FirstStageFeatureExtractor/InceptionV2/InceptionV2/Conv2d_2c_3x3/BatchNorm/FusedBatchNorm/Offset"], "op": "Add", "attr": {"T": {"type": "DT_FLOAT"}}, "name": "FirstStageFeatureExtractor/InceptionV2/InceptionV2/Conv2d_2c_3x3/BatchNorm/FusedBatchNorm"}, {"input": ["Preprocessor/map/while/ResizeToRange/cond/resize/ExpandDims", "Preprocessor/map/while/ResizeToRange/cond/resize/size"], "op": "ResizeBilinear", "attr": {"T": {"type": "DT_FLOAT"}, "align_corners": {"b": false}}, "name": "Preprocessor/map/while/ResizeToRange/cond/resize/ResizeBilinear"}, {"input": ["Preprocessor/map/while/ResizeToRange/cond/resize_1/ExpandDims", "Preprocessor/map/while/ResizeToRange/cond/resize_1/size"], "op": "ResizeBilinear", "attr": {"T": {"type": "DT_FLOAT"}, "align_corners": {"b": false}}, "name": "Preprocessor/map/while/ResizeToRange/cond/resize_1/ResizeBilinear"}, {"input": ["FirstStageFeatureExtractor/InceptionV2/InceptionV2/Conv2d_2c_3x3/BatchNorm/FusedBatchNorm"], "op": "Relu", "attr": {"T": {"type": "DT_FLOAT"}}, "name": "FirstStageFeatureExtractor/InceptionV2/InceptionV2/Conv2d_2c_3x3/Relu"}, {"input": ["Preprocessor/map/while/ResizeToRange/cond/resize/ResizeBilinear"], "op": "Squeeze", "attr": {"T": {"type": "DT_FLOAT"}, "squeeze_dims": {"list": {"i": ["0"]}}}, "name": "Preprocessor/map/while/ResizeToRange/cond/resize/Squeeze"}, {"input": ["Preprocessor/map/while/ResizeToRange/cond/resize_1/ResizeBilinear"], "op": "Squeeze", "attr": {"T": {"type": "DT_FLOAT"}, "squeeze_dims": {"list": {"i": ["0"]}}}, "name": "Preprocessor/map/while/ResizeToRange/cond/resize_1/Squeeze"}, {"input": ["FirstStageFeatureExtractor/InceptionV2/InceptionV2/Conv2d_2c_3x3/Relu"], "op": "MaxPool", "attr": {"T": {"type": "DT_FLOAT"}, "padding": {"s": "U0FNRQ=="}, "data_format": {"s": "TkhXQw=="}, "ksize": {"list": {"i": ["1", "3", "3", "1"]}}, "strides": {"list": {"i": ["1", "2", "2", "1"]}}}, "name": "FirstStageFeatureExtractor/InceptionV2/InceptionV2/MaxPool_3a_3x3/MaxPool"}, {"input": ["Preprocessor/map/while/ResizeToRange/cond/resize_1/Squeeze", "Preprocessor/map/while/ResizeToRange/cond/resize/Squeeze"], "op": "Merge", "attr": {"T": {"type": "DT_FLOAT"}, "N": {"i": "2"}}, "name": "Preprocessor/map/while/ResizeToRange/cond/Merge"}, {"input": ["FirstStageFeatureExtractor/InceptionV2/InceptionV2/MaxPool_3a_3x3/MaxPool"], "op": "AvgPool", "attr": {"T": {"type": "DT_FLOAT"}, "padding": {"s": "U0FNRQ=="}, "data_format": {"s": "TkhXQw=="}, "ksize": {"list": {"i": ["1", "3", "3", "1"]}}, "strides": {"list": {"i": ["1", "1", "1", "1"]}}}, "name": "FirstStageFeatureExtractor/InceptionV2/InceptionV2/Mixed_3b/Branch_3/AvgPool_0a_3x3/AvgPool"}, {"input": ["FirstStageFeatureExtractor/InceptionV2/InceptionV2/MaxPool_3a_3x3/MaxPool", "FirstStageFeatureExtractor/InceptionV2/InceptionV2/Mixed_3b/Branch_2/Conv2d_0a_1x1/Conv2D/merged_input"], "op": "Conv2D", "attr": {"padding": {"s": "U0FNRQ=="}, "strides": {"list": {"i": ["1", "1", "1", "1"]}}, "T": {"type": "DT_FLOAT"}, "use_cudnn_on_gpu": {"b": true}, "data_format": {"s": "TkhXQw=="}, "dilations": {"list": {"i": ["1", "1", "1", "1"]}}}, "name": "FirstStageFeatureExtractor/InceptionV2/InceptionV2/Mixed_3b/Branch_2/Conv2d_0a_1x1/BatchNorm/FusedBatchNorm/Mul"}, {"input": ["FirstStageFeatureExtractor/InceptionV2/InceptionV2/MaxPool_3a_3x3/MaxPool", "FirstStageFeatureExtractor/InceptionV2/InceptionV2/Mixed_3b/Branch_1/Conv2d_0a_1x1/Conv2D/merged_input"], "op": "Conv2D", "attr": {"padding": {"s": "U0FNRQ=="}, "strides": {"list": {"i": ["1", "1", "1", "1"]}}, "T": {"type": "DT_FLOAT"}, "use_cudnn_on_gpu": {"b": true}, "data_format": {"s": "TkhXQw=="}, "dilations": {"list": {"i": ["1", "1", "1", "1"]}}}, "name": "FirstStageFeatureExtractor/InceptionV2/InceptionV2/Mixed_3b/Branch_1/Conv2d_0a_1x1/BatchNorm/FusedBatchNorm/Mul"}, {"input": ["FirstStageFeatureExtractor/InceptionV2/InceptionV2/MaxPool_3a_3x3/MaxPool", "FirstStageFeatureExtractor/InceptionV2/InceptionV2/Mixed_3b/Branch_0/Conv2d_0a_1x1/Conv2D/merged_input"], "op": "Conv2D", "attr": {"padding": {"s": "U0FNRQ=="}, "strides": {"list": {"i": ["1", "1", "1", "1"]}}, "T": {"type": "DT_FLOAT"}, "use_cudnn_on_gpu": {"b": true}, "data_format": {"s": "TkhXQw=="}, "dilations": {"list": {"i": ["1", "1", "1", "1"]}}}, "name": "FirstStageFeatureExtractor/InceptionV2/InceptionV2/Mixed_3b/Branch_0/Conv2d_0a_1x1/BatchNorm/FusedBatchNorm/Mul"}, {"input": ["Preprocessor/map/while/TensorArrayWrite/TensorArrayWriteV3/Enter", "Preprocessor/map/while/Switch_1:1", "Preprocessor/map/while/ResizeToRange/cond/Merge", "Preprocessor/map/while/Switch_2:1"], "op": "TensorArrayWriteV3", "attr": {"T": {"type": "DT_FLOAT"}}, "name": "Preprocessor/map/while/TensorArrayWrite/TensorArrayWriteV3"}, {"input": ["Preprocessor/map/while/ResizeToRange/cond/Merge"], "op": "Shape", "attr": {"out_type": {"type": "DT_INT32"}, "T": {"type": "DT_FLOAT"}}, "name": "Preprocessor/map/while/ResizeToRange/Shape_2"}, {"input": ["FirstStageFeatureExtractor/InceptionV2/InceptionV2/Mixed_3b/Branch_3/AvgPool_0a_3x3/AvgPool", "FirstStageFeatureExtractor/InceptionV2/InceptionV2/Mixed_3b/Branch_3/Conv2d_0b_1x1/Conv2D/merged_input"], "op": "Conv2D", "attr": {"padding": {"s": "U0FNRQ=="}, "strides": {"list": {"i": ["1", "1", "1", "1"]}}, "T": {"type": "DT_FLOAT"}, "use_cudnn_on_gpu": {"b": true}, "data_format": {"s": "TkhXQw=="}, "dilations": {"list": {"i": ["1", "1", "1", "1"]}}}, "name": "FirstStageFeatureExtractor/InceptionV2/InceptionV2/Mixed_3b/Branch_3/Conv2d_0b_1x1/BatchNorm/FusedBatchNorm/Mul"}, {"input": ["FirstStageFeatureExtractor/InceptionV2/InceptionV2/Mixed_3b/Branch_2/Conv2d_0a_1x1/BatchNorm/FusedBatchNorm/Mul", "FirstStageFeatureExtractor/InceptionV2/InceptionV2/Mixed_3b/Branch_2/Conv2d_0a_1x1/BatchNorm/FusedBatchNorm/Offset"], "op": "Add", "attr": {"T": {"type": "DT_FLOAT"}}, "name": "FirstStageFeatureExtractor/InceptionV2/InceptionV2/Mixed_3b/Branch_2/Conv2d_0a_1x1/BatchNorm/FusedBatchNorm"}, {"input": ["FirstStageFeatureExtractor/InceptionV2/InceptionV2/Mixed_3b/Branch_1/Conv2d_0a_1x1/BatchNorm/FusedBatchNorm/Mul", "FirstStageFeatureExtractor/InceptionV2/InceptionV2/Mixed_3b/Branch_1/Conv2d_0a_1x1/BatchNorm/FusedBatchNorm/Offset"], "op": "Add", "attr": {"T": {"type": "DT_FLOAT"}}, "name": "FirstStageFeatureExtractor/InceptionV2/InceptionV2/Mixed_3b/Branch_1/Conv2d_0a_1x1/BatchNorm/FusedBatchNorm"}, {"input": ["FirstStageFeatureExtractor/InceptionV2/InceptionV2/Mixed_3b/Branch_0/Conv2d_0a_1x1/BatchNorm/FusedBatchNorm/Mul", "FirstStageFeatureExtractor/InceptionV2/InceptionV2/Mixed_3b/Branch_0/Conv2d_0a_1x1/BatchNorm/FusedBatchNorm/Offset"], "op": "Add", "attr": {"T": {"type": "DT_FLOAT"}}, "name": "FirstStageFeatureExtractor/InceptionV2/InceptionV2/Mixed_3b/Branch_0/Conv2d_0a_1x1/BatchNorm/FusedBatchNorm"}, {"input": ["Preprocessor/map/while/TensorArrayWrite/TensorArrayWriteV3"], "op": "NextIteration", "attr": {"T": {"type": "DT_FLOAT"}}, "name": "Preprocessor/map/while/NextIteration_2"}, {"input": ["Preprocessor/map/while/TensorArrayWrite_1/TensorArrayWriteV3/Enter", "Preprocessor/map/while/Switch_1:1", "Preprocessor/map/while/ResizeToRange/Shape_2", "Preprocessor/map/while/Switch_3:1"], "op": "TensorArrayWriteV3", "attr": {"T": {"type": "DT_INT32"}}, "name": "Preprocessor/map/while/TensorArrayWrite_1/TensorArrayWriteV3"}, {"input": ["FirstStageFeatureExtractor/InceptionV2/InceptionV2/Mixed_3b/Branch_3/Conv2d_0b_1x1/BatchNorm/FusedBatchNorm/Mul", "FirstStageFeatureExtractor/InceptionV2/InceptionV2/Mixed_3b/Branch_3/Conv2d_0b_1x1/BatchNorm/FusedBatchNorm/Offset"], "op": "Add", "attr": {"T": {"type": "DT_FLOAT"}}, "name": "FirstStageFeatureExtractor/InceptionV2/InceptionV2/Mixed_3b/Branch_3/Conv2d_0b_1x1/BatchNorm/FusedBatchNorm"}, {"input": ["FirstStageFeatureExtractor/InceptionV2/InceptionV2/Mixed_3b/Branch_2/Conv2d_0a_1x1/BatchNorm/FusedBatchNorm"], "op": "Relu", "attr": {"T": {"type": "DT_FLOAT"}}, "name": "FirstStageFeatureExtractor/InceptionV2/InceptionV2/Mixed_3b/Branch_2/Conv2d_0a_1x1/Relu"}, {"input": ["FirstStageFeatureExtractor/InceptionV2/InceptionV2/Mixed_3b/Branch_1/Conv2d_0a_1x1/BatchNorm/FusedBatchNorm"], "op": "Relu", "attr": {"T": {"type": "DT_FLOAT"}}, "name": "FirstStageFeatureExtractor/InceptionV2/InceptionV2/Mixed_3b/Branch_1/Conv2d_0a_1x1/Relu"}, {"input": ["Preprocessor/map/while/TensorArrayWrite_1/TensorArrayWriteV3"], "op": "NextIteration", "attr": {"T": {"type": "DT_FLOAT"}}, "name": "Preprocessor/map/while/NextIteration_3"}, {"input": ["FirstStageFeatureExtractor/InceptionV2/InceptionV2/Mixed_3b/Branch_2/Conv2d_0a_1x1/Relu", "FirstStageFeatureExtractor/InceptionV2/InceptionV2/Mixed_3b/Branch_2/Conv2d_0b_3x3/Conv2D/merged_input"], "op": "Conv2D", "attr": {"padding": {"s": "U0FNRQ=="}, "strides": {"list": {"i": ["1", "1", "1", "1"]}}, "T": {"type": "DT_FLOAT"}, "use_cudnn_on_gpu": {"b": true}, "data_format": {"s": "TkhXQw=="}, "dilations": {"list": {"i": ["1", "1", "1", "1"]}}}, "name": "FirstStageFeatureExtractor/InceptionV2/InceptionV2/Mixed_3b/Branch_2/Conv2d_0b_3x3/BatchNorm/FusedBatchNorm/Mul"}, {"input": ["FirstStageFeatureExtractor/InceptionV2/InceptionV2/Mixed_3b/Branch_1/Conv2d_0a_1x1/Relu", "FirstStageFeatureExtractor/InceptionV2/InceptionV2/Mixed_3b/Branch_1/Conv2d_0b_3x3/Conv2D/merged_input"], "op": "Conv2D", "attr": {"padding": {"s": "U0FNRQ=="}, "strides": {"list": {"i": ["1", "1", "1", "1"]}}, "T": {"type": "DT_FLOAT"}, "use_cudnn_on_gpu": {"b": true}, "data_format": {"s": "TkhXQw=="}, "dilations": {"list": {"i": ["1", "1", "1", "1"]}}}, "name": "FirstStageFeatureExtractor/InceptionV2/InceptionV2/Mixed_3b/Branch_1/Conv2d_0b_3x3/BatchNorm/FusedBatchNorm/Mul"}, {"input": ["FirstStageFeatureExtractor/InceptionV2/InceptionV2/Mixed_3b/Branch_2/Conv2d_0b_3x3/BatchNorm/FusedBatchNorm/Mul", "FirstStageFeatureExtractor/InceptionV2/InceptionV2/Mixed_3b/Branch_2/Conv2d_0b_3x3/BatchNorm/FusedBatchNorm/Offset"], "op": "Add", "attr": {"T": {"type": "DT_FLOAT"}}, "name": "FirstStageFeatureExtractor/InceptionV2/InceptionV2/Mixed_3b/Branch_2/Conv2d_0b_3x3/BatchNorm/FusedBatchNorm"}, {"input": ["FirstStageFeatureExtractor/InceptionV2/InceptionV2/Mixed_3b/Branch_1/Conv2d_0b_3x3/BatchNorm/FusedBatchNorm/Mul", "FirstStageFeatureExtractor/InceptionV2/InceptionV2/Mixed_3b/Branch_1/Conv2d_0b_3x3/BatchNorm/FusedBatchNorm/Offset"], "op": "Add", "attr": {"T": {"type": "DT_FLOAT"}}, "name": "FirstStageFeatureExtractor/InceptionV2/InceptionV2/Mixed_3b/Branch_1/Conv2d_0b_3x3/BatchNorm/FusedBatchNorm"}, {"input": ["FirstStageFeatureExtractor/InceptionV2/InceptionV2/Mixed_3b/Branch_2/Conv2d_0b_3x3/BatchNorm/FusedBatchNorm"], "op": "Relu", "attr": {"T": {"type": "DT_FLOAT"}}, "name": "FirstStageFeatureExtractor/InceptionV2/InceptionV2/Mixed_3b/Branch_2/Conv2d_0b_3x3/Relu"}, {"input": ["FirstStageFeatureExtractor/InceptionV2/InceptionV2/Mixed_3b/Branch_2/Conv2d_0b_3x3/Relu", "FirstStageFeatureExtractor/InceptionV2/InceptionV2/Mixed_3b/Branch_2/Conv2d_0c_3x3/Conv2D/merged_input"], "op": "Conv2D", "attr": {"padding": {"s": "U0FNRQ=="}, "strides": {"list": {"i": ["1", "1", "1", "1"]}}, "T": {"type": "DT_FLOAT"}, "use_cudnn_on_gpu": {"b": true}, "data_format": {"s": "TkhXQw=="}, "dilations": {"list": {"i": ["1", "1", "1", "1"]}}}, "name": "FirstStageFeatureExtractor/InceptionV2/InceptionV2/Mixed_3b/Branch_2/Conv2d_0c_3x3/BatchNorm/FusedBatchNorm/Mul"}, {"input": ["FirstStageFeatureExtractor/InceptionV2/InceptionV2/Mixed_3b/Branch_2/Conv2d_0c_3x3/BatchNorm/FusedBatchNorm/Mul", "FirstStageFeatureExtractor/InceptionV2/InceptionV2/Mixed_3b/Branch_2/Conv2d_0c_3x3/BatchNorm/FusedBatchNorm/Offset"], "op": "Add", "attr": {"T": {"type": "DT_FLOAT"}}, "name": "FirstStageFeatureExtractor/InceptionV2/InceptionV2/Mixed_3b/Branch_2/Conv2d_0c_3x3/BatchNorm/FusedBatchNorm"}, {"input": ["FirstStageFeatureExtractor/InceptionV2/InceptionV2/Mixed_3b/Branch_0/Conv2d_0a_1x1/BatchNorm/FusedBatchNorm", "FirstStageFeatureExtractor/InceptionV2/InceptionV2/Mixed_3b/Branch_1/Conv2d_0b_3x3/BatchNorm/FusedBatchNorm", "FirstStageFeatureExtractor/InceptionV2/InceptionV2/Mixed_3b/Branch_2/Conv2d_0c_3x3/BatchNorm/FusedBatchNorm", "FirstStageFeatureExtractor/InceptionV2/InceptionV2/Mixed_3b/Branch_3/Conv2d_0b_1x1/BatchNorm/FusedBatchNorm", "FirstStageFeatureExtractor/InceptionV2/InceptionV2/Mixed_3b/concat/axis"], "op": "ConcatV2", "attr": {"T": {"type": "DT_FLOAT"}, "N": {"i": "4"}, "Tidx": {"type": "DT_INT32"}}, "name": "FirstStageFeatureExtractor/InceptionV2/InceptionV2/Mixed_3b/concat"}, {"input": ["FirstStageFeatureExtractor/InceptionV2/InceptionV2/Mixed_3b/concat"], "op": "Relu", "attr": {"T": {"type": "DT_FLOAT"}}, "name": "FirstStageFeatureExtractor/InceptionV2/InceptionV2/Mixed_3b/Branch_0/Conv2d_0a_1x1/Relu"}, {"input": ["FirstStageFeatureExtractor/InceptionV2/InceptionV2/Mixed_3b/Branch_0/Conv2d_0a_1x1/Relu"], "op": "AvgPool", "attr": {"T": {"type": "DT_FLOAT"}, "padding": {"s": "U0FNRQ=="}, "data_format": {"s": "TkhXQw=="}, "ksize": {"list": {"i": ["1", "3", "3", "1"]}}, "strides": {"list": {"i": ["1", "1", "1", "1"]}}}, "name": "FirstStageFeatureExtractor/InceptionV2/InceptionV2/Mixed_3c/Branch_3/AvgPool_0a_3x3/AvgPool"}, {"input": ["FirstStageFeatureExtractor/InceptionV2/InceptionV2/Mixed_3b/Branch_0/Conv2d_0a_1x1/Relu", "FirstStageFeatureExtractor/InceptionV2/InceptionV2/Mixed_3c/Branch_2/Conv2d_0a_1x1/Conv2D/merged_input"], "op": "Conv2D", "attr": {"padding": {"s": "U0FNRQ=="}, "strides": {"list": {"i": ["1", "1", "1", "1"]}}, "T": {"type": "DT_FLOAT"}, "use_cudnn_on_gpu": {"b": true}, "data_format": {"s": "TkhXQw=="}, "dilations": {"list": {"i": ["1", "1", "1", "1"]}}}, "name": "FirstStageFeatureExtractor/InceptionV2/InceptionV2/Mixed_3c/Branch_2/Conv2d_0a_1x1/BatchNorm/FusedBatchNorm/Mul"}, {"input": ["FirstStageFeatureExtractor/InceptionV2/InceptionV2/Mixed_3b/Branch_0/Conv2d_0a_1x1/Relu", "FirstStageFeatureExtractor/InceptionV2/InceptionV2/Mixed_3c/Branch_1/Conv2d_0a_1x1/Conv2D/merged_input"], "op": "Conv2D", "attr": {"padding": {"s": "U0FNRQ=="}, "strides": {"list": {"i": ["1", "1", "1", "1"]}}, "T": {"type": "DT_FLOAT"}, "use_cudnn_on_gpu": {"b": true}, "data_format": {"s": "TkhXQw=="}, "dilations": {"list": {"i": ["1", "1", "1", "1"]}}}, "name": "FirstStageFeatureExtractor/InceptionV2/InceptionV2/Mixed_3c/Branch_1/Conv2d_0a_1x1/BatchNorm/FusedBatchNorm/Mul"}, {"input": ["FirstStageFeatureExtractor/InceptionV2/InceptionV2/Mixed_3b/Branch_0/Conv2d_0a_1x1/Relu", "FirstStageFeatureExtractor/InceptionV2/InceptionV2/Mixed_3c/Branch_0/Conv2d_0a_1x1/Conv2D/merged_input"], "op": "Conv2D", "attr": {"padding": {"s": "U0FNRQ=="}, "strides": {"list": {"i": ["1", "1", "1", "1"]}}, "T": {"type": "DT_FLOAT"}, "use_cudnn_on_gpu": {"b": true}, "data_format": {"s": "TkhXQw=="}, "dilations": {"list": {"i": ["1", "1", "1", "1"]}}}, "name": "FirstStageFeatureExtractor/InceptionV2/InceptionV2/Mixed_3c/Branch_0/Conv2d_0a_1x1/BatchNorm/FusedBatchNorm/Mul"}, {"input": ["FirstStageFeatureExtractor/InceptionV2/InceptionV2/Mixed_3c/Branch_3/AvgPool_0a_3x3/AvgPool", "FirstStageFeatureExtractor/InceptionV2/InceptionV2/Mixed_3c/Branch_3/Conv2d_0b_1x1/Conv2D/merged_input"], "op": "Conv2D", "attr": {"padding": {"s": "U0FNRQ=="}, "strides": {"list": {"i": ["1", "1", "1", "1"]}}, "T": {"type": "DT_FLOAT"}, "use_cudnn_on_gpu": {"b": true}, "data_format": {"s": "TkhXQw=="}, "dilations": {"list": {"i": ["1", "1", "1", "1"]}}}, "name": "FirstStageFeatureExtractor/InceptionV2/InceptionV2/Mixed_3c/Branch_3/Conv2d_0b_1x1/BatchNorm/FusedBatchNorm/Mul"}, {"input": ["FirstStageFeatureExtractor/InceptionV2/InceptionV2/Mixed_3c/Branch_2/Conv2d_0a_1x1/BatchNorm/FusedBatchNorm/Mul", "FirstStageFeatureExtractor/InceptionV2/InceptionV2/Mixed_3c/Branch_2/Conv2d_0a_1x1/BatchNorm/FusedBatchNorm/Offset"], "op": "Add", "attr": {"T": {"type": "DT_FLOAT"}}, "name": "FirstStageFeatureExtractor/InceptionV2/InceptionV2/Mixed_3c/Branch_2/Conv2d_0a_1x1/BatchNorm/FusedBatchNorm"}, {"input": ["FirstStageFeatureExtractor/InceptionV2/InceptionV2/Mixed_3c/Branch_1/Conv2d_0a_1x1/BatchNorm/FusedBatchNorm/Mul", "FirstStageFeatureExtractor/InceptionV2/InceptionV2/Mixed_3c/Branch_1/Conv2d_0a_1x1/BatchNorm/FusedBatchNorm/Offset"], "op": "Add", "attr": {"T": {"type": "DT_FLOAT"}}, "name": "FirstStageFeatureExtractor/InceptionV2/InceptionV2/Mixed_3c/Branch_1/Conv2d_0a_1x1/BatchNorm/FusedBatchNorm"}, {"input": ["FirstStageFeatureExtractor/InceptionV2/InceptionV2/Mixed_3c/Branch_0/Conv2d_0a_1x1/BatchNorm/FusedBatchNorm/Mul", "FirstStageFeatureExtractor/InceptionV2/InceptionV2/Mixed_3c/Branch_0/Conv2d_0a_1x1/BatchNorm/FusedBatchNorm/Offset"], "op": "Add", "attr": {"T": {"type": "DT_FLOAT"}}, "name": "FirstStageFeatureExtractor/InceptionV2/InceptionV2/Mixed_3c/Branch_0/Conv2d_0a_1x1/BatchNorm/FusedBatchNorm"}, {"input": ["FirstStageFeatureExtractor/InceptionV2/InceptionV2/Mixed_3c/Branch_3/Conv2d_0b_1x1/BatchNorm/FusedBatchNorm/Mul", "FirstStageFeatureExtractor/InceptionV2/InceptionV2/Mixed_3c/Branch_3/Conv2d_0b_1x1/BatchNorm/FusedBatchNorm/Offset"], "op": "Add", "attr": {"T": {"type": "DT_FLOAT"}}, "name": "FirstStageFeatureExtractor/InceptionV2/InceptionV2/Mixed_3c/Branch_3/Conv2d_0b_1x1/BatchNorm/FusedBatchNorm"}, {"input": ["FirstStageFeatureExtractor/InceptionV2/InceptionV2/Mixed_3c/Branch_2/Conv2d_0a_1x1/BatchNorm/FusedBatchNorm"], "op": "Relu", "attr": {"T": {"type": "DT_FLOAT"}}, "name": "FirstStageFeatureExtractor/InceptionV2/InceptionV2/Mixed_3c/Branch_2/Conv2d_0a_1x1/Relu"}, {"input": ["FirstStageFeatureExtractor/InceptionV2/InceptionV2/Mixed_3c/Branch_1/Conv2d_0a_1x1/BatchNorm/FusedBatchNorm"], "op": "Relu", "attr": {"T": {"type": "DT_FLOAT"}}, "name": "FirstStageFeatureExtractor/InceptionV2/InceptionV2/Mixed_3c/Branch_1/Conv2d_0a_1x1/Relu"}, {"input": ["FirstStageFeatureExtractor/InceptionV2/InceptionV2/Mixed_3c/Branch_2/Conv2d_0a_1x1/Relu", "FirstStageFeatureExtractor/InceptionV2/InceptionV2/Mixed_3c/Branch_2/Conv2d_0b_3x3/Conv2D/merged_input"], "op": "Conv2D", "attr": {"padding": {"s": "U0FNRQ=="}, "strides": {"list": {"i": ["1", "1", "1", "1"]}}, "T": {"type": "DT_FLOAT"}, "use_cudnn_on_gpu": {"b": true}, "data_format": {"s": "TkhXQw=="}, "dilations": {"list": {"i": ["1", "1", "1", "1"]}}}, "name": "FirstStageFeatureExtractor/InceptionV2/InceptionV2/Mixed_3c/Branch_2/Conv2d_0b_3x3/BatchNorm/FusedBatchNorm/Mul"}, {"input": ["FirstStageFeatureExtractor/InceptionV2/InceptionV2/Mixed_3c/Branch_1/Conv2d_0a_1x1/Relu", "FirstStageFeatureExtractor/InceptionV2/InceptionV2/Mixed_3c/Branch_1/Conv2d_0b_3x3/Conv2D/merged_input"], "op": "Conv2D", "attr": {"padding": {"s": "U0FNRQ=="}, "strides": {"list": {"i": ["1", "1", "1", "1"]}}, "T": {"type": "DT_FLOAT"}, "use_cudnn_on_gpu": {"b": true}, "data_format": {"s": "TkhXQw=="}, "dilations": {"list": {"i": ["1", "1", "1", "1"]}}}, "name": "FirstStageFeatureExtractor/InceptionV2/InceptionV2/Mixed_3c/Branch_1/Conv2d_0b_3x3/BatchNorm/FusedBatchNorm/Mul"}, {"input": ["FirstStageFeatureExtractor/InceptionV2/InceptionV2/Mixed_3c/Branch_2/Conv2d_0b_3x3/BatchNorm/FusedBatchNorm/Mul", "FirstStageFeatureExtractor/InceptionV2/InceptionV2/Mixed_3c/Branch_2/Conv2d_0b_3x3/BatchNorm/FusedBatchNorm/Offset"], "op": "Add", "attr": {"T": {"type": "DT_FLOAT"}}, "name": "FirstStageFeatureExtractor/InceptionV2/InceptionV2/Mixed_3c/Branch_2/Conv2d_0b_3x3/BatchNorm/FusedBatchNorm"}, {"input": ["FirstStageFeatureExtractor/InceptionV2/InceptionV2/Mixed_3c/Branch_1/Conv2d_0b_3x3/BatchNorm/FusedBatchNorm/Mul", "FirstStageFeatureExtractor/InceptionV2/InceptionV2/Mixed_3c/Branch_1/Conv2d_0b_3x3/BatchNorm/FusedBatchNorm/Offset"], "op": "Add", "attr": {"T": {"type": "DT_FLOAT"}}, "name": "FirstStageFeatureExtractor/InceptionV2/InceptionV2/Mixed_3c/Branch_1/Conv2d_0b_3x3/BatchNorm/FusedBatchNorm"}, {"input": ["FirstStageFeatureExtractor/InceptionV2/InceptionV2/Mixed_3c/Branch_2/Conv2d_0b_3x3/BatchNorm/FusedBatchNorm"], "op": "Relu", "attr": {"T": {"type": "DT_FLOAT"}}, "name": "FirstStageFeatureExtractor/InceptionV2/InceptionV2/Mixed_3c/Branch_2/Conv2d_0b_3x3/Relu"}, {"input": ["FirstStageFeatureExtractor/InceptionV2/InceptionV2/Mixed_3c/Branch_2/Conv2d_0b_3x3/Relu", "FirstStageFeatureExtractor/InceptionV2/InceptionV2/Mixed_3c/Branch_2/Conv2d_0c_3x3/Conv2D/merged_input"], "op": "Conv2D", "attr": {"padding": {"s": "U0FNRQ=="}, "strides": {"list": {"i": ["1", "1", "1", "1"]}}, "T": {"type": "DT_FLOAT"}, "use_cudnn_on_gpu": {"b": true}, "data_format": {"s": "TkhXQw=="}, "dilations": {"list": {"i": ["1", "1", "1", "1"]}}}, "name": "FirstStageFeatureExtractor/InceptionV2/InceptionV2/Mixed_3c/Branch_2/Conv2d_0c_3x3/BatchNorm/FusedBatchNorm/Mul"}, {"input": ["FirstStageFeatureExtractor/InceptionV2/InceptionV2/Mixed_3c/Branch_2/Conv2d_0c_3x3/BatchNorm/FusedBatchNorm/Mul", "FirstStageFeatureExtractor/InceptionV2/InceptionV2/Mixed_3c/Branch_2/Conv2d_0c_3x3/BatchNorm/FusedBatchNorm/Offset"], "op": "Add", "attr": {"T": {"type": "DT_FLOAT"}}, "name": "FirstStageFeatureExtractor/InceptionV2/InceptionV2/Mixed_3c/Branch_2/Conv2d_0c_3x3/BatchNorm/FusedBatchNorm"}, {"input": ["FirstStageFeatureExtractor/InceptionV2/InceptionV2/Mixed_3c/Branch_0/Conv2d_0a_1x1/BatchNorm/FusedBatchNorm", "FirstStageFeatureExtractor/InceptionV2/InceptionV2/Mixed_3c/Branch_1/Conv2d_0b_3x3/BatchNorm/FusedBatchNorm", "FirstStageFeatureExtractor/InceptionV2/InceptionV2/Mixed_3c/Branch_2/Conv2d_0c_3x3/BatchNorm/FusedBatchNorm", "FirstStageFeatureExtractor/InceptionV2/InceptionV2/Mixed_3c/Branch_3/Conv2d_0b_1x1/BatchNorm/FusedBatchNorm", "FirstStageFeatureExtractor/InceptionV2/InceptionV2/Mixed_3b/concat/axis"], "op": "ConcatV2", "attr": {"T": {"type": "DT_FLOAT"}, "N": {"i": "4"}, "Tidx": {"type": "DT_INT32"}}, "name": "FirstStageFeatureExtractor/InceptionV2/InceptionV2/Mixed_3c/concat"}, {"input": ["FirstStageFeatureExtractor/InceptionV2/InceptionV2/Mixed_3c/concat"], "op": "Relu", "attr": {"T": {"type": "DT_FLOAT"}}, "name": "FirstStageFeatureExtractor/InceptionV2/InceptionV2/Mixed_3c/Branch_0/Conv2d_0a_1x1/Relu"}, {"input": ["FirstStageFeatureExtractor/InceptionV2/InceptionV2/Mixed_3c/Branch_0/Conv2d_0a_1x1/Relu"], "op": "MaxPool", "attr": {"T": {"type": "DT_FLOAT"}, "padding": {"s": "U0FNRQ=="}, "data_format": {"s": …
nMaxSuppression/ClipToWindow/Area/sub_1"}, {"input": ["SecondStagePostprocessor/BatchMultiClassNonMaxSuppression/map/while/MultiClassNonMaxSuppression/ClipToWindow/Area/split:2", "SecondStagePostprocessor/BatchMultiClassNonMaxSuppression/map/while/MultiClassNonMaxSuppression/ClipToWindow/Area/split"], "op": "Sub", "attr": {"T": {"type": "DT_FLOAT"}}, "name": "SecondStagePostprocessor/BatchMultiClassNonMaxSuppression/map/while/MultiClassNonMaxSuppression/ClipToWindow/Area/sub"}, {"input": ["SecondStagePostprocessor/BatchMultiClassNonMaxSuppression/map/while/MultiClassNonMaxSuppression/ClipToWindow/Area/sub", "SecondStagePostprocessor/BatchMultiClassNonMaxSuppression/map/while/MultiClassNonMaxSuppression/ClipToWindow/Area/sub_1"], "op": "Mul", "attr": {"T": {"type": "DT_FLOAT"}}, "name": "SecondStagePostprocessor/BatchMultiClassNonMaxSuppression/map/while/MultiClassNonMaxSuppression/ClipToWindow/Area/mul"}, {"input": ["SecondStagePostprocessor/BatchMultiClassNonMaxSuppression/map/while/MultiClassNonMaxSuppression/ClipToWindow/Area/mul"], "op": "Squeeze", "attr": {"T": {"type": "DT_FLOAT"}, "squeeze_dims": {"list": {"i": ["1"]}}}, "name": "SecondStagePostprocessor/BatchMultiClassNonMaxSuppression/map/while/MultiClassNonMaxSuppression/ClipToWindow/Area/Squeeze"}, {"input": ["SecondStagePostprocessor/BatchMultiClassNonMaxSuppression/map/while/MultiClassNonMaxSuppression/ClipToWindow/Area/Squeeze", "SecondStagePostprocessor/BatchMultiClassNonMaxSuppression/map/while/MultiClassNonMaxSuppression/add_1/y"], "op": "Greater", "attr": {"T": {"type": "DT_FLOAT"}}, "name": "SecondStagePostprocessor/BatchMultiClassNonMaxSuppression/map/while/MultiClassNonMaxSuppression/ClipToWindow/Greater"}, {"input": ["SecondStagePostprocessor/BatchMultiClassNonMaxSuppression/map/while/MultiClassNonMaxSuppression/ClipToWindow/Greater"], "op": "Where", "attr": {"T": {"type": "DT_BOOL"}}, "name": "SecondStagePostprocessor/BatchMultiClassNonMaxSuppression/map/while/MultiClassNonMaxSuppression/ClipToWindow/Where"}, {"input": ["SecondStagePostprocessor/BatchMultiClassNonMaxSuppression/map/while/MultiClassNonMaxSuppression/ClipToWindow/Where", "SecondStagePostprocessor/BatchMultiClassNonMaxSuppression/map/while/MultiClassNonMaxSuppression/ones_3/Reshape/shape"], "op": "Reshape", "attr": {"T": {"type": "DT_INT64"}, "Tshape": {"type": "DT_INT32"}}, "name": "SecondStagePostprocessor/BatchMultiClassNonMaxSuppression/map/while/MultiClassNonMaxSuppression/ClipToWindow/Reshape"}, {"input": ["SecondStagePostprocessor/BatchMultiClassNonMaxSuppression/map/while/MultiClassNonMaxSuppression/ClipToWindow/Reshape"], "op": "Cast", "attr": {"Truncate": {"b": false}, "SrcT": {"type": "DT_INT64"}, "DstT": {"type": "DT_INT32"}}, "name": "SecondStagePostprocessor/BatchMultiClassNonMaxSuppression/map/while/MultiClassNonMaxSuppression/ClipToWindow/Cast"}, {"input": ["SecondStagePostprocessor/BatchMultiClassNonMaxSuppression/map/while/MultiClassNonMaxSuppression/ClipToWindow/concat", "SecondStagePostprocessor/BatchMultiClassNonMaxSuppression/map/while/MultiClassNonMaxSuppression/ClipToWindow/Cast", "SecondStagePostprocessor/BatchMultiClassNonMaxSuppression/map/while/PadOrClipBoxList/Greater/y"], "op": "GatherV2", "attr": {"Taxis": {"type": "DT_INT32"}, "Tparams": {"type": "DT_FLOAT"}, "Tindices": {"type": "DT_INT32"}}, "name": "SecondStagePostprocessor/BatchMultiClassNonMaxSuppression/map/while/MultiClassNonMaxSuppression/ClipToWindow/Gather/GatherV2_5"}, {"input": ["SecondStagePostprocessor/BatchMultiClassNonMaxSuppression/map/while/MultiClassNonMaxSuppression/SortByField/Gather/GatherV2_2", "SecondStagePostprocessor/BatchMultiClassNonMaxSuppression/map/while/MultiClassNonMaxSuppression/ClipToWindow/Cast", "SecondStagePostprocessor/BatchMultiClassNonMaxSuppression/map/while/PadOrClipBoxList/Greater/y"], "op": "GatherV2", "attr": {"Taxis": {"type": "DT_INT32"}, "Tparams": {"type": "DT_FLOAT"}, "Tindices": {"type": "DT_INT32"}}, "name": "SecondStagePostprocessor/BatchMultiClassNonMaxSuppression/map/while/MultiClassNonMaxSuppression/ClipToWindow/Gather/GatherV2_2"}, {"input": ["SecondStagePostprocessor/BatchMultiClassNonMaxSuppression/map/while/MultiClassNonMaxSuppression/SortByField/Gather/GatherV2_3", "SecondStagePostprocessor/BatchMultiClassNonMaxSuppression/map/while/MultiClassNonMaxSuppression/ClipToWindow/Cast", "SecondStagePostprocessor/BatchMultiClassNonMaxSuppression/map/while/PadOrClipBoxList/Greater/y"], "op": "GatherV2", "attr": {"Taxis": {"type": "DT_INT32"}, "Tparams": {"type": "DT_FLOAT"}, "Tindices": {"type": "DT_INT32"}}, "name": "SecondStagePostprocessor/BatchMultiClassNonMaxSuppression/map/while/MultiClassNonMaxSuppression/ClipToWindow/Gather/GatherV2_3"}, {"input": ["SecondStagePostprocessor/BatchMultiClassNonMaxSuppression/map/while/MultiClassNonMaxSuppression/ClipToWindow/Gather/GatherV2_5"], "op": "Shape", "attr": {"out_type": {"type": "DT_INT32"}, "T": {"type": "DT_FLOAT"}}, "name": "SecondStagePostprocessor/BatchMultiClassNonMaxSuppression/map/while/MultiClassNonMaxSuppression/Shape_7"}, {"input": ["SecondStagePostprocessor/BatchMultiClassNonMaxSuppression/map/while/MultiClassNonMaxSuppression/range_3/delta", "SecondStagePostprocessor/BatchMultiClassNonMaxSuppression/map/while/MultiClassNonMaxSuppression/ClipToWindow/Gather/GatherV2_5"], "op": "Split", "attr": {"T": {"type": "DT_FLOAT"}, "num_split": {"i": "4"}}, "name": "SecondStagePostprocessor/BatchMultiClassNonMaxSuppression/map/while/MultiClassNonMaxSuppression/Area/split"}, {"input": ["SecondStagePostprocessor/BatchMultiClassNonMaxSuppression/map/while/MultiClassNonMaxSuppression/Shape_7", "SecondStagePostprocessor/BatchMultiClassNonMaxSuppression/map/while/PadOrClipBoxList/strided_slice_2/stack", "SecondStagePostprocessor/BatchMultiClassNonMaxSuppression/map/while/PadOrClipBoxList/strided_slice_2/stack_1", "SecondStagePostprocessor/BatchMultiClassNonMaxSuppression/map/while/PadOrClipBoxList/strided_slice_2/stack_1"], "op": "StridedSlice", "attr": {"ellipsis_mask": {"i": "0"}, "end_mask": {"i": "0"}, "new_axis_mask": {"i": "0"}, "Index": {"type": "DT_INT32"}, "shrink_axis_mask": {"i": "1"}, "T": {"type": "DT_INT32"}, "begin_mask": {"i": "0"}}, "name": "SecondStagePostprocessor/BatchMultiClassNonMaxSuppression/map/while/MultiClassNonMaxSuppression/strided_slice_7"}, {"input": ["SecondStagePostprocessor/BatchMultiClassNonMaxSuppression/map/while/MultiClassNonMaxSuppression/Area/split:3", "SecondStagePostprocessor/BatchMultiClassNonMaxSuppression/map/while/MultiClassNonMaxSuppression/Area/split:1"], "op": "Sub", "attr": {"T": {"type": "DT_FLOAT"}}, "name": "SecondStagePostprocessor/BatchMultiClassNonMaxSuppression/map/while/MultiClassNonMaxSuppression/Area/sub_1"}, {"input": ["SecondStagePostprocessor/BatchMultiClassNonMaxSuppression/map/while/MultiClassNonMaxSuppression/Area/split:2", "SecondStagePostprocessor/BatchMultiClassNonMaxSuppression/map/while/MultiClassNonMaxSuppression/Area/split"], "op": "Sub", "attr": {"T": {"type": "DT_FLOAT"}}, "name": "SecondStagePostprocessor/BatchMultiClassNonMaxSuppression/map/while/MultiClassNonMaxSuppression/Area/sub"}, {"input": ["SecondStagePostprocessor/BatchMultiClassNonMaxSuppression/map/while/MultiClassNonMaxSuppression/strided_slice_7", "SecondStagePostprocessor/BatchMultiClassNonMaxSuppression/map/while/MultiClassNonMaxSuppression/ones_3/Reshape/shape"], "op": "Reshape", "attr": {"T": {"type": "DT_INT32"}, "Tshape": {"type": "DT_INT32"}}, "name": "SecondStagePostprocessor/BatchMultiClassNonMaxSuppression/map/while/MultiClassNonMaxSuppression/ones_3/Reshape"}, {"input": ["SecondStagePostprocessor/BatchMultiClassNonMaxSuppression/map/while/MultiClassNonMaxSuppression/Area/sub", "SecondStagePostprocessor/BatchMultiClassNonMaxSuppression/map/while/MultiClassNonMaxSuppression/Area/sub_1"], "op": "Mul", "attr": {"T": {"type": "DT_FLOAT"}}, "name": "SecondStagePostprocessor/BatchMultiClassNonMaxSuppression/map/while/MultiClassNonMaxSuppression/Area/mul"}, {"input": ["SecondStagePostprocessor/BatchMultiClassNonMaxSuppression/map/while/MultiClassNonMaxSuppression/ones_3/Reshape", "SecondStagePostprocessor/BatchMultiClassNonMaxSuppression/map/while/MultiClassNonMaxSuppression/add_3/y"], "op": "Fill", "attr": {"T": {"type": "DT_FLOAT"}, "index_type": {"type": "DT_INT32"}}, "name": "SecondStagePostprocessor/BatchMultiClassNonMaxSuppression/map/while/MultiClassNonMaxSuppression/ones_3"}, {"input": ["SecondStagePostprocessor/BatchMultiClassNonMaxSuppression/map/while/MultiClassNonMaxSuppression/Area/mul"], "op": "Squeeze", "attr": {"T": {"type": "DT_FLOAT"}, "squeeze_dims": {"list": {"i": ["1"]}}}, "name": "SecondStagePostprocessor/BatchMultiClassNonMaxSuppression/map/while/MultiClassNonMaxSuppression/Area/Squeeze"}, {"input": ["SecondStagePostprocessor/BatchMultiClassNonMaxSuppression/map/while/MultiClassNonMaxSuppression/mul_3/x", "SecondStagePostprocessor/BatchMultiClassNonMaxSuppression/map/while/MultiClassNonMaxSuppression/ones_3"], "op": "Mul", "attr": {"T": {"type": "DT_FLOAT"}}, "name": "SecondStagePostprocessor/BatchMultiClassNonMaxSuppression/map/while/MultiClassNonMaxSuppression/mul_3"}, {"input": ["SecondStagePostprocessor/BatchMultiClassNonMaxSuppression/map/while/MultiClassNonMaxSuppression/Area/Squeeze"], "op": "Cast", "attr": {"Truncate": {"b": false}, "SrcT": {"type": "DT_FLOAT"}, "DstT": {"type": "DT_BOOL"}}, "name": "SecondStagePostprocessor/BatchMultiClassNonMaxSuppression/map/while/MultiClassNonMaxSuppression/Cast"}, {"input": ["SecondStagePostprocessor/BatchMultiClassNonMaxSuppression/map/while/MultiClassNonMaxSuppression/Cast", "SecondStagePostprocessor/BatchMultiClassNonMaxSuppression/map/while/MultiClassNonMaxSuppression/ClipToWindow/Gather/GatherV2_2", "SecondStagePostprocessor/BatchMultiClassNonMaxSuppression/map/while/MultiClassNonMaxSuppression/mul_3"], "op": "Select", "attr": {"T": {"type": "DT_FLOAT"}}, "name": "SecondStagePostprocessor/BatchMultiClassNonMaxSuppression/map/while/MultiClassNonMaxSuppression/Select_3"}, {"input": ["SecondStagePostprocessor/BatchMultiClassNonMaxSuppression/map/while/MultiClassNonMaxSuppression/Select_3", "SecondStagePostprocessor/BatchMultiClassNonMaxSuppression/map/while/MultiClassNonMaxSuppression/strided_slice_7"], "op": "TopKV2", "attr": {"sorted": {"b": true}, "T": {"type": "DT_FLOAT"}}, "name": "SecondStagePostprocessor/BatchMultiClassNonMaxSuppression/map/while/MultiClassNonMaxSuppression/SortByField_1/TopKV2"}, {"input": ["SecondStagePostprocessor/BatchMultiClassNonMaxSuppression/map/while/MultiClassNonMaxSuppression/Select_3", "SecondStagePostprocessor/BatchMultiClassNonMaxSuppression/map/while/MultiClassNonMaxSuppression/add_1/y"], "op": "GreaterEqual", "attr": {"T": {"type": "DT_FLOAT"}}, "name": "SecondStagePostprocessor/BatchMultiClassNonMaxSuppression/map/while/MultiClassNonMaxSuppression/GreaterEqual"}, {"input": ["SecondStagePostprocessor/BatchMultiClassNonMaxSuppression/map/while/MultiClassNonMaxSuppression/ClipToWindow/Gather/GatherV2_5", "SecondStagePostprocessor/BatchMultiClassNonMaxSuppression/map/while/MultiClassNonMaxSuppression/SortByField_1/TopKV2:1", "SecondStagePostprocessor/BatchMultiClassNonMaxSuppression/map/while/PadOrClipBoxList/Greater/y"], "op": "GatherV2", "attr": {"Taxis": {"type": "DT_INT32"}, "Tparams": {"type": "DT_FLOAT"}, "Tindices": {"type": "DT_INT32"}}, "name": "SecondStagePostprocessor/BatchMultiClassNonMaxSuppression/map/while/MultiClassNonMaxSuppression/SortByField_1/Gather/GatherV2_5"}, {"input": ["SecondStagePostprocessor/BatchMultiClassNonMaxSuppression/map/while/MultiClassNonMaxSuppression/Select_3", "SecondStagePostprocessor/BatchMultiClassNonMaxSuppression/map/while/MultiClassNonMaxSuppression/SortByField_1/TopKV2:1", "SecondStagePostprocessor/BatchMultiClassNonMaxSuppression/map/while/PadOrClipBoxList/Greater/y"], "op": "GatherV2", "attr": {"Taxis": {"type": "DT_INT32"}, "Tparams": {"type": "DT_FLOAT"}, "Tindices": {"type": "DT_INT32"}}, "name": "SecondStagePostprocessor/BatchMultiClassNonMaxSuppression/map/while/MultiClassNonMaxSuppression/SortByField_1/Gather/GatherV2_2"}, {"input": ["SecondStagePostprocessor/BatchMultiClassNonMaxSuppression/map/while/MultiClassNonMaxSuppression/ClipToWindow/Gather/GatherV2_3", "SecondStagePostprocessor/BatchMultiClassNonMaxSuppression/map/while/MultiClassNonMaxSuppression/SortByField_1/TopKV2:1", "SecondStagePostprocessor/BatchMultiClassNonMaxSuppression/map/while/PadOrClipBoxList/Greater/y"], "op": "GatherV2", "attr": {"Taxis": {"type": "DT_INT32"}, "Tparams": {"type": "DT_FLOAT"}, "Tindices": {"type": "DT_INT32"}}, "name": "SecondStagePostprocessor/BatchMultiClassNonMaxSuppression/map/while/MultiClassNonMaxSuppression/SortByField_1/Gather/GatherV2_3"}, {"input": ["SecondStagePostprocessor/BatchMultiClassNonMaxSuppression/map/while/MultiClassNonMaxSuppression/GreaterEqual"], "op": "Cast", "attr": {"Truncate": {"b": false}, "SrcT": {"type": "DT_BOOL"}, "DstT": {"type": "DT_INT32"}}, "name": "SecondStagePostprocessor/BatchMultiClassNonMaxSuppression/map/while/MultiClassNonMaxSuppression/Cast_1"}, {"input": ["SecondStagePostprocessor/BatchMultiClassNonMaxSuppression/map/while/MultiClassNonMaxSuppression/SortByField_1/Gather/GatherV2_5", "SecondStagePostprocessor/BatchMultiClassNonMaxSuppression/map/while/MultiClassNonMaxSuppression/ChangeCoordinateFrame/sub_2/y"], "op": "Sub", "attr": {"T": {"type": "DT_FLOAT"}}, "name": "SecondStagePostprocessor/BatchMultiClassNonMaxSuppression/map/while/MultiClassNonMaxSuppression/ChangeCoordinateFrame/sub_2"}, {"input": ["SecondStagePostprocessor/BatchMultiClassNonMaxSuppression/map/while/MultiClassNonMaxSuppression/Cast_1", "SecondStagePostprocessor/BatchMultiClassNonMaxSuppression/map/while/PadOrClipBoxList/strided_slice_2/stack"], "op": "Sum", "attr": {"keep_dims": {"b": false}, "T": {"type": "DT_INT32"}, "Tidx": {"type": "DT_INT32"}}, "name": "SecondStagePostprocessor/BatchMultiClassNonMaxSuppression/map/while/MultiClassNonMaxSuppression/Sum"}, {"input": ["SecondStagePostprocessor/BatchMultiClassNonMaxSuppression/map/while/MultiClassNonMaxSuppression/range_3/delta", "SecondStagePostprocessor/BatchMultiClassNonMaxSuppression/map/while/MultiClassNonMaxSuppression/ChangeCoordinateFrame/sub_2"], "op": "Split", "attr": {"T": {"type": "DT_FLOAT"}, "num_split": {"i": "4"}}, "name": "SecondStagePostprocessor/BatchMultiClassNonMaxSuppression/map/while/MultiClassNonMaxSuppression/ChangeCoordinateFrame/Scale/split"}, {"input": ["SecondStagePostprocessor/BatchMultiClassNonMaxSuppression/map/while/MultiClassNonMaxSuppression/ChangeCoordinateFrame/truediv_1", "SecondStagePostprocessor/BatchMultiClassNonMaxSuppression/map/while/MultiClassNonMaxSuppression/ChangeCoordinateFrame/Scale/split:3"], "op": "Mul", "attr": {"T": {"type": "DT_FLOAT"}}, "name": "SecondStagePostprocessor/BatchMultiClassNonMaxSuppression/map/while/MultiClassNonMaxSuppression/ChangeCoordinateFrame/Scale/mul_3"}, {"input": ["SecondStagePostprocessor/BatchMultiClassNonMaxSuppression/map/while/MultiClassNonMaxSuppression/ChangeCoordinateFrame/truediv", "SecondStagePostprocessor/BatchMultiClassNonMaxSuppression/map/while/MultiClassNonMaxSuppression/ChangeCoordinateFrame/Scale/split:2"], "op": "Mul", "attr": {"T": {"type": "DT_FLOAT"}}, "name": "SecondStagePostprocessor/BatchMultiClassNonMaxSuppression/map/while/MultiClassNonMaxSuppression/ChangeCoordinateFrame/Scale/mul_1"}, {"input": ["SecondStagePostprocessor/BatchMultiClassNonMaxSuppression/map/while/MultiClassNonMaxSuppression/ChangeCoordinateFrame/truediv_1", "SecondStagePostprocessor/BatchMultiClassNonMaxSuppression/map/while/MultiClassNonMaxSuppression/ChangeCoordinateFrame/Scale/split:1"], "op": "Mul", "attr": {"T": {"type": "DT_FLOAT"}}, "name": "SecondStagePostprocessor/BatchMultiClassNonMaxSuppression/map/while/MultiClassNonMaxSuppression/ChangeCoordinateFrame/Scale/mul_2"}, {"input": ["SecondStagePostprocessor/BatchMultiClassNonMaxSuppression/map/while/MultiClassNonMaxSuppression/ChangeCoordinateFrame/truediv", "SecondStagePostprocessor/BatchMultiClassNonMaxSuppression/map/while/MultiClassNonMaxSuppression/ChangeCoordinateFrame/Scale/split"], "op": "Mul", "attr": {"T": {"type": "DT_FLOAT"}}, "name": "SecondStagePostprocessor/BatchMultiClassNonMaxSuppression/map/while/MultiClassNonMaxSuppression/ChangeCoordinateFrame/Scale/mul"}, {"input": ["SecondStagePostprocessor/BatchMultiClassNonMaxSuppression/map/while/MultiClassNonMaxSuppression/ChangeCoordinateFrame/Scale/mul", "SecondStagePostprocessor/BatchMultiClassNonMaxSuppression/map/while/MultiClassNonMaxSuppression/ChangeCoordinateFrame/Scale/mul_2", "SecondStagePostprocessor/BatchMultiClassNonMaxSuppression/map/while/MultiClassNonMaxSuppression/ChangeCoordinateFrame/Scale/mul_1", "SecondStagePostprocessor/BatchMultiClassNonMaxSuppression/map/while/MultiClassNonMaxSuppression/ChangeCoordinateFrame/Scale/mul_3", "SecondStagePostprocessor/BatchMultiClassNonMaxSuppression/map/while/MultiClassNonMaxSuppression/range_3/delta"], "op": "ConcatV2", "attr": {"T": {"type": "DT_FLOAT"}, "N": {"i": "4"}, "Tidx": {"type": "DT_INT32"}}, "name": "SecondStagePostprocessor/BatchMultiClassNonMaxSuppression/map/while/MultiClassNonMaxSuppression/ChangeCoordinateFrame/Scale/concat"}, {"input": ["SecondStagePostprocessor/BatchMultiClassNonMaxSuppression/map/while/MultiClassNonMaxSuppression/ChangeCoordinateFrame/Scale/concat"], "op": "Shape", "attr": {"out_type": {"type": "DT_INT32"}, "T": {"type": "DT_FLOAT"}}, "name": "SecondStagePostprocessor/BatchMultiClassNonMaxSuppression/map/while/MultiClassNonMaxSuppression/Shape_8"}, {"input": ["SecondStagePostprocessor/BatchMultiClassNonMaxSuppression/map/while/MultiClassNonMaxSuppression/Shape_8", "SecondStagePostprocessor/BatchMultiClassNonMaxSuppression/map/while/PadOrClipBoxList/strided_slice_2/stack", "SecondStagePostprocessor/BatchMultiClassNonMaxSuppression/map/while/PadOrClipBoxList/strided_slice_2/stack_1", "SecondStagePostprocessor/BatchMultiClassNonMaxSuppression/map/while/PadOrClipBoxList/strided_slice_2/stack_1"], "op": "StridedSlice", "attr": {"ellipsis_mask": {"i": "0"}, "end_mask": {"i": "0"}, "new_axis_mask": {"i": "0"}, "Index": {"type": "DT_INT32"}, "shrink_axis_mask": {"i": "1"}, "T": {"type": "DT_INT32"}, "begin_mask": {"i": "0"}}, "name": "SecondStagePostprocessor/BatchMultiClassNonMaxSuppression/map/while/MultiClassNonMaxSuppression/strided_slice_8"}, {"input": ["SecondStagePostprocessor/BatchMultiClassNonMaxSuppression/map/while/PadOrClipBoxList/sub_2/x", "SecondStagePostprocessor/BatchMultiClassNonMaxSuppression/map/while/MultiClassNonMaxSuppression/strided_slice_8"], "op": "Minimum", "attr": {"T": {"type": "DT_INT32"}}, "name": "SecondStagePostprocessor/BatchMultiClassNonMaxSuppression/map/while/MultiClassNonMaxSuppression/Minimum_3"}, {"input": ["SecondStagePostprocessor/BatchMultiClassNonMaxSuppression/map/while/MultiClassNonMaxSuppression/Minimum_3", "SecondStagePostprocessor/BatchMultiClassNonMaxSuppression/map/while/MultiClassNonMaxSuppression/Sum"], "op": "Greater", "attr": {"T": {"type": "DT_INT32"}}, "name": "SecondStagePostprocessor/BatchMultiClassNonMaxSuppression/map/while/MultiClassNonMaxSuppression/Greater"}, {"input": ["SecondStagePostprocessor/BatchMultiClassNonMaxSuppression/map/while/PadOrClipBoxList/Greater/y", "SecondStagePostprocessor/BatchMultiClassNonMaxSuppression/map/while/MultiClassNonMaxSuppression/Minimum_3", "SecondStagePostprocessor/BatchMultiClassNonMaxSuppression/map/while/MultiClassNonMaxSuppression/range_3/delta"], "op": "Range", "attr": {"Tidx": {"type": "DT_INT32"}}, "name": "SecondStagePostprocessor/BatchMultiClassNonMaxSuppression/map/while/MultiClassNonMaxSuppression/range_3"}, {"input": ["SecondStagePostprocessor/BatchMultiClassNonMaxSuppression/map/while/MultiClassNonMaxSuppression/Greater", "SecondStagePostprocessor/BatchMultiClassNonMaxSuppression/map/while/MultiClassNonMaxSuppression/Sum", "SecondStagePostprocessor/BatchMultiClassNonMaxSuppression/map/while/MultiClassNonMaxSuppression/Minimum_3"], "op": "Select", "attr": {"T": {"type": "DT_INT32"}}, "name": "SecondStagePostprocessor/BatchMultiClassNonMaxSuppression/map/while/MultiClassNonMaxSuppression/Select_4"}, {"input": ["SecondStagePostprocessor/BatchMultiClassNonMaxSuppression/map/while/MultiClassNonMaxSuppression/SortByField_1/Gather/GatherV2_2", "SecondStagePostprocessor/BatchMultiClassNonMaxSuppression/map/while/MultiClassNonMaxSuppression/range_3", "SecondStagePostprocessor/BatchMultiClassNonMaxSuppression/map/while/PadOrClipBoxList/Greater/y"], "op": "GatherV2", "attr": {"Taxis": {"type": "DT_INT32"}, "Tparams": {"type": "DT_FLOAT"}, "Tindices": {"type": "DT_INT32"}}, "name": "SecondStagePostprocessor/BatchMultiClassNonMaxSuppression/map/while/MultiClassNonMaxSuppression/Gather_3/GatherV2_2"}, {"input": ["SecondStagePostprocessor/BatchMultiClassNonMaxSuppression/map/while/MultiClassNonMaxSuppression/SortByField_1/Gather/GatherV2_3", "SecondStagePostprocessor/BatchMultiClassNonMaxSuppression/map/while/MultiClassNonMaxSuppression/range_3", "SecondStagePostprocessor/BatchMultiClassNonMaxSuppression/map/while/PadOrClipBoxList/Greater/y"], "op": "GatherV2", "attr": {"Taxis": {"type": "DT_INT32"}, "Tparams": {"type": "DT_FLOAT"}, "Tindices": {"type": "DT_INT32"}}, "name": "SecondStagePostprocessor/BatchMultiClassNonMaxSuppression/map/while/MultiClassNonMaxSuppression/Gather_3/GatherV2_3"}, {"input": ["SecondStagePostprocessor/BatchMultiClassNonMaxSuppression/map/while/MultiClassNonMaxSuppression/ChangeCoordinateFrame/Scale/concat", "SecondStagePostprocessor/BatchMultiClassNonMaxSuppression/map/while/MultiClassNonMaxSuppression/range_3", "SecondStagePostprocessor/BatchMultiClassNonMaxSuppression/map/while/PadOrClipBoxList/Greater/y"], "op": "GatherV2", "attr": {"Taxis": {"type": "DT_INT32"}, "Tparams": {"type": "DT_FLOAT"}, "Tindices": {"type": "DT_INT32"}}, "name": "SecondStagePostprocessor/BatchMultiClassNonMaxSuppression/map/while/MultiClassNonMaxSuppression/Gather_3/GatherV2_5"}, {"input": ["SecondStagePostprocessor/BatchMultiClassNonMaxSuppression/map/while/TensorArrayWrite_5/TensorArrayWriteV3/Enter", "SecondStagePostprocessor/BatchMultiClassNonMaxSuppression/map/while/Switch_1:1", "SecondStagePostprocessor/BatchMultiClassNonMaxSuppression/map/while/MultiClassNonMaxSuppression/Select_4", "SecondStagePostprocessor/BatchMultiClassNonMaxSuppression/map/while/Switch_7:1"], "op": "TensorArrayWriteV3", "attr": {"T": {"type": "DT_INT32"}}, "name": "SecondStagePostprocessor/BatchMultiClassNonMaxSuppression/map/while/TensorArrayWrite_5/TensorArrayWriteV3"}, {"input": ["SecondStagePostprocessor/BatchMultiClassNonMaxSuppression/map/while/PadOrClipBoxList/Greater/y", "SecondStagePostprocessor/BatchMultiClassNonMaxSuppression/map/while/MultiClassNonMaxSuppression/Select_4", "SecondStagePostprocessor/BatchMultiClassNonMaxSuppression/map/while/MultiClassNonMaxSuppression/range_3/delta"], "op": "Range", "attr": {"Tidx": {"type": "DT_INT32"}}, "name": "SecondStagePostprocessor/BatchMultiClassNonMaxSuppression/map/while/MultiClassNonMaxSuppression/range_4"}, {"input": ["SecondStagePostprocessor/BatchMultiClassNonMaxSuppression/map/while/TensorArrayWrite_5/TensorArrayWriteV3"], "op": "NextIteration", "attr": {"T": {"type": "DT_FLOAT"}}, "name": "SecondStagePostprocessor/BatchMultiClassNonMaxSuppression/map/while/NextIteration_7"}, {"input": ["SecondStagePostprocessor/BatchMultiClassNonMaxSuppression/map/while/MultiClassNonMaxSuppression/Gather_3/GatherV2_2", "SecondStagePostprocessor/BatchMultiClassNonMaxSuppression/map/while/MultiClassNonMaxSuppression/range_4", "SecondStagePostprocessor/BatchMultiClassNonMaxSuppression/map/while/PadOrClipBoxList/Greater/y"], "op": "GatherV2", "attr": {"Taxis": {"type": "DT_INT32"}, "Tparams": {"type": "DT_FLOAT"}, "Tindices": {"type": "DT_INT32"}}, "name": "SecondStagePostprocessor/BatchMultiClassNonMaxSuppression/map/while/MultiClassNonMaxSuppression/Gather_4/GatherV2_2"}, {"input": ["SecondStagePostprocessor/BatchMultiClassNonMaxSuppression/map/while/MultiClassNonMaxSuppression/Gather_3/GatherV2_3", "SecondStagePostprocessor/BatchMultiClassNonMaxSuppression/map/while/MultiClassNonMaxSuppression/range_4", "SecondStagePostprocessor/BatchMultiClassNonMaxSuppression/map/while/PadOrClipBoxList/Greater/y"], "op": "GatherV2", "attr": {"Taxis": {"type": "DT_INT32"}, "Tparams": {"type": "DT_FLOAT"}, "Tindices": {"type": "DT_INT32"}}, "name": "SecondStagePostprocessor/BatchMultiClassNonMaxSuppression/map/while/MultiClassNonMaxSuppression/Gather_4/GatherV2_3"}, {"input": ["SecondStagePostprocessor/BatchMultiClassNonMaxSuppression/map/while/MultiClassNonMaxSuppression/Gather_3/GatherV2_5", "SecondStagePostprocessor/BatchMultiClassNonMaxSuppression/map/while/MultiClassNonMaxSuppression/range_4", "SecondStagePostprocessor/BatchMultiClassNonMaxSuppression/map/while/PadOrClipBoxList/Greater/y"], "op": "GatherV2", "attr": {"Taxis": {"type": "DT_INT32"}, "Tparams": {"type": "DT_FLOAT"}, "Tindices": {"type": "DT_INT32"}}, "name": "SecondStagePostprocessor/BatchMultiClassNonMaxSuppression/map/while/MultiClassNonMaxSuppression/Gather_4/GatherV2_5"}, {"input": ["SecondStagePostprocessor/BatchMultiClassNonMaxSuppression/map/while/MultiClassNonMaxSuppression/Gather_4/GatherV2_2"], "op": "Shape", "attr": {"out_type": {"type": "DT_INT32"}, "T": {"type": "DT_FLOAT"}}, "name": "SecondStagePostprocessor/BatchMultiClassNonMaxSuppression/map/while/PadOrClipBoxList/Shape_4"}, {"input": ["SecondStagePostprocessor/BatchMultiClassNonMaxSuppression/map/while/MultiClassNonMaxSuppression/Gather_4/GatherV2_3"], "op": "Shape", "attr": {"out_type": {"type": "DT_INT32"}, "T": {"type": "DT_FLOAT"}}, "name": "SecondStagePostprocessor/BatchMultiClassNonMaxSuppression/map/while/PadOrClipBoxList/Shape_6"}, {"input": ["SecondStagePostprocessor/BatchMultiClassNonMaxSuppression/map/while/MultiClassNonMaxSuppression/Gather_4/GatherV2_5"], "op": "Shape", "attr": {"out_type": {"type": "DT_INT32"}, "T": {"type": "DT_FLOAT"}}, "name": "SecondStagePostprocessor/BatchMultiClassNonMaxSuppression/map/while/PadOrClipBoxList/Shape"}, {"input": ["SecondStagePostprocessor/BatchMultiClassNonMaxSuppression/map/while/PadOrClipBoxList/Shape_4", "SecondStagePostprocessor/BatchMultiClassNonMaxSuppression/map/while/PadOrClipBoxList/strided_slice_2/stack", "SecondStagePostprocessor/BatchMultiClassNonMaxSuppression/map/while/PadOrClipBoxList/strided_slice_2/stack_1", "SecondStagePostprocessor/BatchMultiClassNonMaxSuppression/map/while/PadOrClipBoxList/strided_slice_2/stack_1"], "op": "StridedSlice", "attr": {"ellipsis_mask": {"i": "0"}, "end_mask": {"i": "0"}, "new_axis_mask": {"i": "0"}, "Index": {"type": "DT_INT32"}, "shrink_axis_mask": {"i": "1"}, "T": {"type": "DT_INT32"}, "begin_mask": {"i": "0"}}, "name": "SecondStagePostprocessor/BatchMultiClassNonMaxSuppression/map/while/PadOrClipBoxList/strided_slice_8"}, {"input": ["SecondStagePostprocessor/BatchMultiClassNonMaxSuppression/map/while/PadOrClipBoxList/Shape_6", "SecondStagePostprocessor/BatchMultiClassNonMaxSuppression/map/while/PadOrClipBoxList/strided_slice_2/stack", "SecondStagePostprocessor/BatchMultiClassNonMaxSuppression/map/while/PadOrClipBoxList/strided_slice_2/stack_1", "SecondStagePostprocessor/BatchMultiClassNonMaxSuppression/map/while/PadOrClipBoxList/strided_slice_2/stack_1"], "op": "StridedSlice", "attr": {"ellipsis_mask": {"i": "0"}, "end_mask": {"i": "0"}, "new_axis_mask": {"i": "0"}, "Index": {"type": "DT_INT32"}, "shrink_axis_mask": {"i": "1"}, "T": {"type": "DT_INT32"}, "begin_mask": {"i": "0"}}, "name": "SecondStagePostprocessor/BatchMultiClassNonMaxSuppression/map/while/PadOrClipBoxList/strided_slice_10"}, {"input": ["SecondStagePostprocessor/BatchMultiClassNonMaxSuppression/map/while/PadOrClipBoxList/Shape", "SecondStagePostprocessor/BatchMultiClassNonMaxSuppression/map/while/PadOrClipBoxList/strided_slice_2/stack_1", "SecondStagePostprocessor/BatchMultiClassNonMaxSuppression/map/while/PadOrClipBoxList/strided_slice_1/stack_1", "SecondStagePostprocessor/BatchMultiClassNonMaxSuppression/map/while/PadOrClipBoxList/strided_slice_2/stack_1"], "op": "StridedSlice", "attr": {"ellipsis_mask": {"i": "0"}, "end_mask": {"i": "0"}, "new_axis_mask": {"i": "0"}, "Index": {"type": "DT_INT32"}, "shrink_axis_mask": {"i": "1"}, "T": {"type": "DT_INT32"}, "begin_mask": {"i": "0"}}, "name": "SecondStagePostprocessor/BatchMultiClassNonMaxSuppression/map/while/PadOrClipBoxList/strided_slice_1"}, {"input": ["SecondStagePostprocessor/BatchMultiClassNonMaxSuppression/map/while/PadOrClipBoxList/Shape", "SecondStagePostprocessor/BatchMultiClassNonMaxSuppression/map/while/PadOrClipBoxList/strided_slice_2/stack", "SecondStagePostprocessor/BatchMultiClassNonMaxSuppression/map/while/PadOrClipBoxList/strided_slice_2/stack_1", "SecondStagePostprocessor/BatchMultiClassNonMaxSuppression/map/while/PadOrClipBoxList/strided_slice_2/stack_1"], "op": "StridedSlice", "attr": {"ellipsis_mask": {"i": "0"}, "end_mask": {"i": "0"}, "new_axis_mask": {"i": "0"}, "Index": {"type": "DT_INT32"}, "shrink_axis_mask": {"i": "1"}, "T": {"type": "DT_INT32"}, "begin_mask": {"i": "0"}}, "name": "SecondStagePostprocessor/BatchMultiClassNonMaxSuppression/map/while/PadOrClipBoxList/strided_slice"}, {"input": ["SecondStagePostprocessor/BatchMultiClassNonMaxSuppression/map/while/PadOrClipBoxList/strided_slice_8", "SecondStagePostprocessor/BatchMultiClassNonMaxSuppression/map/while/PadOrClipBoxList/sub_2/x"], "op": "Sub", "attr": {"T": {"type": "DT_INT32"}}, "name": "SecondStagePostprocessor/BatchMultiClassNonMaxSuppression/map/while/PadOrClipBoxList/sub_8"}, {"input": ["SecondStagePostprocessor/BatchMultiClassNonMaxSuppression/map/while/PadOrClipBoxList/strided_slice_10", "SecondStagePostprocessor/BatchMultiClassNonMaxSuppression/map/while/PadOrClipBoxList/sub_2/x"], "op": "Sub", "attr": {"T": {"type": "DT_INT32"}}, "name": "SecondStagePostprocessor/BatchMultiClassNonMaxSuppression/map/while/PadOrClipBoxList/sub_10"}, {"input": ["SecondStagePostprocessor/BatchMultiClassNonMaxSuppression/map/while/PadOrClipBoxList/strided_slice_1", "SecondStagePostprocessor/BatchMultiClassNonMaxSuppression/map/while/PadOrClipBoxList/sub_3/x"], "op": "Sub", "attr": {"T": {"type": "DT_INT32"}}, "name": "SecondStagePostprocessor/BatchMultiClassNonMaxSuppression/map/while/PadOrClipBoxList/sub_1"}, {"input": ["SecondStagePostprocessor/BatchMultiClassNonMaxSuppression/map/while/PadOrClipBoxList/strided_slice", "SecondStagePostprocessor/BatchMultiClassNonMaxSuppression/map/while/PadOrClipBoxList/sub_2/x"], "op": "Sub", "attr": {"T": {"type": "DT_INT32"}}, "name": "SecondStagePostprocessor/BatchMultiClassNonMaxSuppression/map/while/PadOrClipBoxList/sub"}, {"input": ["SecondStagePostprocessor/BatchMultiClassNonMaxSuppression/map/while/PadOrClipBoxList/sub_8", "SecondStagePostprocessor/BatchMultiClassNonMaxSuppression/map/while/PadOrClipBoxList/Greater/y"], "op": "Greater", "attr": {"T": {"type": "DT_INT32"}}, "name": "SecondStagePostprocessor/BatchMultiClassNonMaxSuppression/map/while/PadOrClipBoxList/Greater_4"}, {"input": ["SecondStagePostprocessor/BatchMultiClassNonMaxSuppression/map/while/PadOrClipBoxList/sub_10", "SecondStagePostprocessor/BatchMultiClassNonMaxSuppression/map/while/PadOrClipBoxList/Greater/y"], "op": "Greater", "attr": {"T": {"type": "DT_INT32"}}, "name": "SecondStagePostprocessor/BatchMultiClassNonMaxSuppression/map/while/PadOrClipBoxList/Greater_5"}, {"input": ["SecondStagePostprocessor/BatchMultiClassNonMaxSuppression/map/while/PadOrClipBoxList/sub_1", "SecondStagePostprocessor/BatchMultiClassNonMaxSuppression/map/while/PadOrClipBoxList/Greater/y"], "op": "Greater", "attr": {"T": {"type": "DT_INT32"}}, "name": "SecondStagePostprocessor/BatchMultiClassNonMaxSuppression/map/while/PadOrClipBoxList/Greater_1"}, {"input": ["SecondStagePostprocessor/BatchMultiClassNonMaxSuppression/map/while/PadOrClipBoxList/sub", "SecondStagePostprocessor/BatchMultiClassNonMaxSuppression/map/while/PadOrClipBoxList/Greater/y"], "op": "Greater", "attr": {"T": {"type": "DT_INT32"}}, "name": "SecondStagePostprocessor/BatchMultiClassNonMaxSuppression/map/while/PadOrClipBoxList/Greater"}, {"input": ["SecondStagePostprocessor/BatchMultiClassNonMaxSuppression/map/while/PadOrClipBoxList/Greater_4", "SecondStagePostprocessor/BatchMultiClassNonMaxSuppression/map/while/PadOrClipBoxList/sub_2/x", "SecondStagePostprocessor/BatchMultiClassNonMaxSuppression/map/while/PadOrClipBoxList/Select/e"], "op": "Select", "attr": {"T": {"type": "DT_INT32"}}, "name": "SecondStagePostprocessor/BatchMultiClassNonMaxSuppression/map/while/PadOrClipBoxList/Select_4"}, {"input": ["SecondStagePostprocessor/BatchMultiClassNonMaxSuppression/map/while/PadOrClipBoxList/Greater_5", "SecondStagePostprocessor/BatchMultiClassNonMaxSuppression/map/while/PadOrClipBoxList/sub_2/x", "SecondStagePostprocessor/BatchMultiClassNonMaxSuppression/map/while/PadOrClipBoxList/Select/e"], "op": "Select", "attr": {"T": {"type": "DT_INT32"}}, "name": "SecondStagePostprocessor/BatchMultiClassNonMaxSuppression/map/while/PadOrClipBoxList/Select_5"}, {"input": ["SecondStagePostprocessor/BatchMultiClassNonMaxSuppression/map/while/PadOrClipBoxList/Greater_1", "SecondStagePostprocessor/BatchMultiClassNonMaxSuppression/map/while/PadOrClipBoxList/sub_3/x", "SecondStagePostprocessor/BatchMultiClassNonMaxSuppression/map/while/PadOrClipBoxList/Select/e"], "op": "Select", "attr": {"T": {"type": "DT_INT32"}}, "name": "SecondStagePostprocessor/BatchMultiClassNonMaxSuppression/map/while/PadOrClipBoxList/Select_1"}, {"input": ["SecondStagePostprocessor/BatchMultiClassNonMaxSuppression/map/while/PadOrClipBoxList/Greater", "SecondStagePostprocessor/BatchMultiClassNonMaxSuppression/map/while/PadOrClipBoxList/sub_2/x", "SecondStagePostprocessor/BatchMultiClassNonMaxSuppression/map/while/PadOrClipBoxList/Select/e"], "op": "Select", "attr": {"T": {"type": "DT_INT32"}}, "name": "SecondStagePostprocessor/BatchMultiClassNonMaxSuppression/map/while/PadOrClipBoxList/Select"}, {"input": ["^SecondStagePostprocessor/BatchMultiClassNonMaxSuppression/map/while/PadOrClipBoxList/Select_4"], "op": "Const", "attr": {"value": {"tensor": {"tensorShape": {}, "dtype": "DT_INT32"}}, "dtype": {"type": "DT_INT32"}}, "name": "ConstantFolding/SecondStagePostprocessor/BatchMultiClassNonMaxSuppression/map/while/PadOrClipBoxList/Slice_2/size_const_axis"}, {"input": ["^SecondStagePostprocessor/BatchMultiClassNonMaxSuppression/map/while/PadOrClipBoxList/Select_5"], "op": "Const", "attr": {"value": {"tensor": {"tensorShape": {}, "dtype": "DT_INT32"}}, "dtype": {"type": "DT_INT32"}}, "name": "ConstantFolding/SecondStagePostprocessor/BatchMultiClassNonMaxSuppression/map/while/PadOrClipBoxList/Slice_3/size_const_axis"}, {"input": ["SecondStagePostprocessor/BatchMultiClassNonMaxSuppression/map/while/PadOrClipBoxList/Select", "SecondStagePostprocessor/BatchMultiClassNonMaxSuppression/map/while/PadOrClipBoxList/Select_1"], "op": "Pack", "attr": {"T": {"type": "DT_INT32"}, "N": {"i": "2"}, "axis": {"i": "0"}}, "name": "SecondStagePostprocessor/BatchMultiClassNonMaxSuppression/map/while/PadOrClipBoxList/Slice/size"}, {"input": ["SecondStagePostprocessor/BatchMultiClassNonMaxSuppression/map/while/PadOrClipBoxList/Select_4", "ConstantFolding/SecondStagePostprocessor/BatchMultiClassNonMaxSuppression/map/while/PadOrClipBoxList/Slice_2/size_const_axis"], "op": "ExpandDims", "attr": {"T": {"type": "DT_INT32"}, "Tdim": {"type": "DT_INT32"}}, "name": "SecondStagePostprocessor/BatchMultiClassNonMaxSuppression/map/while/PadOrClipBoxList/Slice_2/size"}, {"input": ["SecondStagePostprocessor/BatchMultiClassNonMaxSuppression/map/while/PadOrClipBoxList/Select_5", "ConstantFolding/SecondStagePostprocessor/BatchMultiClassNonMaxSuppression/map/while/PadOrClipBoxList/Slice_3/size_const_axis"], "op": "ExpandDims", "attr": {"T": {"type": "DT_INT32"}, "Tdim": {"type": "DT_INT32"}}, "name": "SecondStagePostprocessor/BatchMultiClassNonMaxSuppression/map/while/PadOrClipBoxList/Slice_3/size"}, {"input": ["SecondStagePostprocessor/BatchMultiClassNonMaxSuppression/map/while/MultiClassNonMaxSuppression/Gather_4/GatherV2_5", "SecondStagePostprocessor/BatchMultiClassNonMaxSuppression/map/while/PadOrClipBoxList/zeros_1", "SecondStagePostprocessor/BatchMultiClassNonMaxSuppression/map/while/PadOrClipBoxList/Slice/size"], "op": "Slice", "attr": {"Index": {"type": "DT_INT32"}, "T": {"type": "DT_FLOAT"}}, "name": "SecondStagePostprocessor/BatchMultiClassNonMaxSuppression/map/while/PadOrClipBoxList/Slice"}, {"input": ["SecondStagePostprocessor/BatchMultiClassNonMaxSuppression/map/while/MultiClassNonMaxSuppression/Gather_4/GatherV2_2", "SecondStagePostprocessor/BatchMultiClassNonMaxSuppression/map/while/PadOrClipBoxList/strided_slice_2/stack", "SecondStagePostprocessor/BatchMultiClassNonMaxSuppression/map/while/PadOrClipBoxList/Slice_2/size"], "op": "Slice", "attr": {"Index": {"type": "DT_INT32"}, "T": {"type": "DT_FLOAT"}}, "name": "SecondStagePostprocessor/BatchMultiClassNonMaxSuppression/map/while/PadOrClipBoxList/Slice_2"}, {"input": ["SecondStagePostprocessor/BatchMultiClassNonMaxSuppression/map/while/MultiClassNonMaxSuppression/Gather_4/GatherV2_3", "SecondStagePostprocessor/BatchMultiClassNonMaxSuppression/map/while/PadOrClipBoxList/strided_slice_2/stack", "SecondStagePostprocessor/BatchMultiClassNonMaxSuppression/map/while/PadOrClipBoxList/Slice_3/size"], "op": "Slice", "attr": {"Index": {"type": "DT_INT32"}, "T": {"type": "DT_FLOAT"}}, "name": "SecondStagePostprocessor/BatchMultiClassNonMaxSuppression/map/while/PadOrClipBoxList/Slice_3"}, {"input": ["SecondStagePostprocessor/BatchMultiClassNonMaxSuppression/map/while/PadOrClipBoxList/Slice"], "op": "Shape", "attr": {"out_type": {"type": "DT_INT32"}, "T": {"type": "DT_FLOAT"}}, "name": "SecondStagePostprocessor/BatchMultiClassNonMaxSuppression/map/while/PadOrClipBoxList/Shape_1"}, {"input": ["SecondStagePostprocessor/BatchMultiClassNonMaxSuppression/map/while/PadOrClipBoxList/Slice_2"], "op": "Shape", "attr": {"out_type": {"type": "DT_INT32"}, "T": {"type": "DT_FLOAT"}}, "name": "SecondStagePostprocessor/BatchMultiClassNonMaxSuppression/map/while/PadOrClipBoxList/Shape_5"}, {"input": ["SecondStagePostprocessor/BatchMultiClassNonMaxSuppression/map/while/PadOrClipBoxList/Slice_3"], "op": "Shape", "attr": {"out_type": {"type": "DT_INT32"}, "T": {"type": "DT_FLOAT"}}, "name": "SecondStagePostprocessor/BatchMultiClassNonMaxSuppression/map/while/PadOrClipBoxList/Shape_7"}, {"input": ["SecondStagePostprocessor/BatchMultiClassNonMaxSuppression/map/while/PadOrClipBoxList/Shape_1", "SecondStagePostprocessor/BatchMultiClassNonMaxSuppression/map/while/PadOrClipBoxList/strided_slice_2/stack_1", "SecondStagePostprocessor/BatchMultiClassNonMaxSuppression/map/while/PadOrClipBoxList/strided_slice_1/stack_1", "SecondStagePostprocessor/BatchMultiClassNonMaxSuppression/map/while/PadOrClipBoxList/strided_slice_2/stack_1"], "op": "StridedSlice", "attr": {"ellipsis_mask": {"i": "0"}, "end_mask": {"i": "0"}, "new_axis_mask": {"i": "0"}, "Index": {"type": "DT_INT32"}, "shrink_axis_mask": {"i": "1"}, "T": {"type": "DT_INT32"}, "begin_mask": {"i": "0"}}, "name": "SecondStagePostprocessor/BatchMultiClassNonMaxSuppression/map/while/PadOrClipBoxList/strided_slice_3"}, {"input": ["SecondStagePostprocessor/BatchMultiClassNonMaxSuppression/map/while/PadOrClipBoxList/Shape_1", "SecondStagePostprocessor/BatchMultiClassNonMaxSuppression/map/while/PadOrClipBoxList/strided_slice_2/stack", "SecondStagePostprocessor/BatchMultiClassNonMaxSuppression/map/while/PadOrClipBoxList/strided_slice_2/stack_1", "SecondStagePostprocessor/BatchMultiClassNonMaxSuppression/map/while/PadOrClipBoxList/strided_slice_2/stack_1"], "op": "StridedSlice", "attr": {"ellipsis_mask": {"i": "0"}, "end_mask": {"i": "0"}, "new_axis_mask": {"i": "0"}, "Index": {"type": "DT_INT32"}, "shrink_axis_mask": {"i": "1"}, "T": {"type": "DT_INT32"}, "begin_mask": {"i": "0"}}, "name": "SecondStagePostprocessor/BatchMultiClassNonMaxSuppression/map/while/PadOrClipBoxList/strided_slice_2"}, {"input": ["SecondStagePostprocessor/BatchMultiClassNonMaxSuppression/map/while/PadOrClipBoxList/Shape_5", "SecondStagePostprocessor/BatchMultiClassNonMaxSuppression/map/while/PadOrClipBoxList/strided_slice_2/stack", "SecondStagePostprocessor/BatchMultiClassNonMaxSuppression/map/while/PadOrClipBoxList/strided_slice_2/stack_1", "SecondStagePostprocessor/BatchMultiClassNonMaxSuppression/map/while/PadOrClipBoxList/strided_slice_2/stack_1"], "op": "StridedSlice", "attr": {"ellipsis_mask": {"i": "0"}, "end_mask": {"i": "0"}, "new_axis_mask": {"i": "0"}, "Index": {"type": "DT_INT32"}, "shrink_axis_mask": {"i": "1"}, "T": {"type": "DT_INT32"}, "begin_mask": {"i": "0"}}, "name": "SecondStagePostprocessor/BatchMultiClassNonMaxSuppression/map/while/PadOrClipBoxList/strided_slice_9"}, {"input": ["SecondStagePostprocessor/BatchMultiClassNonMaxSuppression/map/while/PadOrClipBoxList/Shape_7", "SecondStagePostprocessor/BatchMultiClassNonMaxSuppression/map/while/PadOrClipBoxList/strided_slice_2/stack", "SecondStagePostprocessor/BatchMultiClassNonMaxSuppression/map/while/PadOrClipBoxList/strided_slice_2/stack_1", "SecondStagePostprocessor/BatchMultiClassNonMaxSuppression/map/while/PadOrClipBoxList/strided_slice_2/stack_1"], "op": "StridedSlice", "attr": {"ellipsis_mask": {"i": "0"}, "end_mask": {"i": "0"}, "new_axis_mask": {"i": "0"}, "Index": {"type": "DT_INT32"}, "shrink_axis_mask": {"i": "1"}, "T": {"type": "DT_INT32"}, "begin_mask": {"i": "0"}}, "name": "SecondStagePostprocessor/BatchMultiClassNonMaxSuppression/map/while/PadOrClipBoxList/strided_slice_11"}, {"input": ["SecondStagePostprocessor/BatchMultiClassNonMaxSuppression/map/while/PadOrClipBoxList/sub_3/x", "SecondStagePostprocessor/BatchMultiClassNonMaxSuppression/map/while/PadOrClipBoxList/strided_slice_3"], "op": "Sub", "attr": {"T": {"type": "DT_INT32"}}, "name": "SecondStagePostprocessor/BatchMultiClassNonMaxSuppression/map/while/PadOrClipBoxList/sub_3"}, {"input": ["SecondStagePostprocessor/BatchMultiClassNonMaxSuppression/map/while/PadOrClipBoxList/sub_2/x", "SecondStagePostprocessor/BatchMultiClassNonMaxSuppression/map/while/PadOrClipBoxList/strided_slice_2"], "op": "Sub", "attr": {"T": {"type": "DT_INT32"}}, "name": "SecondStagePostprocessor/BatchMultiClassNonMaxSuppression/map/while/PadOrClipBoxList/sub_2"}, {"input": ["SecondStagePostprocessor/BatchMultiClassNonMaxSuppression/map/while/PadOrClipBoxList/sub_2/x", "SecondStagePostprocessor/BatchMultiClassNonMaxSuppression/map/while/PadOrClipBoxList/strided_slice_9"], "op": "Sub", "attr": {"T": {"type": "DT_INT32"}}, "name": "SecondStagePostprocessor/BatchMultiClassNonMaxSuppression/map/while/PadOrClipBoxList/sub_9"}, {"input": ["SecondStagePostprocessor/BatchMultiClassNonMaxSuppression/map/while/PadOrClipBoxList/sub_2/x", "SecondStagePostprocessor/BatchMultiClassNonMaxSuppression/map/while/PadOrClipBoxList/strided_slice_11"], "op": "Sub", "attr": {"T": {"type": "DT_INT32"}}, "name": "SecondStagePostprocessor/BatchMultiClassNonMaxSuppression/map/while/PadOrClipBoxList/sub_11"}, {"input": ["SecondStagePostprocessor/BatchMultiClassNonMaxSuppression/map/while/PadOrClipBoxList/sub_2", "SecondStagePostprocessor/BatchMultiClassNonMaxSuppression/map/while/PadOrClipBoxList/sub_3"], "op": "Pack", "attr": {"T": {"type": "DT_INT32"}, "N": {"i": "2"}, "axis": {"i": "0"}}, "name": "SecondStagePostprocessor/BatchMultiClassNonMaxSuppression/map/while/PadOrClipBoxList/stack/values_1"}, {"input": ["^SecondStagePostprocessor/BatchMultiClassNonMaxSuppression/map/while/PadOrClipBoxList/sub_9"], "op": "Const", "attr": {"value": {"tensor": {"tensorShape": {}, "dtype": "DT_INT32"}}, "dtype": {"type": "DT_INT32"}}, "name": "ConstantFolding/SecondStagePostprocessor/BatchMultiClassNonMaxSuppression/map/while/PadOrClipBoxList/stack_2/values_1_const_axis"}, {"input": ["^SecondStagePostprocessor/BatchMultiClassNonMaxSuppression/map/while/PadOrClipBoxList/sub_11"], "op": "Const", "attr": {"value": {"tensor": {"tensorShape": {}, "dtype": "DT_INT32"}}, "dtype": {"type": "DT_INT32"}}, "name": "ConstantFolding/SecondStagePostprocessor/BatchMultiClassNonMaxSuppression/map/while/PadOrClipBoxList/stack_3/values_1_const_axis"}, {"input": ["SecondStagePostprocessor/BatchMultiClassNonMaxSuppression/map/while/PadOrClipBoxList/zeros_1", "SecondStagePostprocessor/BatchMultiClassNonMaxSuppression/map/while/PadOrClipBoxList/stack/values_1"], "op": "Pack", "attr": {"T": {"type": "DT_INT32"}, "N": {"i": "2"}, "axis": {"i": "1"}}, "name": "SecondStagePostprocessor/BatchMultiClassNonMaxSuppression/map/while/PadOrClipBoxList/stack"}, {"input": ["SecondStagePostprocessor/BatchMultiClassNonMaxSuppression/map/while/PadOrClipBoxList/sub_9", "ConstantFolding/SecondStagePostprocessor/BatchMultiClassNonMaxSuppression/map/while/PadOrClipBoxList/stack_2/values_1_const_axis"], "op": "ExpandDims", "attr": {"T": {"type": "DT_INT32"}, "Tdim": {"type": "DT_INT32"}}, "name": "SecondStagePostprocessor/BatchMultiClassNonMaxSuppression/map/while/PadOrClipBoxList/stack_2/values_1"}, {"input": ["SecondStagePostprocessor/BatchMultiClassNonMaxSuppression/map/while/PadOrClipBoxList/sub_11", "ConstantFolding/SecondStagePostprocessor/BatchMultiClassNonMaxSuppression/map/while/PadOrClipBoxList/stack_3/values_1_const_axis"], "op": "ExpandDims", "attr": {"T": {"type": "DT_INT32"}, "Tdim": {"type": "DT_INT32"}}, "name": "SecondStagePostprocessor/BatchMultiClassNonMaxSuppression/map/while/PadOrClipBoxList/stack_3/values_1"}, {"input": ["SecondStagePostprocessor/BatchMultiClassNonMaxSuppression/map/while/PadOrClipBoxList/Slice", "SecondStagePostprocessor/BatchMultiClassNonMaxSuppression/map/while/PadOrClipBoxList/stack"], "op": "Pad", "attr": {"Tpaddings": {"type": "DT_INT32"}, "T": {"type": "DT_FLOAT"}}, "name": "SecondStagePostprocessor/BatchMultiClassNonMaxSuppression/map/while/PadOrClipBoxList/Pad"}, {"input": ["SecondStagePostprocessor/BatchMultiClassNonMaxSuppression/map/while/PadOrClipBoxList/strided_slice_2/stack", "SecondStagePostprocessor/BatchMultiClassNonMaxSuppression/map/while/PadOrClipBoxList/stack_2/values_1"], "op": "Pack", "attr": {"T": {"type": "DT_INT32"}, "N": {"i": "2"}, "axis": {"i": "1"}}, "name": "SecondStagePostprocessor/BatchMultiClassNonMaxSuppression/map/while/PadOrClipBoxList/stack_2"}, {"input": ["SecondStagePostprocessor/BatchMultiClassNonMaxSuppression/map/while/PadOrClipBoxList/strided_slice_2/stack", "SecondStagePostprocessor/BatchMultiClassNonMaxSuppression/map/while/PadOrClipBoxList/stack_3/values_1"], "op": "Pack", "attr": {"T": {"type": "DT_INT32"}, "N": {"i": "2"}, "axis": {"i": "1"}}, "name": "SecondStagePostprocessor/BatchMultiClassNonMaxSuppression/map/while/PadOrClipBoxList/stack_3"}, {"input": ["SecondStagePostprocessor/BatchMultiClassNonMaxSuppression/map/while/TensorArrayWrite/TensorArrayWriteV3/Enter", "SecondStagePostprocessor/BatchMultiClassNonMaxSuppression/map/while/Switch_1:1", "SecondStagePostprocessor/BatchMultiClassNonMaxSuppression/map/while/PadOrClipBoxList/Pad", "SecondStagePostprocessor/BatchMultiClassNonMaxSuppression/map/while/Switch_2:1"], "op": "TensorArrayWriteV3", "attr": {"T": {"type": "DT_FLOAT"}}, "name": "SecondStagePostprocessor/BatchMultiClassNonMaxSuppression/map/while/TensorArrayWrite/TensorArrayWriteV3"}, {"input": ["SecondStagePostprocessor/BatchMultiClassNonMaxSuppression/map/while/PadOrClipBoxList/Slice_2", "SecondStagePostprocessor/BatchMultiClassNonMaxSuppression/map/while/PadOrClipBoxList/stack_2"], "op": "Pad", "attr": {"Tpaddings": {"type": "DT_INT32"}, "T": {"type": "DT_FLOAT"}}, "name": "SecondStagePostprocessor/BatchMultiClassNonMaxSuppression/map/while/PadOrClipBoxList/Pad_2"}, {"input": ["SecondStagePostprocessor/BatchMultiClassNonMaxSuppression/map/while/PadOrClipBoxList/Slice_3", "SecondStagePostprocessor/BatchMultiClassNonMaxSuppression/map/while/PadOrClipBoxList/stack_3"], "op": "Pad", "attr": {"Tpaddings": {"type": "DT_INT32"}, "T": {"type": "DT_FLOAT"}}, "name": "SecondStagePostprocessor/BatchMultiClassNonMaxSuppression/map/while/PadOrClipBoxList/Pad_3"}, {"input": ["SecondStagePostprocessor/BatchMultiClassNonMaxSuppression/map/while/TensorArrayWrite/TensorArrayWriteV3"], "op": "NextIteration", "attr": {"T": {"type": "DT_FLOAT"}}, "name": "SecondStagePostprocessor/BatchMultiClassNonMaxSuppression/map/while/NextIteration_2"}, {"input": ["SecondStagePostprocessor/BatchMultiClassNonMaxSuppression/map/while/TensorArrayWrite_1/TensorArrayWriteV3/Enter", "SecondStagePostprocessor/BatchMultiClassNonMaxSuppression/map/while/Switch_1:1", "SecondStagePostprocessor/BatchMultiClassNonMaxSuppression/map/while/PadOrClipBoxList/Pad_2", "SecondStagePostprocessor/BatchMultiClassNonMaxSuppression/map/while/Switch_3:1"], "op": "TensorArrayWriteV3", "attr": {"T": {"type": "DT_FLOAT"}}, "name": "SecondStagePostprocessor/BatchMultiClassNonMaxSuppression/map/while/TensorArrayWrite_1/TensorArrayWriteV3"}, {"input": ["SecondStagePostprocessor/BatchMultiClassNonMaxSuppression/map/while/TensorArrayWrite_2/TensorArrayWriteV3/Enter", "SecondStagePostprocessor/BatchMultiClassNonMaxSuppression/map/while/Switch_1:1", "SecondStagePostprocessor/BatchMultiClassNonMaxSuppression/map/while/PadOrClipBoxList/Pad_3", "SecondStagePostprocessor/BatchMultiClassNonMaxSuppression/map/while/Switch_4:1"], "op": "TensorArrayWriteV3", "attr": {"T": {"type": "DT_FLOAT"}}, "name": "SecondStagePostprocessor/BatchMultiClassNonMaxSuppression/map/while/TensorArrayWrite_2/TensorArrayWriteV3"}, {"input": ["SecondStagePostprocessor/BatchMultiClassNonMaxSuppression/map/while/TensorArrayWrite_1/TensorArrayWriteV3"], "op": "NextIteration", "attr": {"T": {"type": "DT_FLOAT"}}, "name": "SecondStagePostprocessor/BatchMultiClassNonMaxSuppression/map/while/NextIteration_3"}, {"input": ["SecondStagePostprocessor/BatchMultiClassNonMaxSuppression/map/while/TensorArrayWrite_2/TensorArrayWriteV3"], "op": "NextIteration", "attr": {"T": {"type": "DT_FLOAT"}}, "name": "SecondStagePostprocessor/BatchMultiClassNonMaxSuppression/map/while/NextIteration_4"}], "library": {}, "versions": {}}}